NoteBook2/TCN_Claude/tcn_dengue_model.pth (torch, 231449 bytes, 53 tensors)

embeddings.id_bar.weight f4 [11, 6]
0.517881 1.0394293 1.9691436 -0.0021659744 -0.5184374 0.0046541886 -0.5797777 -0.42203093
-1.6309564 -1.5489423 -0.43400013 1.6509998 -0.26784196 1.2235049 0.9105457 -0.112515815
-0.84566396 0.55064636 0.12599382 -1.4369076 0.08692641 1.6144289 0.69105846 0.29801202
-0.07717128 -0.8041988 -1.5843823 2.778425 1.0713496 2.114119 0.6763339 -0.5832975
1.1973954 -1.2544631 0.68665767 -0.72770536 1.5167443 -1.175152 0.9092681 0.8345869
-0.24583645 1.307497 -0.20234926 0.15686376 1.147165 1.0684046 -1.1088288 -0.46386138
0.4764433 0.36131856 1.1727152 1.2289785 -0.60575217 -0.6101753 -0.7109823 0.5668482
1.4859183 -1.1829098 1.140471 -0.6093623 0.51373136 0.13069229 0.5686898 -0.6070821
-1.1330891 1.083485
00000000: d993 043f 050c 853f e60c fc3f 05f3 0dbb
00000010: 50b8 04bf 2a82 983b 506c 14bf 7014 d8be
00000020: 2ec3 d0bf be43 c6bf 4435 debe f653 d33f
00000030: 9522 89be cf9b 9c3f 8619 693f b16e e6bd
00000040: 6f7d 58bf 29f7 0c3f 8604 013e 97ec b7bf
00000050: 7906 b23d 9ba5 ce3f 35e9 303f 0895 983e
00000060: fa0b 9ebd f9df 4dbf 0acd cabf b7d1 3140
00000070: fc21 893f ba4d 0740 3824 2d3f fc52 15bf
00000080: 4144 993f 3f92 a0bf ccc8 2f3f e64a 3abf
00000090: ad24 c23f 616b 96bf cbc5 683f 7da7 553f
000000a0: 8dbc 7bbe 105c a73f a534 4fbe e5a0 203e
000000b0: 4dd6 923f 7bc1 883f 1aee 8dbf 3d7f edbe
000000c0: 60f0 f33e bffe b83e 881b 963f 2b4f 9d3f
000000d0: 9312 1bbf 7334 1cbf f002 36bf f71c 113f
000000e0: 9232 be3f 9769 97bf f4fa 913f 2bff 1bbf
000000f0: e683 033f 33d4 053e a895 113f bc69 1bbf
00000100: 1009 91bf a3af 8a3f

embeddings.ESTRATO.weight f4 [4, 2]
0.9083639 2.192395 -1.7949487 0.6303121 -1.0841519 2.436604 -0.5783165 -1.3669993
00000000: 898a 683f 3350 0c40 e1c0 e5bf 225c 213f
00000010: 7dc5 8abf 52f1 1b40 8d0c 14bf d5f9 aebf

network.0.conv1.weight f4 [61, 23, 2]
0.11268175 -0.040085666 0.06790647 0.124925695 0.028403392 0.012716951 -0.02313311 -0.06705392
-0.07575345 0.06215138 -0.011495355 0.08216549 0.028881263 0.055225316 -0.16473427 -0.08954503
0.054611742 -0.08539597 -0.15118578 -0.03314629 -0.12438793 0.0065972507 0.0080709 0.10558602
0.14937355 -0.026318885 0.11294205 0.118049175 0.16634706 -0.030245556 -0.062424596 -0.10310138
-0.1290585 0.033300254 0.06985369 -0.0644365 0.04516848 0.10909565 -7.2712086e-05 0.09070484
0.03797551 -0.018630946 0.10627737 0.09010964 0.07777625 -0.15759408 0.03188668 -0.09750003
0.11406716 0.08108168 -0.072778516 0.000107262604 -0.030658878 -0.021905346 -0.17140631 -0.0019817692
0.07143948 -0.08860095 -0.027958296 -0.21568663 0.09289987 -0.010198524 0.1328328 0.026579361
0.13059251 0.04217643 0.028727755 0.13049188 -0.04921928 -0.14435185 -0.07228992 -0.21075375
0.11258002 0.06235646 -0.14297263 -0.030032083 -0.15439612 0.045967415 0.1615787 0.06183886
0.1028612 0.12556736 0.12697503 0.03150539 -0.123108715 0.08417323 -0.057129774 0.01041482
0.13669516 0.1036327 0.012475815 -0.10184875 0.033985037 0.049228176 0.13913433 -0.10956801
0.0626014 -0.008896267 -0.045519713 0.10048536 -0.07398699 0.101779826 -0.024246383 0.18018982
-0.015004667 0.012789349 -0.15690073 0.09846177 -0.13465412 0.15497413 -0.15320906 0.17073898
0.12366584 -0.099775285 -0.09910814 0.00032008998 -0.0043702824 0.032057215 -0.011543263 -0.051854987
0.1583042 -0.040798552 0.040208355 -0.029330587 0.12702124 0.04867372 -0.10683588 0.072141334
0.023668993 0.025431216 -0.030285742 0.14950164 -0.013987854 -0.15396647 -0.14717507 0.05771994
-0.109422155 0.13140818 0.07136708 -0.1182824 0.02508682 0.019123822 0.070381634 -0.095961675
-0.08835316 -0.02986967 0.0973056 0.13019498 -0.09259947 0.09133864 0.026429798 -0.14735135
-0.14241508 0.03090356 -0.04260011 -0.039212625 0.09315254 0.0074750483 0.094037384 0.112222314
-0.055341218 -0.15804635 -0.22673552 -0.23521017 -0.2165148 0.070162326 0.19127484 -0.050808795
-0.073986016 -0.075099364 0.030245671 -0.032466996 -0.06855615 0.076680005 -0.025258416 0.09573298
0.007207727 -0.054719158 0.0032054475 -0.1463062 -0.13114615 0.086479954 0.1289516 0.10380254
0.042476453 -0.10021746 0.005209212 -0.09213815 -0.007261054 -0.1504176 0.13179961 0.100618795
-0.05159232 0.04952449 -0.04158366 0.09662889 -0.04043202 -0.19318216 0.02480704 -0.16470619
-0.035959583 -0.06759478 0.11876396 0.006585133 0.0838598 -0.048813477 -0.11341066 -0.072169356
0.11676623 -0.0327941 -0.00937042 -0.06562799 0.017102933 0.19617753 -0.0321772 -0.0025095178
-0.08141283 0.13582093 0.110619105 0.0493114 -0.0296217 -0.09534487 -0.085849255 -0.105859935
0.033038057 -0.080424905 -0.12060492 -0.17290188 0.15390424 -0.037376802 -0.033393007 0.1186823
-0.09946773 -0.12769964 -0.007393052 -0.014337292 -0.07755836 -0.048636865 -0.11089094 0.089961104
0.1271348 0.018579189 -0.22480646 -0.10496377 -0.07122721 -0.10762472 0.10943487 0.009760475
0.0931416 -0.068674654 0.057069466 -0.038076654 0.014212987 0.096330374 0.054992978 0.0645535
00000000: b0c5 e63d de30 24bd 8c12 8b3d 0bd9 ff3d
00000010: 3bae e83c c25a 503c a681 bdbc 9153 89bd
00000020: a024 9bbd 7292 7e3d 0357 3cbc 6146 a83d
00000030: 6698 ec3c f133 623d 1ab0 28be 6263 b7bd
00000040: 90b0 5f3d 15e4 aebd 72d0 1abe 67c4 07bd
00000050: 19bf febd c02d d83b cf3b 043c 7c3d d83d
00000060: 61f5 183e b49a d7bc 294e e73d c4c3 f13d
00000070: e256 2a3e 87c5 f7bc efb0 7fbd d126 d3bd
00000080: e927 04be d965 083d 740f 8f3d 49f7 83bd
00000090: 9602 393d 8a6d df3d 017d 98b8 76c3 b93d
000000a0: 358c 1b3d ed9f 98bc f3a7 d93d 678b b83d
000000b0: 2849 9f3d 5860 21be 9b9b 023d 19ae c7bd
000000c0: 0b9c e93d 270e a63d e70c 95bd 2cf2 e038
000000d0: 5428 fbbc d772 b3bc 2385 2fbe 92e0 01bb
000000e0: dd4e 923d 6a74 b5bd cc08 e5bc f5dc 5cbe
000000f0: 4942 be3d b617 27bc 5205 083e f6bc d93c
00000100: 0bba 053e 31c1 2c3d 7856 eb3c aa9f 053e
00000110: 289a 49bd f9d0 13be bd0c 94bd d5cf 57be
00000120: 5b90 e63d 7d69 7f3d 6b67 12be d805 f6bc
00000130: 041a 1ebe 5448 3c3d e374 253e bf4a 7d3d
00000140: e5a8 d23d bb94 003e be05 023e cc0b 013d
00000150: 6c20 fcbd 0463 ac3d e900 6abd eca2 2a3c
00000160: d1f9 0b3e 623d d43d 5c67 4c3c 1496 d0bd
00000170: e533 0b3d 7ca3 493d 3b79 0e3e 3165 e0bd
00000180: 2a35 803d a6c1 11bc e172 3abd 45cb cd3d
00000190: 7e86 97bd f171 d03d 5aa0 c6bc ae83 383e
000001a0: 23d6 75bc 6b8a 513c 96aa 20be 53a6 c93d
000001b0: c5e2 09be 8ab1 1e3e d6e2 1cbe 33d6 2e3e
000001c0: 8444 fd3d fc56 ccbd 35f9 cabd c0d1 a739
000001d0: 9634 8fbb 6d4e 033d f41f 3dbc e565 54bd
000001e0: 7f1a 223e 621c 27bd 84b1 243d b346 f0bc
000001f0: db11 023e 185e 473d c5cc dabd d6be 933d
00000200: 7ae5 c13c 2055 d03c ce19 f8bc f516 193e
00000210: 502d 65bc 63a9 1dbe 10b5 16be be6b 6c3d
00000220: b918 e0bd de8f 063e e728 923d 0b3e f2bd
00000230: e082 cd3c 90a9 9c3c 3f24 903d 8e87 c4bd
00000240: 80f2 b4bd 3db1 f4bc 2948 c73d d551 053e
00000250: caa4 bdbd c10f bb3d 4e83 d83c 46e3 16be
00000260: 42d5 11be 7629 fd3c 747d 2ebd 6b9d 20bd
00000270: c2c6 be3d 40f1 f43b ac96 c03d d0d4 e53d
00000280: 79ad 62bd e7d6 21be 5b2d 68be efda 70be
00000290: 0eb6 5dbe 44b1 8f3d 8ddd 433e e21c 50bd
000002a0: fb85 97bd b2cd 99bd c5c5 f73c 1dfc 04bd
000002b0: 2b67 8cbd 680a 9d3d bdea cebc a70f c43d
000002c0: cc2e ec3b 3221 60bd 7c12 523b 4bd1 15be
000002d0: 2d4b 06be 671c b13d e30b 043e 6d96 d43d
000002e0: cafb 2d3d d03e cdbd 0ab2 aa3b edb2 bcbd
000002f0: 23ee edbb 1207 1abe 7af6 063e 3a11 ce3d
00000300: 7852 53bd 31da 4a3d a153 2abd 5ee5 c53d
00000310: 0c9c 25bd 8bd1 45be 2238 cb3c bda8 28be
00000320: 5b4a 13bd 226f 8abd 853a f33d 19c8 d73b
00000330: b0be ab3d a4f0 47bd d943 e8bd 87cd 93bd
00000340: 2223 ef3d 1b53 06bd 6486 19bc f867 86bd
00000350: 731b 8c3c c3e2 483e 3dcc 03bd b976 24bb
00000360: c5bb a6bd a414 0b3e 458c e23d c0fa 493d
00000370: 35a9 f2bc 2c44 c3bd bcd1 afbd 18cd d8bd
00000380: ea52 073d d0b5 a4bd b6ff f6bd 310d 31be
00000390: 1399 1d3e 6b18 19bd 1bc7 08bd b50f f33d
000003a0: bdb5 cbbd b2c3 02be 6a41 f2bb f6e6 6abc
000003b0: ebd6 9ebd 7337 47bd ca1a e3bd 873d b83d
000003c0: a02f 023e 6233 983c aa33 66be 3ff7 d6bd
000003d0: 92df 91bd 596a dcbd 641f e03d 66ea 1f3c
000003e0: 06c1 be3d 4ca5 8cbd acc1 693d 44f6 1bbd
000003f0: 97dd 683c dc48 c53d 5140 613d a034 843d

network.0.conv1.bias f4 [61]
-0.08609918 -0.013759235 -0.05153748 -0.0790014 -0.11746177 -0.018875124 0.09420875 -0.074756674
-0.035580374 0.010300467 0.15185289 -0.10134813 -0.02690809 -0.121277265 -0.003774017 0.0663685
-0.030790152 -0.014149427 0.025640717 0.0038630594 0.13432434 0.027377594 -0.0614133 -0.06732034
0.12741596 0.13984801 0.07169647 0.046138417 -0.09777789 0.13975602 0.030212408 -0.1288429
0.086092085 -0.10161228 -0.039435208 -0.08979707 0.039697655 0.15384749 0.024973745 -0.00780248
0.11070689 0.11038319 -0.06078701 0.1183356 0.14114821 -0.14177608 -0.094432965 0.11211474
-0.083826505 -0.12522207 0.05350498 -0.022243083 0.045911767 -0.064003356 -0.05764471 0.15741782
0.046633273 -0.03858463 0.09165851 -0.055927493 0.01953957
00000000: c454 b0bd 6a6e 61bc f718 53bd 7ccb a1bd
00000010: cc8f f0bd 01a0 9abc 84f0 c03d 071a 99bd
00000020: babc 11bd 4ac3 283c 537f 1b3e 9c8f cfbd
00000030: 5b6e dcbc 3760 f8bd 8055 77bb 35ec 873d
00000040: a13b fcbc 00d3 67bc 7b0c d23c 622b 7d3b
00000050: 528c 093e fa46 e03c 838c 7bbd 3fdf 89bd
00000060: 5479 023e 5134 0f3e 99d5 923d a3fb 3c3d
00000070: c63f c8bd 341c 0f3e 0380 f73c 65ef 03be
00000080: 0c51 b03d 191a d0bd d086 21bd 87e7 b7bd
00000090: 029a 223d 328a 1d3e bd95 cc3c f2ab ffbb
000000a0: 4bba e23d 9510 e23d cdfb 78bd ef59 f23d
000000b0: 2889 103e c02d 11be 1266 c1bd 6a9c e53d
000000c0: 3bad abbd 373a 00be 0a28 5b3d 2037 b6bc
000000d0: fa0d 3c3d 3114 83bd dc1c 6cbd 2332 213e
000000e0: 8802 3f3d eb0a 1ebd 75b7 bb3d 3a14 65bd
000000f0: 7311 a03c

network.0.conv2.weight f4 [61, 61, 2]
-0.04213084 0.038143925 -0.06991112 0.053165253 0.120110266 0.004795549 0.023266293 -0.050337743
0.104995705 -0.0027352686 -0.013576877 -0.03388395 -0.026237488 -0.01951299 0.054063592 0.01983572
-0.14700088 -0.014522824 0.03392899 0.033303604 0.08021039 0.04478164 -0.09825486 -0.035934925
0.061662775 0.07820303 0.057770297 -0.026877873 0.05260342 0.010983926 0.11015895 0.06768521
0.00385197 0.014542378 -0.10448226 0.022197386 -0.09318501 0.046126354 0.004583789 -0.06332465
0.07274978 -0.014577372 -0.0049507236 0.065260306 0.038526557 0.0071499203 0.057778634 -0.063451044
-0.04630712 0.04016355 0.084571935 0.0102405455 -0.026607484 0.026472153 -0.05296118 -0.015471402
-0.01937605 0.049115323 0.050207138 0.048662275 0.0073012053 -0.034265544 -0.06888003 0.051044907
1.2343237e-05 0.1140196 0.010448741 0.09913547 -0.11483388 -0.07539798 -0.062770344 -0.03951214
-0.03336767 0.0372341 -0.046652373 0.027606176 0.04908471 0.055810172 -0.05886328 -0.009648526
0.027327644 0.11708054 0.08582331 0.022073073 -0.024953611 0.013291538 0.009383764 0.038189832
-0.047023837 -0.0038314317 0.09297587 0.09571101 0.046218 0.11044636 -0.08001699 0.022803191
0.11229379 -0.033147197 -0.111224264 0.0063304524 0.07261966 0.0464572 0.030929273 -0.018593213
-0.041223645 0.029454373 0.05609876 0.04647726 0.0011824633 -0.09791053 -0.08127535 0.042057503
-0.008328298 -0.00199823 -0.03736437 -0.014468099 0.014240281 0.0196335 0.05225542 -0.059706204
0.10203529 0.09524477 -0.035522923 0.036338832 -0.0680765 -0.12274377 0.065969974 0.12665702
-0.0710756 -0.017766496 0.019812357 0.007911737 0.06464962 0.04636713 0.055486873 0.042277772
-0.048342697 0.09690562 -0.102003224 -0.12447637 0.09135191 0.13792689 0.022348251 -0.0038161618
-0.06772723 -0.117119685 0.11530506 0.120347336 -0.06766923 0.068736516 -0.064762875 0.015806573
0.10916069 0.055370253 0.0973314 -0.033305295 0.014226657 -0.048791684 -0.11126816 -0.15161636
-0.14417902 -0.13911837 0.05354995 0.0707556 -0.01855924 0.009108087 0.01721313 0.096018836
-0.014864175 0.06120812 -0.026556615 -0.14819215 0.04238985 -0.014049969 0.09860633 0.08842955
0.080246545 0.050590433 -0.02300146 0.105927475 0.04025462 0.12661667 -0.02978221 0.05886361
-0.046391435 -0.03562056 0.09156395 0.06204004 0.081333905 -0.013139174 -0.00017982785 -0.022961723
-0.0018728387 -0.06654546 -0.085513026 -0.13614081 -0.03956026 0.0074168164 -0.08128221 -0.11983518
-0.021385413 -0.047932558 -0.011242981 0.11659236 -0.055923443 -0.043599267 -0.037667908 0.10241932
-0.022830606 0.014224632 -0.03952163 -0.061779007 0.017754653 -0.007453954 -0.07296955 -0.089254774
0.039222233 -0.026810845 0.104895875 0.07207262 -0.07856828 -0.1121987 0.06362983 0.12043671
0.09962212 -0.0341536 -0.039199416 0.026581664 0.05209453 0.09473985 -0.11647921 -0.16482638
-0.032239545 0.07018657 -0.026643502 -0.061637472 -0.041708212 0.009451099 0.100335136 0.073658675
0.07300395 -0.07469578 -0.03239073 -0.07549019 0.0013284758 -0.0009770703 -0.07501477 0.08109483
-0.042143997 -0.07798497 0.06863496 0.03656029 0.039873526 -0.044184607 -0.10393814 0.006497778
00000000: 6391 2cbd ce3c 1c3d 902d 8fbd cfc3 593d
00000010: 5ffc f53d fb23 9d3b f498 be3c f32e 4ebd
00000020: fd07 d73d 3142 33bb 8d71 5ebc e6c9 0abd
00000030: 00f0 d6bc b5d9 9fbc c971 5d3d 857e a23c
00000040: 6687 16be 24f1 6dbc 20f9 0a3d 5c69 083d
00000050: 5845 a43d f46c 373d d839 c9bd 8030 13bd
00000060: 1b92 7c3d e928 a03d 8ca0 6c3d fc2e dcbc
00000070: af76 573d edf5 333c 049b e13d 8b9e 8a3d
00000080: 5571 7c3b 2743 6e3c ccfa d5bd 4bd7 b53c
00000090: c8d7 bebd fdee 3c3d 9c33 963b 5bb0 81bd
000000a0: d6fd 943d eed5 6ebc ae39 a2bb 32a7 853d
000000b0: 06ce 1d3d e149 ea3b 4aa9 6c3d 9ff2 81bd
000000c0: 89ac 3dbd 8982 243d 0d34 ad3d f6c7 273c
000000d0: f0f7 d9bc 21dc d83c d3ed 58bd c37b 7dbc
000000e0: 86ba 9ebc 262d 493d 00a6 4d3d 1852 473d
000000f0: f33e ef3b 075a 0cbd f910 8dbd 7714 513d
00000100: cd15 4f37 1c83 e93d 3231 2b3c 8a07 cb3d
00000110: 062e ebbd 426a 9abd bd8d 80bd 7bd7 21bd
00000120: 8aac 08bd c982 183d 8f16 3fbd 5926 e23c
00000130: 0d0d 493d 3599 643d 9f1a 71bd da14 1ebc
00000140: 39de df3c ecc7 ef3d 22c4 af3d 97d2 b43c
00000150: 846b ccbc c0c4 593c 5cbe 193c f16c 1c3d
00000160: 119c 40bd c218 7bbb 226a be3d 2204 c43d
00000170: 164f 3d3d b431 e23d f3df a3bd c2cd ba3c
00000180: 49fa e53d 5bc5 07bd 8cc9 e3bd af6f cf3b
00000190: 9eb9 943d e849 3e3d 635f fd3c cb50 98bc
000001a0: 20da 28bd 4c4a f13c d0c7 653d f05e 3e3d
000001b0: e2fc 9a3a 5185 c8bd b173 a6bd 7d44 2c3d
000001c0: 6a73 08bc bcf4 02bb 620b 19bd 9b0b 6dbc
000001d0: 1150 693c 6fd6 a03c c709 563d 7e8e 74bd
000001e0: e1f7 d03d b10f c33d 7c80 11bd 07d8 143d
000001f0: b16b 8bbd 1661 fbbd 441b 873d 61b2 013e
00000200: 1690 91bd 0b8b 91bc 864d a23c 3ba0 013c
00000210: 0567 843d 76eb 3d3d 3446 633d 752b 2d3d
00000220: fe02 46bd 7476 c63d 11e7 d0bd 78ed febd
00000230: b616 bb3d b53c 0d3e ae13 b73c 9218 7abb
00000240: 93b4 8abd 72dc efbd 0f25 ec3d aa78 f63d
00000250: 2a96 8abd bbc5 8c3d 66a2 84bd c97c 813c
00000260: a48f df3d ebcb 623d af55 c73d 226b 08bd
00000270: ed16 693c cad9 47bd 90e0 e3bd 5241 1bbe
00000280: aaa3 13be 0c75 0ebe 3157 5b3d 50e8 903d
00000290: 8c09 98bc 163a 153c 8d02 8d3c 86a5 c43d
000002a0: de88 73bc 5eb5 7a3d 428d d9bc afbf 17be
000002b0: fba0 2d3d d731 66bc 1ef2 c93d 8d1a b53d
000002c0: 4d58 a43d ea37 4f3d 8f6d bcbc 81f0 d83d
000002d0: 07e2 243d cda7 013e d2f9 f3bc f81a 713d
000002e0: f204 3ebd dde6 11bd e185 bb3d b21d 7e3d
000002f0: 6492 a63d b145 57bc 2c90 3cb9 391a bcbc
00000300: 0a7a f5ba fc48 88bd 7421 afbd 7f68 0bbe
00000310: f009 22bd c408 f33b 4a77 a6bd 266c f5bd
00000320: 7630 afbc ee54 44bd 7b34 38bc fac7 ee3d
00000330: fb0f 65bd 2595 32bd aa49 1abd 38c1 d13d
00000340: 4007 bbbc 6e0e 693c 6fe1 21bd fc0b 7dbd
00000350: 3572 913c 4c40 f4bb 0f71 95bd 35cb b6bd
00000360: 7ea7 203d 6ba2 dbbc a6d3 d63d cf9a 933d
00000370: 68e8 a0bd 6fc8 e5bd 5b50 823d 86a7 f63d
00000380: af06 cc3d a5e4 0bbd 918f 20bd cac1 d93c
00000390: 1361 553d f706 c23d a78c eebd 3fc8 28be
000003a0: 9d0d 04bd fabd 8f3d 7943 dabc 9377 7cbd
000003b0: 3bd6 2abd c8d8 1a3c 827c cd3d 5cda 963d
000003c0: 1883 953d 1afa 98bd 24ac 04bd 9a9a 9abd
000003d0: 4020 ae3a 0a11 80ba 58a1 99bd 0c15 a63d
000003e0: 2f9f 2cbd 95b6 9fbd 7c90 8c3d 3ec0 153d
000003f0: 6c52 233d ebfa 34bd 85dd d4bd 50eb d43b

network.0.conv2.bias f4 [61]
0.06834161 0.061921645 -0.061440952 -0.01123621 -0.05249892 0.037745766 -0.032238465 0.0005713718
-0.025105404 -0.076056026 -0.0092847375 -0.0062812506 0.092057966 -0.01877685 -0.06320204 0.091506645
0.09435801 0.047004312 0.01815732 0.018190071 0.08887163 -0.0022954312 0.10041998 0.0069039348
0.0037416269 0.079145834 -0.01853513 -0.07746748 -0.051872544 0.057053752 -0.010080873 -0.05108481
-0.049255613 0.10531465 0.054041527 -0.025616195 0.06555075 0.029796798 -0.05377209 0.08560356
0.08392442 -0.061235 -0.042433165 0.0868639 0.016283093 0.04114603 -0.017251026 0.0139774885
0.0024602134 0.030461462 0.024835207 0.031680465 0.102453604 -0.010930539 0.050407004 -0.064326555
0.085613586 0.0064226366 -0.038685024 0.0970036 0.10181569
00000000: b0f6 8b3d 8da1 7d3d 82a9 7bbd 1518 38bc
00000010: 1c09 57bd 4e9b 1a3d 7b0c 04bd 1dc8 153a
00000020: d9a9 cdbc 43c3 9bbd 031f 18bc f3d2 cdbb
00000030: e388 bc3d e9d1 99bc 1270 81bd d667 bb3d
00000040: c63e c13d 9887 403d a9be 943c 5803 953c
00000050: 5402 b63d f26e 16bb fea8 cd3d 673a e23b
00000060: 1536 753b 3617 a23d fcd6 97bc 45a7 9ebd
00000070: 4e78 54bd 32b1 693d 3f2a 25bc 4e3e 51bd
00000080: 41c0 49bd 35af d73d a65a 5d3d 0ed9 d1bc
00000090: 793f 863d 6a18 f43c 1f40 5cbd eb50 af3d
000000a0: 91e0 ab3d 8dd1 7abd 66ce 2dbd b3e5 b13d
000000b0: 1f64 853c bd88 283d 0652 8dbc d601 653c
000000c0: 883b 213b 518a f93c 3473 cb3c 60c3 013d
000000d0: 32d3 d13d 0116 33bc 9377 4e3d a4bd 83bd
000000e0: 2d56 af3d fb74 d23b 3074 1ebd d3a9 c63d
000000f0: bf84 d03d

network.0.net.0.weight f4 [61, 23, 2]
0.11268175 -0.040085666 0.06790647 0.124925695 0.028403392 0.012716951 -0.02313311 -0.06705392
-0.07575345 0.06215138 -0.011495355 0.08216549 0.028881263 0.055225316 -0.16473427 -0.08954503
0.054611742 -0.08539597 -0.15118578 -0.03314629 -0.12438793 0.0065972507 0.0080709 0.10558602
0.14937355 -0.026318885 0.11294205 0.118049175 0.16634706 -0.030245556 -0.062424596 -0.10310138
-0.1290585 0.033300254 0.06985369 -0.0644365 0.04516848 0.10909565 -7.2712086e-05 0.09070484
0.03797551 -0.018630946 0.10627737 0.09010964 0.07777625 -0.15759408 0.03188668 -0.09750003
0.11406716 0.08108168 -0.072778516 0.000107262604 -0.030658878 -0.021905346 -0.17140631 -0.0019817692
0.07143948 -0.08860095 -0.027958296 -0.21568663 0.09289987 -0.010198524 0.1328328 0.026579361
0.13059251 0.04217643 0.028727755 0.13049188 -0.04921928 -0.14435185 -0.07228992 -0.21075375
0.11258002 0.06235646 -0.14297263 -0.030032083 -0.15439612 0.045967415 0.1615787 0.06183886
0.1028612 0.12556736 0.12697503 0.03150539 -0.123108715 0.08417323 -0.057129774 0.01041482
0.13669516 0.1036327 0.012475815 -0.10184875 0.033985037 0.049228176 0.13913433 -0.10956801
0.0626014 -0.008896267 -0.045519713 0.10048536 -0.07398699 0.101779826 -0.024246383 0.18018982
-0.015004667 0.012789349 -0.15690073 0.09846177 -0.13465412 0.15497413 -0.15320906 0.17073898
0.12366584 -0.099775285 -0.09910814 0.00032008998 -0.0043702824 0.032057215 -0.011543263 -0.051854987
0.1583042 -0.040798552 0.040208355 -0.029330587 0.12702124 0.04867372 -0.10683588 0.072141334
0.023668993 0.025431216 -0.030285742 0.14950164 -0.013987854 -0.15396647 -0.14717507 0.05771994
-0.109422155 0.13140818 0.07136708 -0.1182824 0.02508682 0.019123822 0.070381634 -0.095961675
-0.08835316 -0.02986967 0.0973056 0.13019498 -0.09259947 0.09133864 0.026429798 -0.14735135
-0.14241508 0.03090356 -0.04260011 -0.039212625 0.09315254 0.0074750483 0.094037384 0.112222314
-0.055341218 -0.15804635 -0.22673552 -0.23521017 -0.2165148 0.070162326 0.19127484 -0.050808795
-0.073986016 -0.075099364 0.030245671 -0.032466996 -0.06855615 0.076680005 -0.025258416 0.09573298
0.007207727 -0.054719158 0.0032054475 -0.1463062 -0.13114615 0.086479954 0.1289516 0.10380254
0.042476453 -0.10021746 0.005209212 -0.09213815 -0.007261054 -0.1504176 0.13179961 0.100618795
-0.05159232 0.04952449 -0.04158366 0.09662889 -0.04043202 -0.19318216 0.02480704 -0.16470619
-0.035959583 -0.06759478 0.11876396 0.006585133 0.0838598 -0.048813477 -0.11341066 -0.072169356
0.11676623 -0.0327941 -0.00937042 -0.06562799 0.017102933 0.19617753 -0.0321772 -0.0025095178
-0.08141283 0.13582093 0.110619105 0.0493114 -0.0296217 -0.09534487 -0.085849255 -0.105859935
0.033038057 -0.080424905 -0.12060492 -0.17290188 0.15390424 -0.037376802 -0.033393007 0.1186823
-0.09946773 -0.12769964 -0.007393052 -0.014337292 -0.07755836 -0.048636865 -0.11089094 0.089961104
0.1271348 0.018579189 -0.22480646 -0.10496377 -0.07122721 -0.10762472 0.10943487 0.009760475
0.0931416 -0.068674654 0.057069466 -0.038076654 0.014212987 0.096330374 0.054992978 0.0645535
00000000: b0c5 e63d de30 24bd 8c12 8b3d 0bd9 ff3d
00000010: 3bae e83c c25a 503c a681 bdbc 9153 89bd
00000020: a024 9bbd 7292 7e3d 0357 3cbc 6146 a83d
00000030: 6698 ec3c f133 623d 1ab0 28be 6263 b7bd
00000040: 90b0 5f3d 15e4 aebd 72d0 1abe 67c4 07bd
00000050: 19bf febd c02d d83b cf3b 043c 7c3d d83d
00000060: 61f5 183e b49a d7bc 294e e73d c4c3 f13d
00000070: e256 2a3e 87c5 f7bc efb0 7fbd d126 d3bd
00000080: e927 04be d965 083d 740f 8f3d 49f7 83bd
00000090: 9602 393d 8a6d df3d 017d 98b8 76c3 b93d
000000a0: 358c 1b3d ed9f 98bc f3a7 d93d 678b b83d
000000b0: 2849 9f3d 5860 21be 9b9b 023d 19ae c7bd
000000c0: 0b9c e93d 270e a63d e70c 95bd 2cf2 e038
000000d0: 5428 fbbc d772 b3bc 2385 2fbe 92e0 01bb
000000e0: dd4e 923d 6a74 b5bd cc08 e5bc f5dc 5cbe
000000f0: 4942 be3d b617 27bc 5205 083e f6bc d93c
00000100: 0bba 053e 31c1 2c3d 7856 eb3c aa9f 053e
00000110: 289a 49bd f9d0 13be bd0c 94bd d5cf 57be
00000120: 5b90 e63d 7d69 7f3d 6b67 12be d805 f6bc
00000130: 041a 1ebe 5448 3c3d e374 253e bf4a 7d3d
00000140: e5a8 d23d bb94 003e be05 023e cc0b 013d
00000150: 6c20 fcbd 0463 ac3d e900 6abd eca2 2a3c
00000160: d1f9 0b3e 623d d43d 5c67 4c3c 1496 d0bd
00000170: e533 0b3d 7ca3 493d 3b79 0e3e 3165 e0bd
00000180: 2a35 803d a6c1 11bc e172 3abd 45cb cd3d
00000190: 7e86 97bd f171 d03d 5aa0 c6bc ae83 383e
000001a0: 23d6 75bc 6b8a 513c 96aa 20be 53a6 c93d
000001b0: c5e2 09be 8ab1 1e3e d6e2 1cbe 33d6 2e3e
000001c0: 8444 fd3d fc56 ccbd 35f9 cabd c0d1 a739
000001d0: 9634 8fbb 6d4e 033d f41f 3dbc e565 54bd
000001e0: 7f1a 223e 621c 27bd 84b1 243d b346 f0bc
000001f0: db11 023e 185e 473d c5cc dabd d6be 933d
00000200: 7ae5 c13c 2055 d03c ce19 f8bc f516 193e
00000210: 502d 65bc 63a9 1dbe 10b5 16be be6b 6c3d
00000220: b918 e0bd de8f 063e e728 923d 0b3e f2bd
00000230: e082 cd3c 90a9 9c3c 3f24 903d 8e87 c4bd
00000240: 80f2 b4bd 3db1 f4bc 2948 c73d d551 053e
00000250: caa4 bdbd c10f bb3d 4e83 d83c 46e3 16be
00000260: 42d5 11be 7629 fd3c 747d 2ebd 6b9d 20bd
00000270: c2c6 be3d 40f1 f43b ac96 c03d d0d4 e53d
00000280: 79ad 62bd e7d6 21be 5b2d 68be efda 70be
00000290: 0eb6 5dbe 44b1 8f3d 8ddd 433e e21c 50bd
000002a0: fb85 97bd b2cd 99bd c5c5 f73c 1dfc 04bd
000002b0: 2b67 8cbd 680a 9d3d bdea cebc a70f c43d
000002c0: cc2e ec3b 3221 60bd 7c12 523b 4bd1 15be
000002d0: 2d4b 06be 671c b13d e30b 043e 6d96 d43d
000002e0: cafb 2d3d d03e cdbd 0ab2 aa3b edb2 bcbd
000002f0: 23ee edbb 1207 1abe 7af6 063e 3a11 ce3d
00000300: 7852 53bd 31da 4a3d a153 2abd 5ee5 c53d
00000310: 0c9c 25bd 8bd1 45be 2238 cb3c bda8 28be
00000320: 5b4a 13bd 226f 8abd 853a f33d 19c8 d73b
00000330: b0be ab3d a4f0 47bd d943 e8bd 87cd 93bd
00000340: 2223 ef3d 1b53 06bd 6486 19bc f867 86bd
00000350: 731b 8c3c c3e2 483e 3dcc 03bd b976 24bb
00000360: c5bb a6bd a414 0b3e 458c e23d c0fa 493d
00000370: 35a9 f2bc 2c44 c3bd bcd1 afbd 18cd d8bd
00000380: ea52 073d d0b5 a4bd b6ff f6bd 310d 31be
00000390: 1399 1d3e 6b18 19bd 1bc7 08bd b50f f33d
000003a0: bdb5 cbbd b2c3 02be 6a41 f2bb f6e6 6abc
000003b0: ebd6 9ebd 7337 47bd ca1a e3bd 873d b83d
000003c0: a02f 023e 6233 983c aa33 66be 3ff7 d6bd
000003d0: 92df 91bd 596a dcbd 641f e03d 66ea 1f3c
000003e0: 06c1 be3d 4ca5 8cbd acc1 693d 44f6 1bbd
000003f0: 97dd 683c dc48 c53d 5140 613d a034 843d

network.0.net.0.bias f4 [61]
-0.08609918 -0.013759235 -0.05153748 -0.0790014 -0.11746177 -0.018875124 0.09420875 -0.074756674
-0.035580374 0.010300467 0.15185289 -0.10134813 -0.02690809 -0.121277265 -0.003774017 0.0663685
-0.030790152 -0.014149427 0.025640717 0.0038630594 0.13432434 0.027377594 -0.0614133 -0.06732034
0.12741596 0.13984801 0.07169647 0.046138417 -0.09777789 0.13975602 0.030212408 -0.1288429
0.086092085 -0.10161228 -0.039435208 -0.08979707 0.039697655 0.15384749 0.024973745 -0.00780248
0.11070689 0.11038319 -0.06078701 0.1183356 0.14114821 -0.14177608 -0.094432965 0.11211474
-0.083826505 -0.12522207 0.05350498 -0.022243083 0.045911767 -0.064003356 -0.05764471 0.15741782
0.046633273 -0.03858463 0.09165851 -0.055927493 0.01953957
00000000: c454 b0bd 6a6e 61bc f718 53bd 7ccb a1bd
00000010: cc8f f0bd 01a0 9abc 84f0 c03d 071a 99bd
00000020: babc 11bd 4ac3 283c 537f 1b3e 9c8f cfbd
00000030: 5b6e dcbc 3760 f8bd 8055 77bb 35ec 873d
00000040: a13b fcbc 00d3 67bc 7b0c d23c 622b 7d3b
00000050: 528c 093e fa46 e03c 838c 7bbd 3fdf 89bd
00000060: 5479 023e 5134 0f3e 99d5 923d a3fb 3c3d
00000070: c63f c8bd 341c 0f3e 0380 f73c 65ef 03be
00000080: 0c51 b03d 191a d0bd d086 21bd 87e7 b7bd
00000090: 029a 223d 328a 1d3e bd95 cc3c f2ab ffbb
000000a0: 4bba e23d 9510 e23d cdfb 78bd ef59 f23d
000000b0: 2889 103e c02d 11be 1266 c1bd 6a9c e53d
000000c0: 3bad abbd 373a 00be 0a28 5b3d 2037 b6bc
000000d0: fa0d 3c3d 3114 83bd dc1c 6cbd 2332 213e
000000e0: 8802 3f3d eb0a 1ebd 75b7 bb3d 3a14 65bd
000000f0: 7311 a03c

network.0.net.3.weight f4 [61, 61, 2]
-0.04213084 0.038143925 -0.06991112 0.053165253 0.120110266 0.004795549 0.023266293 -0.050337743
0.104995705 -0.0027352686 -0.013576877 -0.03388395 -0.026237488 -0.01951299 0.054063592 0.01983572
-0.14700088 -0.014522824 0.03392899 0.033303604 0.08021039 0.04478164 -0.09825486 -0.035934925
0.061662775 0.07820303 0.057770297 -0.026877873 0.05260342 0.010983926 0.11015895 0.06768521
0.00385197 0.014542378 -0.10448226 0.022197386 -0.09318501 0.046126354 0.004583789 -0.06332465
0.07274978 -0.014577372 -0.0049507236 0.065260306 0.038526557 0.0071499203 0.057778634 -0.063451044
-0.04630712 0.04016355 0.084571935 0.0102405455 -0.026607484 0.026472153 -0.05296118 -0.015471402
-0.01937605 0.049115323 0.050207138 0.048662275 0.0073012053 -0.034265544 -0.06888003 0.051044907
1.2343237e-05 0.1140196 0.010448741 0.09913547 -0.11483388 -0.07539798 -0.062770344 -0.03951214
-0.03336767 0.0372341 -0.046652373 0.027606176 0.04908471 0.055810172 -0.05886328 -0.009648526
0.027327644 0.11708054 0.08582331 0.022073073 -0.024953611 0.013291538 0.009383764 0.038189832
-0.047023837 -0.0038314317 0.09297587 0.09571101 0.046218 0.11044636 -0.08001699 0.022803191
0.11229379 -0.033147197 -0.111224264 0.0063304524 0.07261966 0.0464572 0.030929273 -0.018593213
-0.041223645 0.029454373 0.05609876 0.04647726 0.0011824633 -0.09791053 -0.08127535 0.042057503
-0.008328298 -0.00199823 -0.03736437 -0.014468099 0.014240281 0.0196335 0.05225542 -0.059706204
0.10203529 0.09524477 -0.035522923 0.036338832 -0.0680765 -0.12274377 0.065969974 0.12665702
-0.0710756 -0.017766496 0.019812357 0.007911737 0.06464962 0.04636713 0.055486873 0.042277772
-0.048342697 0.09690562 -0.102003224 -0.12447637 0.09135191 0.13792689 0.022348251 -0.0038161618
-0.06772723 -0.117119685 0.11530506 0.120347336 -0.06766923 0.068736516 -0.064762875 0.015806573
0.10916069 0.055370253 0.0973314 -0.033305295 0.014226657 -0.048791684 -0.11126816 -0.15161636
-0.14417902 -0.13911837 0.05354995 0.0707556 -0.01855924 0.009108087 0.01721313 0.096018836
-0.014864175 0.06120812 -0.026556615 -0.14819215 0.04238985 -0.014049969 0.09860633 0.08842955
0.080246545 0.050590433 -0.02300146 0.105927475 0.04025462 0.12661667 -0.02978221 0.05886361
-0.046391435 -0.03562056 0.09156395 0.06204004 0.081333905 -0.013139174 -0.00017982785 -0.022961723
-0.0018728387 -0.06654546 -0.085513026 -0.13614081 -0.03956026 0.0074168164 -0.08128221 -0.11983518
-0.021385413 -0.047932558 -0.011242981 0.11659236 -0.055923443 -0.043599267 -0.037667908 0.10241932
-0.022830606 0.014224632 -0.03952163 -0.061779007 0.017754653 -0.007453954 -0.07296955 -0.089254774
0.039222233 -0.026810845 0.104895875 0.07207262 -0.07856828 -0.1121987 0.06362983 0.12043671
0.09962212 -0.0341536 -0.039199416 0.026581664 0.05209453 0.09473985 -0.11647921 -0.16482638
-0.032239545 0.07018657 -0.026643502 -0.061637472 -0.041708212 0.009451099 0.100335136 0.073658675
0.07300395 -0.07469578 -0.03239073 -0.07549019 0.0013284758 -0.0009770703 -0.07501477 0.08109483
-0.042143997 -0.07798497 0.06863496 0.03656029 0.039873526 -0.044184607 -0.10393814 0.006497778
00000000: 6391 2cbd ce3c 1c3d 902d 8fbd cfc3 593d
00000010: 5ffc f53d fb23 9d3b f498 be3c f32e 4ebd
00000020: fd07 d73d 3142 33bb 8d71 5ebc e6c9 0abd
00000030: 00f0 d6bc b5d9 9fbc c971 5d3d 857e a23c
00000040: 6687 16be 24f1 6dbc 20f9 0a3d 5c69 083d
00000050: 5845 a43d f46c 373d d839 c9bd 8030 13bd
00000060: 1b92 7c3d e928 a03d 8ca0 6c3d fc2e dcbc
00000070: af76 573d edf5 333c 049b e13d 8b9e 8a3d
00000080: 5571 7c3b 2743 6e3c ccfa d5bd 4bd7 b53c
00000090: c8d7 bebd fdee 3c3d 9c33 963b 5bb0 81bd
000000a0: d6fd 943d eed5 6ebc ae39 a2bb 32a7 853d
000000b0: 06ce 1d3d e149 ea3b 4aa9 6c3d 9ff2 81bd
000000c0: 89ac 3dbd 8982 243d 0d34 ad3d f6c7 273c
000000d0: f0f7 d9bc 21dc d83c d3ed 58bd c37b 7dbc
000000e0: 86ba 9ebc 262d 493d 00a6 4d3d 1852 473d
000000f0: f33e ef3b 075a 0cbd f910 8dbd 7714 513d
00000100: cd15 4f37 1c83 e93d 3231 2b3c 8a07 cb3d
00000110: 062e ebbd 426a 9abd bd8d 80bd 7bd7 21bd
00000120: 8aac 08bd c982 183d 8f16 3fbd 5926 e23c
00000130: 0d0d 493d 3599 643d 9f1a 71bd da14 1ebc
00000140: 39de df3c ecc7 ef3d 22c4 af3d 97d2 b43c
00000150: 846b ccbc c0c4 593c 5cbe 193c f16c 1c3d
00000160: 119c 40bd c218 7bbb 226a be3d 2204 c43d
00000170: 164f 3d3d b431 e23d f3df a3bd c2cd ba3c
00000180: 49fa e53d 5bc5 07bd 8cc9 e3bd af6f cf3b
00000190: 9eb9 943d e849 3e3d 635f fd3c cb50 98bc
000001a0: 20da 28bd 4c4a f13c d0c7 653d f05e 3e3d
000001b0: e2fc 9a3a 5185 c8bd b173 a6bd 7d44 2c3d
000001c0: 6a73 08bc bcf4 02bb 620b 19bd 9b0b 6dbc
000001d0: 1150 693c 6fd6 a03c c709 563d 7e8e 74bd
000001e0: e1f7 d03d b10f c33d 7c80 11bd 07d8 143d
000001f0: b16b 8bbd 1661 fbbd 441b 873d 61b2 013e
00000200: 1690 91bd 0b8b 91bc 864d a23c 3ba0 013c
00000210: 0567 843d 76eb 3d3d 3446 633d 752b 2d3d
00000220: fe02 46bd 7476 c63d 11e7 d0bd 78ed febd
00000230: b616 bb3d b53c 0d3e ae13 b73c 9218 7abb
00000240: 93b4 8abd 72dc efbd 0f25 ec3d aa78 f63d
00000250: 2a96 8abd bbc5 8c3d 66a2 84bd c97c 813c
00000260: a48f df3d ebcb 623d af55 c73d 226b 08bd
00000270: ed16 693c cad9 47bd 90e0 e3bd 5241 1bbe
00000280: aaa3 13be 0c75 0ebe 3157 5b3d 50e8 903d
00000290: 8c09 98bc 163a 153c 8d02 8d3c 86a5 c43d
000002a0: de88 73bc 5eb5 7a3d 428d d9bc afbf 17be
000002b0: fba0 2d3d d731 66bc 1ef2 c93d 8d1a b53d
000002c0: 4d58 a43d ea37 4f3d 8f6d bcbc 81f0 d83d
000002d0: 07e2 243d cda7 013e d2f9 f3bc f81a 713d
000002e0: f204 3ebd dde6 11bd e185 bb3d b21d 7e3d
000002f0: 6492 a63d b145 57bc 2c90 3cb9 391a bcbc
00000300: 0a7a f5ba fc48 88bd 7421 afbd 7f68 0bbe
00000310: f009 22bd c408 f33b 4a77 a6bd 266c f5bd
00000320: 7630 afbc ee54 44bd 7b34 38bc fac7 ee3d
00000330: fb0f 65bd 2595 32bd aa49 1abd 38c1 d13d
00000340: 4007 bbbc 6e0e 693c 6fe1 21bd fc0b 7dbd
00000350: 3572 913c 4c40 f4bb 0f71 95bd 35cb b6bd
00000360: 7ea7 203d 6ba2 dbbc a6d3 d63d cf9a 933d
00000370: 68e8 a0bd 6fc8 e5bd 5b50 823d 86a7 f63d
00000380: af06 cc3d a5e4 0bbd 918f 20bd cac1 d93c
00000390: 1361 553d f706 c23d a78c eebd 3fc8 28be
000003a0: 9d0d 04bd fabd 8f3d 7943 dabc 9377 7cbd
000003b0: 3bd6 2abd c8d8 1a3c 827c cd3d 5cda 963d
000003c0: 1883 953d 1afa 98bd 24ac 04bd 9a9a 9abd
000003d0: 4020 ae3a 0a11 80ba 58a1 99bd 0c15 a63d
000003e0: 2f9f 2cbd 95b6 9fbd 7c90 8c3d 3ec0 153d
000003f0: 6c52 233d ebfa 34bd 85dd d4bd 50eb d43b

network.0.net.3.bias f4 [61]
0.06834161 0.061921645 -0.061440952 -0.01123621 -0.05249892 0.037745766 -0.032238465 0.0005713718
-0.025105404 -0.076056026 -0.0092847375 -0.0062812506 0.092057966 -0.01877685 -0.06320204 0.091506645
0.09435801 0.047004312 0.01815732 0.018190071 0.08887163 -0.0022954312 0.10041998 0.0069039348
0.0037416269 0.079145834 -0.01853513 -0.07746748 -0.051872544 0.057053752 -0.010080873 -0.05108481
-0.049255613 0.10531465 0.054041527 -0.025616195 0.06555075 0.029796798 -0.05377209 0.08560356
0.08392442 -0.061235 -0.042433165 0.0868639 0.016283093 0.04114603 -0.017251026 0.0139774885
0.0024602134 0.030461462 0.024835207 0.031680465 0.102453604 -0.010930539 0.050407004 -0.064326555
0.085613586 0.0064226366 -0.038685024 0.0970036 0.10181569
00000000: b0f6 8b3d 8da1 7d3d 82a9 7bbd 1518 38bc
00000010: 1c09 57bd 4e9b 1a3d 7b0c 04bd 1dc8 153a
00000020: d9a9 cdbc 43c3 9bbd 031f 18bc f3d2 cdbb
00000030: e388 bc3d e9d1 99bc 1270 81bd d667 bb3d
00000040: c63e c13d 9887 403d a9be 943c 5803 953c
00000050: 5402 b63d f26e 16bb fea8 cd3d 673a e23b
00000060: 1536 753b 3617 a23d fcd6 97bc 45a7 9ebd
00000070: 4e78 54bd 32b1 693d 3f2a 25bc 4e3e 51bd
00000080: 41c0 49bd 35af d73d a65a 5d3d 0ed9 d1bc
00000090: 793f 863d 6a18 f43c 1f40 5cbd eb50 af3d
000000a0: 91e0 ab3d 8dd1 7abd 66ce 2dbd b3e5 b13d
000000b0: 1f64 853c bd88 283d 0652 8dbc d601 653c
000000c0: 883b 213b 518a f93c 3473 cb3c 60c3 013d
000000d0: 32d3 d13d 0116 33bc 9377 4e3d a4bd 83bd
000000e0: 2d56 af3d fb74 d23b 3074 1ebd d3a9 c63d
000000f0: bf84 d03d

network.0.downsample.weight f4 [61, 23, 1]
-0.19049023 -0.07634192 0.077485636 0.14381099 -0.02128591 -0.21142459 -0.20305218 -0.11173785
0.051701106 -0.09765243 -0.03131944 0.15698062 0.17224193 -0.08989237 -0.08788286 0.024415445
-0.11684728 -0.122823216 -0.12343456 0.085683055 0.07489632 0.031926244 0.0015522979 -0.14805806
-0.17832677 -0.0037894454 0.18854761 0.19525754 -0.15880346 0.08312535 -0.1353434 0.09287619
-0.10587458 -0.06723359 -0.12701407 0.103850335 -0.06516103 0.19178629 0.0007967661 -0.18864991
0.09815097 0.13593027 0.16442935 -0.17643136 -0.17214471 -0.031814877 -0.15012792 -0.08176051
0.081382535 -0.13237585 -0.11546513 0.09680284 0.008767523 0.04058737 -0.04830054 -0.13132836
-0.08842941 0.015927015 0.11999126 0.25296184 -0.19195819 0.009496683 -0.09057507 -0.049008526
0.075457856 -0.13954964 -0.03868691 0.17986241 0.07680798 0.1279299 -0.15124822 -0.20423585
0.15804498 -0.045984805 0.036706384 -0.13074097 -0.018169368 0.20647223 0.10393216 0.18246196
-0.14140068 -0.22163124 -0.12988634 -0.11297675 0.08657575 0.1916873 0.17609371 0.00059025764
0.17304292 -0.13683604 -0.10068106 -0.05082845 -0.039177787 0.20853506 0.132068 0.115838885
0.14165622 0.19616315 -0.09255983 -0.12176706 0.061835665 -0.26989222 0.088197574 0.13931218
0.3124275 -0.0034530067 -0.2291048 -0.015013637 0.14645185 -0.1214758 0.002640903 -0.18328835
0.07593252 0.08091886 -0.074072205 0.04778716 0.13608764 -0.048678257 -0.0857224 -0.2350107
-0.10726851 0.10327584 -0.19003294 -0.18148124 -0.035235435 -0.07158528 0.12430255 0.17989461
-0.23253231 -0.11323691 0.07382897 0.06283901 0.10481681 -0.16540183 0.14138196 -0.14324458
0.08409935 0.13458216 -0.06615912 0.07605961 0.08803602 0.044983394 -0.22021692 -0.17113817
0.106459744 0.00013949243 -0.22742762 -0.08670458 0.017546088 -0.19056568 -0.11933874 0.1011378
-0.08081229 -0.12896577 0.107265465 0.11143719 -0.085883275 0.087673694 0.1744182 -0.0060837795
-0.100559525 0.060123738 0.038734548 0.020085864 -0.07206292 0.14988509 0.11985791 0.12672801
-0.18922982 0.08320381 -0.18070558 -0.070414096 -0.02109525 -0.18049228 0.10661288 0.2610299
0.08389769 0.19254972 0.0016495489 0.04031022 -0.058995645 -0.109545425 -0.12588745 0.16253771
0.17480512 0.117420316 -0.10728613 0.06869526 -0.1989441 -0.17062972 0.025216825 0.18806306
0.070157446 0.16471727 -0.024972066 0.07181579 0.113774784 0.1825598 0.09066764 -0.07061214
0.01761031 0.10733498 0.13088825 0.14196655 -0.018397298 -0.06856013 -0.06527241 0.086135566
-0.09904977 0.043673232 -0.13406657 -0.06218269 0.1144913 0.105985455 -0.21633242 -0.14094318
-0.2675357 0.19544922 0.09526894 0.21682517 -0.016709358 -0.0093591 0.023170652 -0.16851273
-0.12308822 -0.06798269 -0.1739287 0.13873899 -0.06971924 -0.15525928 -0.034104258 -0.07570936
-0.07021322 0.15125895 -0.21834126 -0.18148646 0.06273219 0.020314973 0.1160884 0.10017707
0.13816898 0.089041404 -0.08378785 0.0932322 -0.14224479 -0.18034165 -0.0076275878 -0.005893331
0.012996228 -0.19810131 -0.031489797 -0.047419894 0.15874997 0.101281255 -0.18049046 0.10992997
00000000: df0f 43be 2759 9cbd cab0 9e3d 3043 133e
00000010: ca5f aebc b07f 58be e9ec 4fbe d0d6 e4bd
00000020: 8ac4 533d fffd c7bd d048 00bd 87bf 203e
00000030: 3060 303e 7e19 b8bd eefb b3bd e602 c83c
00000040: a04d efbd bd8a fbbd 42cb fcbd 997a af3d
00000050: 3e63 993d 18c5 023d 7976 cb3a 889c 17be
00000060: 4b9b 36be 5858 78bb a012 413e 98f1 473e
00000070: 609d 22be a03d aa3d 7697 0abe df35 be3d
00000080: c6d4 d8bd c4b1 89bd fa0f 02be 7caf d43d
00000090: 2573 85bd a063 443e 11de 503a 712d 41be
000000a0: 6003 c93d 4e31 0b3e 2b60 283e 6caa 34be
000000b0: b446 30be 5150 02bd 22bb 19be 0e72 a7bd
000000c0: e3ab a63d 898d 07be fb78 ecbd 9140 c63d
000000d0: a8a5 0f3c f13e 263d c9d6 45bd f17a 06be
000000e0: 7a1a b5bd 5f79 823c fabd f53d 3784 813e
000000f0: b090 44be fa97 1b3c 6c7f b9bd 2abd 48bd
00000100: a689 9a3d 1ae6 0ebe 2a76 1ebd da2d 383e
00000110: 814d 9d3d 0e00 033e d0e0 1abe 3423 51be
00000120: 8bd6 213e 905a 3cbd 6f59 163d f6e0 05be
00000130: edd7 94bc 756d 533e 62da d43d 4fd7 3a3e
00000140: 57cb 10be 4df3 62be ed00 05be 5b60 e7bd
00000150: a04e b13d ad49 443e e951 343e 85bb 1a3a
00000160: 2a32 313e bf1e 0cbe df31 cebd 7e31 50bd
00000170: e378 20bd 378a 553e d53c 073e f03c ed3d
00000180: 540e 113e fede 483e 0290 bdbd 0261 f9bd
00000190: 6547 7d3d 502f 8abe eea0 b43d daa7 0e3e
000001a0: 7ff6 9f3e d74b 62bb 739a 6abe c2fb 75bc
000001b0: 79f7 153e 4ec8 f8bd 0013 2d3b f1af 3bbe
000001c0: 8282 9b3d cab8 a53d 2bb3 97bd 78bc 433d
000001d0: 8f5a 0b3e da62 47bd 3a8f afbd a5a6 70be
000001e0: 98af dbbd 4982 d33d ff97 42be 38d6 39be
000001f0: 0853 10bd 4e9b 92bd 5692 fe3d 4b36 383e
00000200: f31c 6ebe c1e8 e7bd a533 973d bdb1 803d
00000210: 32aa d63d 195f 29be 6fc6 103e b5ae 12be
00000220: 483c ac3d e8cf 093e 6f7e 87bd 24c5 9b3d
00000230: 3b4c b43d 8240 383d 8b80 61be d83e 2fbe
00000240: 9107 da3d b744 1239 c9e2 68be 2c92 b1bd
00000250: d0bc 8f3c a623 43be df67 f4bd 5621 cf3d
00000260: ea80 a5bd 9a0f 04be ffad db3d 2e39 e43d
00000270: 92e3 afbd 448e b33d af9a 323e 715a c7bb
00000280: 27f2 cdbd 4f44 763d 1ea8 1e3d 1c8b a43c
00000290: b995 93bd 7a7b 193e 1078 f53d fdc4 013e
000002a0: 76c5 41be c266 aa3d e20a 39be 4435 90bd
000002b0: f2cf acbc f8d2 38be db57 da3d b6a5 853e
000002c0: 8dd2 ab3d c12b 453e ad35 d83a 541c 253d
000002d0: 6ba5 71bd 5a59 e0bd a4e8 00be 4970 263e
000002e0: 1d00 333e 107a f03d d5b8 dbbd 1ab0 8c3d
000002f0: 01b8 4bbe 8fb9 2ebe 8493 ce3c 9a93 403e
00000300: b5ae 8f3d a5ab 283e 3892 ccbc 2814 933d
00000310: c102 e93d f5f0 3a3e f5af b93d 199d 90bd
00000320: 7f43 903c 71d2 db3d 9207 063e ae5f 113e
00000330: eeb5 96bc 4169 8cbd 8bad 85bd d867 b03d
00000340: 9bda cabd b4e2 323d bf48 09be 47b3 7ebd
00000350: 6a7a ea3d e70e d93d 3f86 5dbe 6953 10be
00000360: 70fa 88be d723 483e 5d1c c33d 6b07 5e3e
00000370: 10e2 88bc e956 19bc 61d0 bd3c 9a8e 2cbe
00000380: ad15 fcbd 823a 8bbd 5d1a 32be 9811 0e3e
00000390: f6c8 8ebd 4afc 1ebe e8b0 0bbd 820d 9bbd
000003a0: f3cb 8fbd a0e3 1a3e da94 5fbe 96d7 39be
000003b0: bc79 803d 966b a63c c1bf ed3d a329 cd3d
000003c0: 2b7c 0d3e 575b b63d f798 abbd 86f0 be3d
000003d0: 9ea8 11be 7bab 38be d8f0 f9bb d81c c1bb
000003e0: 22ee 543c 12db 4abe 72fb 00bd 5d3b 42bd
000003f0: 5a8f 223e 8c6c cf3d 7ed2 38be f722 e13d

network.0.downsample.bias f4 [61]
0.1668485 0.0315895 -0.09767376 0.085202985 -0.031024614 0.12956078 -0.14089279 -0.17678875
-0.13973275 0.17604207 0.12767744 0.1261747 0.11362561 0.14757915 -0.1161085 0.017630082
0.1991227 0.09434651 0.11287897 0.23166695 -0.12132653 -0.17254537 -0.16109954 0.19945368
0.12851323 -0.108365215 0.08733218 0.05096868 -0.08770552 -0.05815823 -0.06441615 -0.08634994
0.1031416 0.048598662 -0.044218026 -0.19693692 0.09246781 -0.20881404 0.026063267 0.011262784
0.20836923 -0.20793255 -0.024257924 0.119736865 -0.13697274 0.14657256 0.18617909 -0.091239534
-0.14211263 0.14864764 -0.047321003 0.19628349 -0.13703442 -0.14473443 0.14649802 -0.16759631
-0.06267464 0.026397083 -0.178418 0.13483892 0.10242061
00000000: 55da 2a3e fe63 013d 2e09 c8bd e77e ae3d
00000010: 5527 febc 95ab 043e 3346 10be 1c08 35be
00000020: 1a16 0fbe 5f44 343e e0bd 023e f133 013e
00000030: 8bb4 e83d fd1e 173e 4bca edbd f66c 903c
00000040: d2e6 4b3e be38 c13d 172d e73d 1a3a 6d3e
00000050: 0b7a f8bd bcaf 30be 47f7 24be 963d 4c3e
00000060: f998 033e 95ee ddbd 37db b23d 89c4 503d
00000070: f49e b3bd 5337 6ebd 9dec 83bd 3dd8 b0bd
00000080: e73b d33d 640f 473d f61d 35bd d5a9 49be
00000090: c35f bd3d 59d3 55be a282 d53c 8a87 383c
000000a0: be5e 553e 45ec 54be 8eb8 c6bc 9a38 f53d
000000b0: 9542 0cbe 1e17 163e bba5 3e3e cbdb babd
000000c0: f985 11be 1637 183e abd3 41bd 8afe 483e
000000d0: c052 0cbe 4335 14be 9403 163e 5e9e 2bbe
000000e0: 905b 80bd b23e d83c 35b3 36be 3713 0a3e
000000f0: e6c1 d13d

network.1.conv1.weight f4 [23, 61, 2]
0.06387934 -0.046422962 0.12423961 0.11315507 -0.03092084 -0.072240934 -0.09573244 -0.06236733
-0.028779881 -0.020081596 0.098436 0.03379511 0.07560064 -0.07802032 -0.024572605 0.0031193658
-0.06852044 -0.117494956 -0.06485353 -0.050310444 -0.15471946 -0.056650348 0.06554554 -0.07556933
-0.0017169473 0.032285262 0.038008094 0.07567209 -0.119747564 -0.02598477 -0.03512643 0.061977163
0.01508445 -0.038665723 -0.088872045 -0.02261346 0.06773348 0.0540787 -0.015280972 0.007965036
0.024713755 0.124560915 0.057197426 -0.0458051 0.017222825 -0.025951419 -0.034616046 -0.028817484
-0.03408077 0.000862376 0.038463283 0.031440996 -0.0098938765 0.03699456 -0.07332784 -0.14111187
-0.08374955 -0.096702814 0.10213917 0.100469396 0.0019233598 -0.0852688 0.104279555 0.08478777
0.088180736 0.002731268 0.001318993 -0.046256136 -0.012820425 -0.006017708 -0.047823224 -0.027074736
0.11461305 0.061572563 0.09845611 -0.04720771 -0.06014604 0.059235327 -0.10655652 -0.10902933
-0.100756414 -0.031803343 0.031057568 -0.021837449 0.0006117741 0.07581645 -0.064445704 0.03219589
0.027523609 -0.021286981 -0.074919514 0.09017635 0.08159755 0.07214956 0.08893006 0.046070505
0.09193815 -0.06679652 0.021247283 0.076476894 -0.050667387 0.013086985 -0.11378368 -0.12181924
-0.037145913 -0.018984826 -0.00336079 -0.060308058 0.05246403 -0.03196866 0.087353915 -0.06302725
0.056276023 0.038241126 -0.001362025 0.08774073 -0.04034717 0.047552325 0.098251015 0.04104509
0.03982702 0.035111904 0.07531864 -0.08151399 0.05856105 0.02573989 0.0021174636 -0.014006516
-0.048991818 -0.10396062 -0.058150094 -0.062368963 0.080972955 0.107164994 -0.044829734 0.0034757424
-0.0017112496 -0.11352291 -0.044108715 -0.07034791 -0.07048303 0.03075897 -0.05879376 0.05585139
0.025135854 0.038482193 -0.012688544 0.01185985 0.12700914 -0.048286945 -0.13905469 0.03235926
0.015609339 0.069654375 0.025189772 -0.058161672 -0.10782569 0.0116795385 0.019449376 0.028739149
0.06244137 0.04454824 0.08336136 0.10849717 -0.034324042 -0.051353194 0.070171155 0.06802465
0.07831243 -0.0005547239 0.12111254 0.065911055 -0.023417199 0.051163785 0.07545347 0.015611239
-0.0102077145 -0.14644265 -0.107054226 -0.076372415 0.10085328 -0.021446096 -0.07978633 -0.102279164
0.11182964 0.09535034 0.09324189 0.09682184 0.12053623 0.0042997194 0.022530962 0.025297055
0.051265217 -0.039668586 0.08828414 -0.023270765 0.07503629 -0.037288778 0.049239952 -0.06259516
-0.14187272 -0.16428852 -0.003957362 0.04994576 -0.029081961 -0.022363674 0.07091075 -0.026939372
-0.035167858 0.09385873 0.03429901 -0.10492623 -0.06581764 0.0004541552 0.039342746 0.10616389
0.017866533 -0.02141312 0.062066827 0.022490049 0.11589062 0.021322561 0.0046165437 0.0532539
-0.12859266 -0.031202693 0.040222038 0.009374668 0.06060925 -0.015500425 0.05784172 -0.060838442
0.11205353 -0.038672466 0.06266451 -0.070931815 0.034762576 0.01470634 0.032338735 0.014920541
0.0051031583 0.027497286 0.023000484 0.041593328 -0.026444338 -0.019049255 0.012414245 -0.03136802
-0.022953361 -0.03147245 -0.04271558 -0.14726965 -0.081669964 -0.09676212 0.044691395 0.020631092
00000000: 2cd3 823d 0126 3ebd 5671 fe3d d8bd e73d
00000010: b44d fdbc 0ef3 93bd 5f0f c4bd e374 7fbd
00000020: c9c3 ebbc 2982 a4bc d098 c93d be6c 0a3d
00000030: 82d4 9a3d 1ec9 9fbd 7d4c c9bc 466e 4c3b
00000040: 7254 8cbd 32a1 f0bd edd1 84bd 5312 4ebd
00000050: c76e 1ebe 320a 68bd bd3c 863d 18c4 9abd
00000060: 310b e1ba 8d3d 043d 60ae 1b3d f8f9 9a3d
00000070: 363e f5bd 03de d4bc bbe0 0fbd c4db 7d3d
00000080: c524 773c f35f 1ebd 8c02 b6bd dd3f b9bc
00000090: dab7 8a3d a081 5d3d 0b5d 7abc c87f 023c
000000a0: 8074 ca3c cb19 ff3d d947 6a3d 219e 3bbd
000000b0: e216 8d3c 1298 d4bc 8ec9 0dbd a512 ecbc
000000c0: 4798 0bbd 1311 623a ad8b 1d3d 46c8 003d
000000d0: ed19 22bc 9c87 173d e82c 96bd a17f 10be
000000e0: e284 abbd 200c c6bd 572e d13d e6c2 cd3d
000000f0: 3f19 fc3a 69a1 aebd 8590 d53d 36a5 ad3d
00000100: 1a98 b43d 13ff 323b 10e2 ac3a 1377 3dbd
00000110: c30c 52bc 3230 c5bb 49e2 43bd d6cb ddbc
00000120: 3fba ea3d 8333 7c3d 5ba3 c93d df5c 41bd
00000130: b25b 76bd bea0 723d 4e3a dabd c54a dfbd
00000140: 6159 cebd 3944 02bd 716c fe3c 73e4 b2bc
00000150: 775f 203a a845 9b3d 1cfc 83bd d6df 033d
00000160: 3179 e13c 0962 aebc 676f 99bd 61ae b83d
00000170: 9e1c a73d 26c3 933d f720 b63d 6db4 3c3d
00000180: 124a bc3d 9dcc 88bd c80e ae3c eb9f 9c3d
00000190: 9b88 4fbd cb6a 563c 6b07 e9bd 5e7c f9bd
000001a0: 5026 18bd 1186 9bbc b340 5cbb 9505 77bd
000001b0: 86e4 563d 92f1 02bd 9ce6 b23d 6e14 81bd
000001c0: b081 663d baa2 1c3d fa85 b2ba 69b1 b33d
000001d0: 1343 25bd 3ac6 423d d437 c93d e51e 283d
000001e0: a821 233d 80d1 0f3d a940 9a3d cff0 a6bd
000001f0: b6dd 6f3d 76dc d23c 25c5 0a3b 967b 65bc
00000200: a5ab 48bd 4ee9 d4bd cb2e 6ebd 9976 7fbd
00000210: 26d5 a53d 5279 db3d 629f 37bd 48c9 633b
00000220: 024c e0ba b37e e8bd 57ab 34bd 9112 90bd
00000230: 6859 90bd 3cfa fb3c bad1 70bd 6dc4 643d
00000240: b5e9 cd3c 819f 1d3d 9ce3 4fbc d14f 423c
00000250: af0e 023e 88c8 45bd 5a64 0ebe 258b 043d
00000260: 50be 7f3c f4a6 8e3d c85a ce3c ef3a 6ebd
00000270: b7d3 dcbd 895b 3f3c 4c54 9f3c 5d6e eb3c
00000280: 86c2 7f3d 3778 363d 5cb9 aa3d c433 de3d
00000290: 5e97 0cbd ba57 52bd e5b5 8f3d 8250 8b3d
000002a0: 4462 a03d e46a 11ba da09 f83d 60fc 863d
000002b0: 6dd5 bfbc 1e91 513d 5987 9a3d 48c6 7f3c
000002c0: 423e 27bc 10f5 15be 3f3f dbbd 2469 9cbd
000002d0: 2a8c ce3d b9af afbc 0467 a3bd bd77 d1bd
000002e0: f006 e53d 0a47 c33d 9bf5 be3d 874a c63d
000002f0: b3db f63d a9e4 8c3b da92 b83c c53b cf3c
00000300: 7afb 513d 877b 22bd 51ce b43d 55a2 bebc
00000310: a0ac 993d 1ebc 18bd d5af 493d e431 80bd
00000320: 1547 11be 403b 28be c2ac 81bb ed93 4c3d
00000330: 4b3d eebc 0634 b7bc a839 913d f5af dcbc
00000340: 2c0c 10bd 0139 c03d 1e7d 0c3d 90e3 d6bd
00000350: 66cb 86bd ae1b ee39 dc25 213d 746c d93d
00000360: d65c 923c 916a afbc c939 7e3d 0d3d b83c
00000370: 1058 ed3d a7ac ae3c 6046 973b c320 5a3d
00000380: cbad 03be ca9c ffbc ddbf 243d 3598 193c
00000390: 6841 783d 7ff5 7dbc 70eb 6c3d bb31 79bd
000003a0: 527c e53d 0567 1ebd 4056 803d b344 91bd
000003b0: 3463 0e3d dcf2 703c 9f75 043d 4975 743c
000003c0: 6538 a73b fd41 e13c 836b bc3c c45d 2a3d
000003d0: cca1 d8bc 2f0d 9cbc 1e65 4b3c c17b 00bd
000003e0: b008 bcbc 41e9 00bd 88f6 2ebd dbcd 16be
000003f0: 9542 a7bd 382b c6bd 530e 373d 8902 a93c

network.1.conv1.bias f4 [23]
0.05761756 -0.07621951 -0.089580685 -0.015573773 0.069874935 -0.043674868 -0.00843244 -0.031791534
-0.002142273 0.0030920585 -0.03269927 -0.070721276 -0.058618676 -0.041454453 -0.039629396 -0.03600749
0.073378794 -0.04705218 0.041634273 -0.05017368 -0.02584052 0.069670215 0.10547161
00000000: 6400 6c3d f918 9cbd 1476 b7bd 2329 7fbc
00000010: 971a 8f3d 6be4 32bd 3828 0abc d737 02bd
00000020: 6065 0cbb 22a4 4a3b abef 05bd 51d6 90bd
00000030: 231a 70bd 25cc 29bd 6f52 22bd 977c 13bd
00000040: 9f47 963d c9b9 40bd b388 2a3d eb82 4dbd
00000050: 80af d3bc 42af 8e3d 8001 d83d
