NoteBooks/LSTM/best_model.pth (torch, 384570 bytes, 11 tensors)

lstm.weight_ih_l0 f4 [352, 2]
000000 5e f4 14 bd ef 21 ca 3d 07 bd bc bd ac b3 9e bd
       -0.03636586 0.098697536 -0.092157416 -0.077491134
000010 fc ef f7 bc 18 17 80 3c 06 48 22 3d 8f b3 7b 3d
       -0.0302658 0.015636012 0.03961947 0.061450537
000020 fb 93 7f 3c 91 41 49 3d f8 29 87 3d 53 ef 77 3d
       0.015599246 0.049134795 0.06599802 0.06053097
000030 39 4e 68 3d f6 33 93 bd 7e fe a4 3d 32 c1 ca bd
       0.056715224 -0.07187645 0.08056353 -0.0990013
000040 80 e4 bf 3d 53 d1 53 bd f6 30 3b 3d a0 88 ad 3c
       0.09369755 -0.0517133 0.04570099 0.021183312
000050 f9 b7 c7 bd 97 e1 4f bd f5 fd 1e 3d 06 1b 08 bd
       -0.09751887 -0.05075225 0.03881641 -0.033228897
000060 59 12 71 3d d5 04 00 bd 21 3c 70 3d 26 a6 8b 3d
       0.05885539 -0.03125461 0.058651093 0.068188
000070 57 80 c3 3a 48 ea 21 bd a7 19 a4 3d 5d 97 42 bc
       0.0014915568 -0.03953007 0.08012705 -0.011876908
000080 8f f3 80 3c bd 45 a2 3d ec 76 09 bd 3c 70 4d bd
       0.015741138 0.07923458 -0.03356068 -0.050155863
000090 1f 05 71 bd af 4b 2d 3d 4b fa 9d bd 8a 96 c2 3d
       -0.058842774 0.042308506 -0.07713755 0.09501369
0000a0 5a 20 74 3b 8b f8 9a 3d cb bf 98 bd 46 76 8a bd
       0.0037250728 0.07566937 -0.074584566 -0.0676084
0000b0 4a 8c a7 3d 4e 8b 90 3c 05 7c b4 3d 3c b6 1e bd
       0.08181055 0.01764455 0.08812717 -0.03874801
0000c0 8c c1 84 bb 9d 1b 97 bd 68 ce b3 3d 34 77 21 bc
       -0.004051393 -0.07378314 0.08779603 -0.00985508
0000d0 f8 96 05 bd e0 cd 51 bb c8 cd bc bd e7 1b 3e 3c
       -0.03261468 -0.003201358 -0.09218937 0.011603332
0000e0 3e a8 d2 3a 0b ad 30 3b 0b 81 a0 bd 32 d9 0e bd
       0.0016071869 0.002695861 -0.07837113 -0.034875102
0000f0 6f 5b b4 3d 6b 41 23 bd 63 8d b7 3c ba 8f bc bd
       0.08806502 -0.03985731 0.022406286 -0.09207101
000100 4c 0d 9a 3d 70 48 1d 3c 82 ba 01 bd 1f f6 76 bd
       0.075220674 0.00959979 -0.03167201 -0.060293313
000110 39 f4 c6 bd f3 dc c4 3d 20 fe 5e bc e2 96 d7 bc
       -0.097145505 0.09612455 -0.013610393 -0.026317064
000120 15 71 cf bd d6 05 b6 bd 90 a6 98 bc 03 f4 0f bd
       -0.101289906 -0.08887832 -0.01863411 -0.035144817
000130 ba b0 56 3d c0 9a 83 bc df 10 38 bd 46 ac 4f bd
       0.052414633 -0.016065001 -0.044937965 -0.050701402
000140 13 37 be bd 3b 40 8f bd d5 74 0a 3d 87 74 f9 3c
       -0.09287848 -0.06994673 0.033802826 0.030451072
000150 99 2a 8a 3d 3c 5c c0 bc 9b 89 77 3d a8 4c aa 3d
       0.06746406 -0.02348148 0.060433965 0.08315402
000160 be 2c c3 3d 23 ba a8 bc 23 6e b1 bd 19 12 8c bb
       0.09530018 -0.02059657 -0.08663585 -0.0042746183
000170 d4 28 fc 3c 90 9f c6 bc cc 82 b3 bd df 3c ec bc
       0.030781187 -0.024246007 -0.08765182 -0.02883762
000180 68 93 25 bc 22 d9 a4 3d ab 46 a8 bd 18 1d 7d 3d
       -0.010105945 0.08049227 -0.08216604 0.061795324
000190 39 53 e8 b9 59 11 02 3d c8 e0 a7 3d 26 d5 26 3d
       -0.00044312494 0.031754825 0.081971705 0.040730618
0001a0 de 6a 6d 3d 95 7e 4a bb a3 4a bb 3d 35 31 35 bc
       0.057963245 -0.0030898203 0.09145095 -0.011059095
0001b0 c6 8d a9 3d a2 c6 bb bd a3 af 9f bd 24 96 7a bd
       0.08278994 -0.091687456 -0.07797172 -0.06117834
0001c0 54 2a bb 3d 42 f7 a0 bc fb 42 58 bd 3a 78 af bd
       0.09138933 -0.019649152 -0.052798253 -0.08567853
0001d0 8d f5 ef bc a8 29 c1 3d 1d 3c 11 3c 01 e0 b0 bd
       -0.029291892 0.094317734 0.00886443 -0.08636475
0001e0 f2 46 be 3d fa 02 94 bd 9c c6 4e 3d c7 fc a4 3d
       0.092908755 -0.0722713 0.050482377 0.08056026
0001f0 32 9d 86 bd f5 87 d0 3c 2b 1c 8b 3c 69 b4 35 bd
       -0.065729514 0.025455454 0.016981205 -0.044361506
000200 72 58 87 3c df c2 b0 bd 60 4d 8e bd f7 e2 a3 bc
       0.016521666 -0.08630919 -0.06948352 -0.020005686
000210 e2 20 86 3c 1c fd ae bb ab f8 aa 3d 0b 48 0c 3d
       0.016373102 -0.0053402316 0.08348211 0.034248393
000220 11 a1 ac 3c 42 8f e0 3c 83 42 19 bd 12 2b 7f bd
       0.021072896 0.02741206 -0.037416946 -0.062296934
000230 f3 7f 12 3d 0c 15 8a bd 8f 55 de bc 93 0c 9d 3d
       0.035766553 -0.067422956 -0.027140407 0.07668414
000240 a7 1d 63 3d 9b de a0 bd f9 bf a3 bd 17 1a 1f 3d
       0.0554482 -0.078549586 -0.079956 0.03884324
000250 3e f0 c9 3d 85 f4 39 3d de ae 02 bc f2 6d 0e bc
       0.09860276 0.045399208 -0.007976262 -0.008693205
000260 7e 48 25 bd d9 35 a9 bd ba 47 a8 3d 2f 0d a1 bb
       -0.040352337 -0.08262224 0.08216806 -0.0049149017
000270 c7 4a e3 3c d6 c2 ea 3b 1b 95 2b 3c 61 b7 11 bd
       0.027745618 0.0071643395 0.010472561 -0.035575274
000280 d3 3c b4 3d 81 cd a8 bc 07 2b 33 3d 5e 08 d2 bd
       0.08800664 -0.020605804 0.043742206 -0.10255502
000290 1a 35 77 bb 2d 97 21 3b 69 9b e3 bc b1 c3 9c bd
       -0.003772086 0.0024656758 -0.027784066 -0.07654513
0002a0 50 de 0f bd 5e f7 a0 3d fa a1 44 3d 4b b4 cb 3c
       -0.035124123 0.078596815 0.048006035 0.024866244
0002b0 36 ff db bd c9 31 74 bb 17 13 56 3d fc db e2 bc
       -0.10742037 -0.003726112 0.0522643 -0.027692787
0002c0 41 84 e0 bc 95 f8 bd 3d c2 14 0e bd 35 83 94 bd
       -0.027406814 0.09275929 -0.034687765 -0.07251588
0002d0 ef 53 ae 3d cb f3 01 bd 1a d2 1a bd 91 a1 52 3d
       0.08512103 -0.03172664 -0.037798025 0.051423613
0002e0 a6 18 a2 3d bd 8b 4e 3d 8b 98 24 3d e3 53 b1 3c
       0.079148576 0.050426234 0.04018454 0.021646446
0002f0 14 88 ce bc a9 94 89 bd 11 eb 82 bd b2 d6 a4 3b
       -0.025211371 -0.06717808 -0.063924916 0.0050304765
000300 c4 32 11 3d 5a 03 27 3d 51 d7 85 bd 7d ba 82 3d
       0.035448804 0.04077468 -0.06535209 0.06383226
000310 39 db bb bd d3 06 d3 3d 0f c6 90 3c 37 ab 8d 3d
       -0.09172673 0.10304036 0.017672567 0.06917422
000320 e2 bd 54 bc 12 a9 bf 3d c7 7a 8b bd 74 f5 a6 bd
       -0.012984725 0.093584195 -0.06810527 -0.08152285
000330 ad 4a 51 bc c1 43 86 bd 4f e3 95 3d 01 2c 7d bd
       -0.012774152 -0.06555892 0.07318746 -0.061809544
000340 31 3a 87 bd ec b5 ca 3d df 14 a6 bb 81 d3 51 bd
       -0.06602896 0.0989798 -0.005068406 -0.051227096
000350 79 7d 1a bd 55 86 8a bc ba 81 8e bd 48 0b ac bc
       -0.037717316 -0.016909758 -0.06958337 -0.021001473
000360 db d0 85 3d 90 ae 6d 3c 41 54 28 3d ed f5 6a bd
       0.06533977 0.014506951 0.041095976 -0.05736344
000370 44 d0 e5 3c b2 e7 ce bd 0e 1e 8a 3c e4 9d fa bc
       0.02805341 -0.10102786 0.016860034 -0.030592866
000380 c1 1f 7b bd f2 32 76 3d c9 90 18 bc cf d8 a7 3b
       -0.06130958 0.06010718 -0.009311863 0.005122281
000390 57 e9 93 3c d5 9b 04 bd 90 9a 7f 3d ae 19 58 3c
       0.018055601 -0.032375176 0.06240326 0.013189716
0003a0 dd 24 b2 bd 5e 81 67 3c 1d b4 8d 3d 3a ae 40 bd
       -0.08698437 0.014129965 0.069191195 -0.047041155
0003b0 f9 88 e0 bb 3e 6d c8 bd f4 d6 fd bc b4 7c c7 3b
       -0.006852266 -0.09786461 -0.030986287 0.006087864
0003c0 94 b7 09 3d fe 34 ba 3d a1 cf a6 bd 5e 8f 57 bd
       0.03362234 0.09092139 -0.08145071 -0.05262696
0003d0 31 6f 74 bb 4a 02 ba bb dc 73 95 bd 5d 00 84 bd
       -0.003729772 -0.0056765424 -0.07297489 -0.06445382
0003e0 ea 04 8d bd b5 d1 82 3d 94 bb c2 3d 8a 83 95 3b
       -0.06885703 0.06387655 0.09508434 0.0045628
0003f0 dc 6e c3 3d 63 a4 00 3d 8c 4a 7a bd de ac 72 bc
       0.09542629 0.03140677 -0.06110625 -0.014811723

lstm.weight_hh_l0 f4 [352, 88]
000000 30 66 e4 bc 49 a7 4f 3d b3 ef 09 3d 34 0a ac 3d
       -0.027880758 0.050696645 0.03367586 0.084003836
000010 b4 bc 86 bd f8 b4 c3 3c af 5c ab bd bd f2 09 bd
       -0.06578961 0.023890004 -0.08367287 -0.03367876
000020 ba 8b c9 bc 10 d5 f3 3c 37 8c bb 3d 5c 09 40 bd
       -0.02460276 0.029764682 0.09157603 -0.046883926
000030 36 28 82 3d e9 bd b0 bd c9 e9 b6 bd 4f 5e 00 bd
       0.06355326 -0.086299725 -0.0893131 -0.03133994
000040 c8 51 87 3d 89 da e8 3c 34 55 9a bd 05 40 07 bc
       0.066073954 0.028424518 -0.075357825 -0.00825501
000050 a7 ef 98 bc 8b 19 c1 3d 27 f7 08 bd 55 c2 93 3c
       -0.018668963 0.094287 -0.033438828 0.018037
000060 d0 22 bf bd 78 8f b6 bb 1b b9 50 bd cf 78 7d 3d
       -0.09332812 -0.005571302 -0.05095778 0.06188279
000070 43 51 98 3d 95 32 8d 3d 83 8c 7d 3d 26 ef b3 bd
       0.074373744 0.068944134 0.06190158 -0.08785848
000080 d3 5f d3 bd 46 2f 08 bd 0c 7d 56 3d b7 2d c5 bd
       -0.103210114 -0.03324821 0.052365348 -0.0962786
000090 76 20 85 3d d0 51 22 3d 33 f1 97 3d 40 9d 42 3c
       0.06500332 0.039628804 0.07419052 0.011878312
0000a0 61 26 7a bc 64 e6 88 bd 00 58 57 bd 47 1b 8f 3d
       -0.015267939 -0.066845685 -0.052574158 0.069876246
0000b0 63 ab b7 bd 15 5f 24 bd 1f e7 16 bd a2 dc 66 3d
       -0.08968236 -0.04012974 -0.036841508 0.056362756
0000c0 14 67 96 bc 3b f0 16 bd c5 5b d1 bd 60 bb a7 3d
       -0.018359698 -0.036850195 -0.10222582 0.08190036
0000d0 43 22 88 bd 02 94 1a 3c b7 06 98 bd 59 8a 33 bd
       -0.0664716 0.009434702 -0.07423156 -0.04383311
0000e0 6c e9 c7 3d 69 e5 78 3d 86 db 0c 3d 71 6a a4 3d
       0.097613186 0.060765658 0.03438904 0.080281146
0000f0 73 31 96 3d 28 ed 82 3d 34 5d 77 bd d6 f3 98 bd
       0.073336504 0.0639289 -0.06039162 -0.07468383
000100 fa 12 d0 bd 17 52 c3 bc 05 76 f1 3b 4c b1 02 3d
       -0.101598695 -0.023842854 0.0073688054 0.031907365
000110 2b 96 d3 bd 49 df 01 3d ec b4 71 bb 3a 0e 19 3d
       -0.10331377 0.031707082 -0.003688152 0.037367083
000120 de 26 b5 bd 53 98 a8 3d cf 02 28 bd bb 25 07 bd
       -0.08845304 0.082321785 -0.041018303 -0.032994967
000130 e0 70 8c 3d 56 f3 59 3d 5a c2 bf 3d 4e 19 60 bd
       0.06857467 0.05321058 0.093632415 -0.054711632
000140 7e 09 bf 3d 0d 96 1c bd 37 2c 7c 3d e4 df 97 bd
       0.09327982 -0.038229037 0.061565604 -0.074157506
000150 4f ff b0 bd 43 c1 fd bc 66 d9 dd bc 2d b9 a4 3d
       -0.08642446 -0.030975943 -0.027081203 0.08043132
000160 b5 41 f6 bc ce 44 ce 3d d2 b0 a5 bd 3a fc c6 3d
       -0.030060628 0.10071717 -0.080903664 0.09716077
000170 d1 bc c5 bd 80 6f 58 3d b2 df 03 3d 82 9c 9e bd
       -0.096551545 0.05284071 0.032195754 -0.07744695
000180 9e bb aa bd bc 0e 27 3d 90 e6 c1 bd bd 06 d4 3d
       -0.083365664 0.040785536 -0.094678044 0.10352848
000190 4b 24 5f bd 2e 2c 6c bc 48 2b e6 bc c8 4f df bc
       -0.05447797 -0.01441483 -0.02809681 -0.027259722
0001a0 2f 56 c0 bd 7f 80 51 3d 55 70 d1 bd 4c bd 2d bc
       -0.09391438 0.051147934 -0.10226504 -0.010604214
0001b0 fe 07 3f 3d d1 9c 4f 3d c2 c6 b1 bd f7 d2 cc 3b
       0.04663848 0.05068666 -0.08680488 0.006250735
0001c0 2f 1d bb bd ec 17 56 3c 05 12 c6 3d 05 ee 0a 3d
       -0.09136426 0.013067227 0.09671406 0.0339184
0001d0 5e 61 db 3d de a2 be bd a9 94 65 3c 54 68 b2 bd
       0.10711931 -0.09308408 0.014012494 -0.08711305
0001e0 cd e4 0c 3d a9 85 04 bd fb 6b be 3d d5 8b 6a bd
       0.03439789 -0.03235403 0.092979394 -0.05726226
0001f0 d0 2d b3 ba e6 08 19 bd a5 6b cf 3c a2 13 e4 bc
       -0.0013670269 -0.037362 0.025319884 -0.027841393
000200 b6 f8 50 3d 8a 00 85 3d 4d 30 3b 3c c0 c7 8e bd
       0.05101844 0.064942434 0.01142509 -0.06971693
000210 1f d3 ad 3d d1 c5 91 bd d7 28 d8 bd 07 8b 7e 3d
       0.08487534 -0.071178086 -0.105546646 0.062144306
000220 2a fd 2d 3d f8 e7 57 bc c4 09 51 bd d1 0c 89 3c
       0.042477764 -0.013177864 -0.051034704 0.016729744
000230 fb cb c5 3d ab 60 e0 3d 43 83 b4 3d 8b 91 b3 bb
       0.09658047 0.10955938 0.08814099 -0.0054799966
000240 61 70 bd bc 39 56 9f 3d c7 99 1b 3c 61 d9 be 3d
       -0.023124876 0.077801175 0.009497113 0.093188055
000250 38 a9 72 3c bf 8c 8c 3d b7 48 81 3d 86 99 58 bc
       0.014810853 0.06862783 0.063126974 -0.013220197
000260 a2 b3 c4 3d af f2 91 bd 49 6f 40 3d f8 93 af 3c
       0.09604575 -0.07126366 0.04698113 0.021432862
000270 ba 88 b7 3d 4e 2f 33 3d 8b 85 26 3d ba 0d d2 bd
       0.089616254 0.043746285 0.0406547 -0.102565244
000280 08 a1 b8 bd 14 6b d4 3d a6 d2 13 3d 4a a1 f9 bc
       -0.09015089 0.10371986 0.036089562 -0.030472416
000290 01 33 b8 bd df 9d a5 3c 3e 53 86 3d 86 b3 11 bd
       -0.08994103 0.02021688 0.06558846 -0.035571598
0002a0 90 1a a8 bd 3b ba 3a bd 63 4e 3e 3c 5a 77 c0 3d
       -0.082081914 -0.04558776 0.011615369 0.093977645
0002b0 68 c1 6c bd 62 cd 9e 3b 63 5f 8c bd 6e a2 35 3d
       -0.057801634 0.004846261 -0.06854131 0.04434436
0002c0 7b 7f 54 3c 76 41 ca bd dd a8 aa 3c 61 88 9b 3c
       0.012969847 -0.09875767 0.020832473 0.018985929
0002d0 13 bb 79 bc a4 8d c5 3d 58 da 1f 3d 1c 87 89 3d
       -0.015242356 0.096461564 0.03902659 0.06715223
0002e0 17 c0 cc bc 51 6f 9b bd 69 3b c4 bd 36 4c d1 3d
       -0.02499394 -0.07589591 -0.09581644 0.10219614
0002f0 07 a9 9b 3d c3 11 38 3d b1 87 aa 3a 70 e7 9d bd
       0.07600599 0.044938814 0.001301041 -0.07710159
000300 75 6e a9 bc 81 cd 39 bd 4d 13 b3 bc c8 0d e7 bc
       -0.020682553 -0.045362 -0.02185979 -0.028204814
000310 95 67 2f bd cd d5 38 bc 47 7b 88 3d 95 bd 9b 3d
       -0.042823393 -0.011281443 0.06664138 0.07604519
000320 0a 24 7d 3d 96 e9 98 bd 14 ee 2f 3d 08 af 87 3c
       0.061801948 -0.07466428 0.04295166 0.016562954
000330 3a eb 8c 3d a3 64 90 bc 45 42 e2 bc 18 4b ae bd
       0.068808034 -0.017626112 -0.02761949 -0.08510417
000340 cc 48 2e bc 39 61 81 bd ad 86 02 3b 62 83 26 bd
       -0.010637473 -0.06317372 0.0019916699 -0.04065264
000350 72 4a c6 bc 82 59 1e bd 23 0e 6d 3d f7 71 9f 3d
       -0.02420542 -0.03865958 0.05787481 0.07785409
000360 11 d2 de 3d 76 15 b2 bc e4 d9 33 bd 69 8e d1 bd
       0.10879911 -0.021738749 -0.04390897 -0.10232241
000370 ad 09 9d bd bf d7 c5 bd 01 11 9a bd 1e 1c 80 bd
       -0.07667861 -0.09660291 -0.075227745 -0.06255363
000380 6b 46 ab bd 32 59 3b 3d b5 8a 29 bd 12 c8 b4 bd
       -0.083630405 0.04573936 -0.041392047 -0.08827223
000390 90 cf cc bd e8 8d c7 3c 96 52 b0 bd c5 45 7c 3d
       -0.10000527 0.024359658 -0.08609502 0.061589975
0003a0 02 c7 93 bd 26 44 d1 bd 98 72 9f bd 1d ee 07 bd
       -0.07215692 -0.102180764 -0.07785529 -0.033186067
0003b0 2d 22 46 3d bb e7 42 bd 67 b7 5b bc bd 2d 8a 3d
       0.048372436 -0.047584277 -0.013410426 0.06747005
0003c0 06 91 ea bc 04 be 82 bd be dd b2 bd 3b 9c 44 bd
       -0.028633606 -0.06383899 -0.087337 -0.048000555
0003d0 17 64 ee 3c 69 38 89 bd 01 0e 3b bd 05 ec 9c 3c
       0.029100461 -0.067002125 -0.045667652 0.019155512
0003e0 49 a4 1e bd 06 87 a3 bc fd 5c 52 bc 4d 13 6a bc
       -0.038730893 -0.019961845 -0.012839553 -0.014286828
0003f0 bd f1 b8 3d cb a3 aa bd 85 35 72 3d dd 3f bc bd
       0.09030483 -0.08332022 0.05913307 -0.091918685

lstm.bias_ih_l0 f4 [352]
000000 9b 46 be 3d b2 3d 97 3d 38 3f da bd 55 59 8d 3d
       0.09290811 0.07384814 -0.10656589 0.06901804
000010 99 62 9f 3d 54 f8 99 bd 81 34 d1 bc 28 6d 7d 3b
       0.07782478 -0.07518068 -0.025537731 0.0038669799
000020 28 5e 9c bd d7 54 28 bd e6 d5 04 bd a6 f2 6c 3b
       -0.076351464 -0.041096535 -0.032430552 0.0036155372
000030 02 34 ff 3c da f3 bf 3c 4c 03 4a bd 8f c2 d9 3d
       0.031152729 0.023431707 -0.04931955 0.10632812
000040 34 b6 42 3d b9 fe 00 3c c8 73 8e bd 17 41 db 3d
       0.047537044 0.007873231 -0.06955677 0.10705774
000050 db 58 2f 3d af fe d5 bd 20 e5 4b bd 48 95 51 bd
       0.04280935 -0.10448968 -0.049779058 -0.051167756
000060 6b 7e ba 3c b5 81 af 3d 60 a6 94 3d 9f cf 13 3d
       0.022765359 0.085696615 0.07258296 0.036086675
000070 cd 3f 3b bd 1d 5e 89 bd 85 11 67 3d da 2d 72 bb
       -0.045715142 -0.06707404 0.056413192 -0.00369536
000080 13 61 d0 bd 33 40 9c bc e2 61 b5 bc 92 0c 7e 3d
       -0.101747654 -0.019073581 -0.0221414 0.062023707
000090 c9 aa e4 3c 90 b4 11 bd a9 a8 01 bd 35 67 ad 3c
       0.027913468 -0.03557259 -0.031654987 0.021167377
0000a0 f8 0e a2 3d 48 fe 3f 3c 9c c3 a2 bd 3a b3 17 bc
       0.07913011 0.01171834 -0.07947466 -0.00925904
0000b0 1f 37 4f bd 31 93 c0 bd 40 aa b9 bd 30 9c a2 bd
       -0.050589677 -0.094030745 -0.09065676 -0.07939947
0000c0 b6 9b 45 3c 6b 19 f0 3b 55 1b 49 3c c9 e2 a0 bc
       0.01206105 0.007327249 0.012274583 -0.01963939
0000d0 15 5d 31 bd 54 03 a6 3d b7 fd 84 bd 83 84 44 bd
       -0.04330166 0.081061035 -0.06493705 -0.047977936
0000e0 40 17 c3 3d ce 1e 02 bc b8 5e d3 bc 99 c9 88 3b
       0.09525919 -0.007941915 -0.025802001 0.004174423
0000f0 9b 35 87 bd 88 46 82 3c 32 f1 8b 3d e9 fe 35 3d
       -0.06602021 0.015902773 0.06833114 0.044432554
000100 5b 90 99 bc 8b be 8d bd 6d 0c 54 3d 08 b4 03 3d
       -0.018745592 -0.06921109 0.051769663 0.032154113
000110 d6 e3 90 3d f6 9e ba bd 13 d8 9f 3d 15 43 9e bc
       0.07074706 -0.09112351 0.07804885 -0.019319097
000120 11 aa 91 bb fd 84 37 ba e0 c7 3c 3d 75 50 97 3d
       -0.0044453223 -0.0007000713 0.046089053 0.07388393
000130 31 01 b6 3d 23 79 7f bd 40 d8 7f 3d c3 f9 a8 bd
       0.08886946 -0.062371384 0.06246209 -0.08250763
000140 31 a5 bf bd ac 66 b6 bb 78 7e d3 bd 41 32 89 3d
       -0.0935768 -0.0055664387 -0.103268564 0.06699038
000150 c7 aa 13 3c a8 bb da 39 9b 26 38 3d 27 ed 49 bd
       0.009012884 0.00041720015 0.044958692 -0.04929843
000160 35 4b 4d bd 8b c7 0b bb 81 7c 26 3d 45 cf d6 bd
       -0.05012055 -0.0021328654 0.04064608 -0.10488752
000170 d2 69 d1 3d c9 99 92 bd 6a 88 81 3b 09 8a c7 bc
       0.10225262 -0.071582384 0.0039530294 -0.024357812
000180 c6 ab 80 bc 07 89 cd bd f8 02 f8 bc c1 e0 af bd
       -0.015706908 -0.100359015 -0.030274853 -0.0858779
000190 29 72 29 3c 09 5c d6 3d 04 2e d2 3c 5a 92 b5 3d
       0.010342159 0.10466773 0.025656708 0.08865805
0001a0 a1 c9 57 bd ac a1 81 bb c7 99 ec bc ab 5c 87 bd
       -0.052682523 -0.0039560404 -0.02888192 -0.06609472
0001b0 6a 9f f8 3c 49 67 b6 bc 27 a7 15 bd 1c 73 90 3d
       0.030349452 -0.022266047 -0.036536362 0.07053205
0001c0 88 66 42 3c 84 c5 67 3d 1b 22 b2 3c c2 40 8e 3d
       0.011865266 0.05658485 0.021744778 0.06945945
0001d0 77 20 ba 3d 82 42 a4 bd 50 68 0d bd c2 13 94 bd
       0.090882234 -0.08020498 -0.03452331 -0.07230331
0001e0 97 64 c1 3d 18 a7 6e bc bf f7 e8 bb 59 7e d4 3a
       0.09443014 -0.014566205 -0.0071096118 0.0016211971
0001f0 0b 2f 97 3c 15 e4 64 bd 76 d7 6c bd d2 cf c2 bd
       0.018455049 -0.05588158 -0.057822667 -0.09512295
000200 42 3c 9b 3d e3 c7 2e bb 27 2e c4 bd d2 13 b1 3d
       0.07579853 -0.0026669435 -0.09579115 0.086463585
000210 bd 9d 95 bd 6f 22 74 bb 26 f1 65 3b fb 84 a3 3d
       -0.07305477 -0.003725197 0.0035086363 0.079843484
000220 02 1a 13 3d 08 a7 30 bd 26 2c 19 bc c0 b6 b5 bd
       0.035913475 -0.043128043 -0.009348905 -0.088727474
000230 68 ab 74 bd b9 38 ac 3d c8 ab 7b b8 b9 67 34 3d
       -0.05973378 0.084092565 -6.0003047e-05 0.04404423
000240 c0 2d ad 3d f5 86 8d 3d a6 86 1f bd 7a 5f a3 3d
       0.08455992 0.06910507 -0.03894677 0.07977195
000250 bf f3 e8 bc 16 6e b7 bd 2a 65 26 3b 65 e1 3f 3d
       -0.02843654 -0.08956544 0.0025389888 0.046845812
000260 ff 31 77 3d e7 63 b6 bd e9 3e 45 3d 71 d7 17 bd
       0.060350414 -0.089057736 0.0481557 -0.037070695
000270 93 2b 8c 3d 28 0c 9b bd 54 7a 9c bd da b0 87 bd
       0.068442486 -0.07570678 -0.0764052 -0.06625529
000280 27 b3 77 3d b6 b3 dd bc 9b ce 48 bd 2e 39 2d bd
       0.060473587 -0.027063232 -0.04902516 -0.04229086
000290 02 a1 1f bc a4 86 62 3b 4c 3b b1 bd e8 45 15 3d
       -0.009742977 0.0034565115 -0.08653888 0.03644362
0002a0 e1 b2 da bd b2 60 c4 bd 63 68 9e bd 42 e3 83 3c
       -0.1067865 -0.09588756 -0.07734754 0.016099576
0002b0 eb 4f 36 3d 28 b8 b3 bc 5c f5 a4 3d 0a e3 bb 3d
       0.04450981 -0.021938398 0.08054611 0.09174164
0002c0 97 bf 79 bc 46 ba cf 3d 51 25 c4 3d 92 9d ac bd
       -0.0152434325 0.10142951 0.0957743 -0.08428492
0002d0 47 58 e4 3b 40 a4 56 bd ec 41 e7 3b a0 0f 4c bd
       0.0069685313 -0.052402735 0.007057419 -0.04981959
0002e0 06 90 95 3d f7 5f 6f bc 06 85 94 3d d2 b8 80 3d
       0.07302861 -0.014610282 0.07251935 0.06285252
0002f0 09 fb dd bd 07 96 98 bc 79 78 8c bd ce a3 c9 bc
       -0.10838897 -0.018626226 -0.06858916 -0.024614241
000300 2c c5 7c 3d 0c ec 94 3c 1e 45 98 bd 2d 78 68 bd
       0.061711475 0.018178962 -0.07435058 -0.056755234
000310 71 60 f8 bc 27 14 94 bd cb d7 d8 bd fe c4 16 bd
       -0.030319424 -0.07230406 -0.10588034 -0.03680896
000320 1d ec 9d 3c f1 75 3a 3d 68 29 e0 3c 1b 09 8c bd
       0.019277627 0.045522634 0.027363494 -0.06837674
000330 a6 04 d0 bd 12 4e 3c bd 65 2f d6 3a 20 b0 5c bc
       -0.101571366 -0.04597289 0.0016341029 -0.013469726
000340 d1 86 bf bd 30 8f 5e 3d fb 54 c5 3d 80 0d 07 bd
       -0.09351886 0.054335773 0.09635349 -0.03297186
000350 51 7a 1a 3d 64 5d bc 3d 55 3b 86 bb 7b ff 50 3d
       0.037714306 0.091975 -0.0040964284 0.051024895
000360 77 43 da bd 23 48 b9 3d ee 30 bb bd 8f a1 3a bc
       -0.10657399 0.09046962 -0.09140192 -0.011391058
000370 21 2a bc 3d 13 33 3f bd cb 7f 8c 3c 0a 9f 7c 3c
       0.09187723 -0.046679568 0.01715078 0.015418777
000380 d1 15 08 bd 30 93 c3 bd 5b 43 5b bd 99 f6 cf 3d
       -0.03322393 -0.09549558 -0.053531032 0.10154457
000390 b3 10 36 bb 3f 17 9b 3d 32 26 bb bd 48 fb a1 3d
       -0.002778095 0.07572793 -0.091381446 0.07909256
0003a0 55 ad aa 3d e4 09 28 3d 2f 61 ca bc a2 e0 3a bc
       0.08333842 0.041025057 -0.024704544 -0.011406096
0003b0 d3 62 c6 3d ee 3c d9 3b ba de 90 3c b7 c3 78 bd
       0.09686818 0.006629578 0.01768433 -0.060733523
0003c0 be 43 de 3d f4 e8 57 3d 0b 22 b2 3b 6c 4c 32 bd
       0.108527645 0.052712396 0.005436187 -0.043529913
0003d0 89 7c 33 3d 02 28 81 bd 72 ef 11 bd 81 6f 90 3d
       0.043819938 -0.06306459 -0.035628743 0.07052518
0003e0 bb c8 af 3d 9c fc 11 3d 2d 79 14 3d 35 b1 3d bd
       0.08583208 0.035641298 0.036248375 -0.046311576
0003f0 23 25 84 bd 36 da 04 3d d7 9d 16 3d 08 8c 4e 3d
       -0.06452396 0.032434665 0.03677162 0.050426513

lstm.bias_hh_l0 f4 [352]
000000 f5 01 25 bd ae 80 35 3c 71 a1 99 bd 5f 41 d5 3d
       -0.04028507 0.011078043 -0.07501496 0.10412859
000010 5f 4a 74 bd 59 91 fe 3c 7a 20 dd bd 83 fc 39 bb
       -0.05964124 0.031075167 -0.1079721 -0.0028379268
000020 8c 03 36 bd 57 b1 8b 3d dd 33 c5 3d 05 6a 87 3d
       -0.044436976 0.06820934 0.09629033 0.066120185
000030 05 a8 02 3c d2 e7 c0 3d 89 25 4f 3d f7 e6 c5 3d
       0.007974629 0.09419216 0.050572906 0.09663194
000040 2e f0 ea bb 0a dd 01 3c c3 86 75 3d 55 55 26 bc
       -0.007169745 0.007926235 0.059942972 -0.010152181
000050 f0 4c c6 3d 96 7f 3a bb f2 95 37 ba ff 47 7e bb
       0.096826434 -0.0028457395 -0.00070032396 -0.0038800237
000060 e1 70 27 3d ee 20 6e 3d 5e b4 8a 3d b1 28 2d bd
       0.040879134 0.058136873 0.067726836 -0.042275134
000070 17 80 98 3d a5 8a 7a bd fd 47 bd 3c 83 44 93 bd
       0.07446306 -0.061167378 0.023105616 -0.07190802
000080 3f 21 93 bd 19 eb 48 3d 76 42 ac 3c c0 e1 97 3d
       -0.071840756 0.04905233 0.021027785 0.07416105
000090 88 9c c1 3d 06 2f 34 3d c1 95 4b bd f6 46 a3 3d
       0.09453684 0.043990158 -0.049703363 0.07972519
0000a0 9f b2 91 bd 2e 9f 99 3d 2c ee d5 3c 88 c5 2e 3d
       -0.071141474 0.07501064 0.026114546 0.04266885
0000b0 36 a2 06 bd 2e 22 a4 bb ce c9 54 3d dc a0 1d bd
       -0.03286954 -0.0050089573 0.05195027 -0.038483486
0000c0 8e 85 a1 bd c7 a0 48 bc 71 41 d5 bc 19 1e d9 bd
       -0.07886802 -0.012245364 -0.026032181 -0.10601444
0000d0 71 fa d7 bd 6d b9 95 bc 07 29 c8 3d c1 cd 95 3c
       -0.10545815 -0.018276894 0.0977345 0.018286588
0000e0 95 7f 73 3c 90 9f fd 3c 73 d9 b9 3d 00 dd a9 3d
       0.014861961 0.030959874 0.09074678 0.082941055
0000f0 b8 13 bd 3d d2 82 60 bd fb 72 3a 3d 0e b0 47 bc
       0.09232277 -0.05481226 0.04551981 -0.012187971
000100 6d 78 77 3c b3 79 94 3d 4d a3 55 3d d6 ad 46 bc
       0.015104395 0.07249775 0.05215769 -0.012126407
000110 01 45 1f 3d ac 07 b3 bd 2d c1 95 3d 7f 8c c1 3d
       0.038884167 -0.08741698 0.07312236 0.09450626
000120 9b f9 87 bc 69 2f a9 3d 1a e7 d2 bb 86 1f 06 bc
       -0.016598513 0.08260996 -0.006436241 -0.008186227
000130 54 2a 17 3d b0 58 db bc cc bd df bd 22 55 f5 3c
       0.0369056 -0.026775688 -0.10924873 0.029947821
000140 40 23 db 3c 2b f5 75 bc dd e4 da bc 65 a1 cc bd
       0.026750207 -0.015012066 -0.026720459 -0.09991721
000150 19 51 8e 3d 65 6b ce bb d0 14 db bd 01 05 9f 3d
       0.06949062 -0.0062994235 -0.10697329 0.07764626
000160 3b f0 69 bd bf e0 75 bd 70 49 c3 3d 41 9d 69 bd
       -0.057113867 -0.060028788 0.095354915 -0.057034735
000170 eb 07 b7 bd 80 cc 07 bd 62 82 6b bd 1a d1 9a 3d
       -0.08937057 -0.03315401 -0.05749739 0.07559414
000180 25 5a a6 3d 28 2f 1c 3d b7 a7 ab bc d9 9c 53 3d
       0.081226625 0.03813091 -0.020953996 0.051663253
000190 b8 e9 12 3d 17 aa 8f 3d 35 66 d4 bd f3 6e 04 3d
       0.035867423 0.07014864 -0.10371057 0.032332372
0001a0 62 08 8b 3c 1a 9e 0f bd 68 ad 37 bd f0 e3 73 bd
       0.01697177 -0.035062887 -0.044843107 -0.05954355
0001b0 eb 47 13 3d 0d 96 c6 3d a0 64 c2 bd 4e 96 b2 3d
       0.03595726 0.09696589 -0.09491849 0.087200746
0001c0 21 28 2f 3d f3 83 b3 3d d9 e1 86 bc ba d8 c3 3d
       0.04276288 0.08765402 -0.016465114 0.09562822
0001d0 13 ff cc bd 01 b1 7f bd 16 a1 79 3d 9d 14 b2 3d
       -0.10009589 -0.062424663 0.06094464 0.08695338
0001e0 5e c4 76 3d 30 a1 31 bc f1 3d be bc 0c ed 6d 3d
       0.060245864 -0.010841653 -0.023222895 0.058087394
0001f0 a2 4b 88 bb 82 70 37 bd f7 51 93 bd 32 4f 87 3d
       -0.0041594068 -0.04478503 -0.07193368 0.06606902
000200 31 8e 36 3d 65 b7 b9 3d 92 a8 d7 3b b6 98 63 3d
       0.044569198 0.09068183 0.0065813744 0.05556556
000210 de 28 62 bd 88 6b 10 3d 6d 81 34 3d f9 82 b1 3d
       -0.055214755 0.0352588 0.044068743 0.08667559
000220 62 54 9a 3c d0 0c 9c bd 80 3a 90 bd 7d b8 5e bd
       0.018839065 -0.07619631 -0.07042408 -0.05437516
000230 b6 8e 5a bd 84 83 6a 3d aa e5 9e bd 3d 2e 3e 3d
       -0.053358756 0.05725433 -0.07758649 0.046430815
000240 51 65 df bc 29 38 95 bd e4 21 04 bd 05 79 85 bd
       -0.027269991 -0.07286102 -0.032258883 -0.06517223
000250 53 f2 8f 3d 97 b5 2e bd c0 a2 b0 3d 6f af a6 bc
       0.070286416 -0.042653646 0.08624792 -0.020347325
000260 e2 ea 93 3d bb 0f 9b bd 89 49 2e 3d ba dd 81 3d
       0.07222535 -0.0757136 0.042550597 0.06341119
000270 99 61 41 bd f6 55 95 3d 73 da 94 37 39 92 0e 3d
       -0.047212217 0.072917864 1.7744698e-05 0.034807418
000280 43 de 02 3d 8b 51 33 3b cc 15 6f 3d cb 95 57 bd
       0.031950247 0.0027361836 0.058370396 -0.052633088
000290 ec d5 bc bd 7f 1e be 3d 30 f5 99 bd d4 1c a2 bd
       -0.0922049 0.092831604 -0.07517469 -0.07915655
0002a0 ed cc 22 bd d1 6d 04 bc e2 ab 87 3d fb 1c 9d 3d
       -0.039746214 -0.008082823 0.06624581 0.07671543
0002b0 33 f7 2b 3d f1 98 ba 3d 3b 0e 90 bb a8 84 a3 bd
       0.041983794 0.091112025 -0.0043962277 -0.079842865
0002c0 db d1 8d bd 94 3b ae 3d 3b 19 76 3d 0c e8 92 3d
       -0.069247924 0.085074574 0.060082655 0.07173166
0002d0 89 29 af bd 01 5f c6 bd 29 67 a1 3d b1 28 85 bd
       -0.08552844 -0.09686089 0.07881004 -0.06501902
0002e0 e6 7f c8 3d 6f af 33 bd cc 8a ae 3d 2d a9 34 3d
       0.0979002 -0.04386848 0.08522567 0.04410665
0002f0 a3 e9 a6 bd f1 9a b4 bd 56 c1 8b bd 0e 14 f5 bb
       -0.081500314 -0.08818615 -0.06823985 -0.0074791973
000300 37 5f 76 3c 73 72 52 3d ba d6 25 bb d2 0c 0b 3d
       0.015037349 0.05137868 -0.002530499 0.033947773
000310 eb 54 9e 3d 5f 4c 60 3d 9a ae 88 3d ec d0 11 3d
       0.077310406 0.054760333 0.066739276 0.035599634
000320 df 24 85 b9 e5 11 58 3c 5d 10 14 3d 89 f8 0e bd
       -0.00025395208 0.01318786 0.036148418 -0.03490499
000330 2a e0 c5 3d 2d 6b 5d ba e8 b0 c1 bd c5 10 b8 3d
       0.096618965 -0.00084464514 -0.0945757 0.089875735
000340 7c f7 bd bb e3 d3 b5 bd f5 91 31 bd df a9 ce 3a
       -0.0057973247 -0.08878305 -0.043352086 0.0015767178
000350 3d 13 c3 3d ee 35 7d 3d c9 5e 43 bd 73 5f 64 3d
       0.09525154 0.06181901 -0.047697816 0.05575509
000360 da 7a af 3d e0 f4 27 bd fd 80 2d 3c 7b 74 46 3d
       0.08568354 -0.041005015 0.010589835 0.04845093
000370 db d8 a4 3d 67 11 2d bd 99 03 99 bc 28 56 a2 bd
       0.080491744 -0.042252924 -0.018678473 -0.07926589
000380 3a f2 45 bc d7 77 23 ba 80 25 79 bb 80 a2 03 3c
       -0.012081677 -0.0006235814 -0.0038016737 0.0080343485
000390 02 d8 e6 3c 8f a3 d5 3d b1 ce 2e 3d a6 f4 b7 3d
       0.028179172 0.10431587 0.042677585 0.0898221
0003a0 bb f8 ba 3d fe b6 c5 bd c5 e9 28 bd 4b 65 c8 3d
       0.09129473 -0.096540436 -0.041238565 0.09784945
0003b0 8d d8 0d bd 14 d2 e6 3c 75 da 9a bd 8e ff 9e 3d
       -0.034630347 0.028176345 -0.075611986 0.07763587
0003c0 b2 0d 66 bd 3d 26 86 bd 59 27 94 3d 3c f9 51 bc
       -0.056165405 -0.06550262 0.072340675 -0.01281577
0003d0 44 94 b9 3d c6 d9 ec bc 60 c9 b4 3d 4c 81 99 bd
       0.090614825 -0.028912436 0.08827472 -0.074953645
0003e0 26 ea d6 3c cb 28 55 3c c5 21 cd bc db 16 af bd
       0.026234698 0.013010214 -0.025040517 -0.08549281
0003f0 9e 97 45 3d ae a7 46 3d 9e 45 35 3c 19 9b d0 3c
       0.048240297 0.048499756 0.011063961 0.025464581

lstm.weight_ih_l1 f4 [352, 88]
000000 97 79 36 3d ad c7 bd 3d b5 86 94 bd ca 59 a2 3d
       0.04454955 0.09266601 -0.07252256 0.07927282
000010 6b a2 7c bd a9 d7 3b bc 70 ff 6f bc 21 4a 23 3d
       -0.06167833 -0.011464992 -0.014648303 0.039865617
000020 e7 48 90 3b c4 b5 64 bd 3a 41 00 bd 3c 53 90 bd
       0.004403222 -0.055837408 -0.031312205 -0.07047126
000030 7b 5a de bd bb a1 b6 bd e5 6b 3d bd 18 7e e6 bc
       -0.108571015 -0.089175664 -0.046245474 -0.028136298
000040 49 bb 8b 3d 60 7b cf bd 71 bc a5 bd aa 61 d6 3c
       0.06822831 -0.10130954 -0.08092583 0.026169617
000050 be 5d 65 3b 7a 3d ae bd c5 5b 76 bd ee b5 ea bc
       0.0034998502 -0.085078195 -0.060146112 -0.028651204
000060 93 98 08 bb 4d 9b a1 3d ff 8c 6d bd 3c f9 b1 3d
       -0.0020842894 0.078909494 -0.057995792 0.08690116
000070 34 8e 82 3c ea d2 ad 3d df 2b 8b bd 48 04 ec bb
       0.015936948 0.08487494 -0.06795477 -0.007202659
000080 93 8c 48 bc fd 19 b7 bd dd 33 85 3d 7c 51 92 bd
       -0.012240547 -0.08940504 0.06504033 -0.07144448
000090 76 84 99 3c a6 d7 1c 3d f3 95 63 bd f2 7d a7 3d
       0.01873992 0.038291596 -0.055562925 0.08178319
0000a0 38 ba 8f bb b6 46 d5 3d 09 c2 a7 bb 59 8c df 3d
       -0.0043862127 0.10413878 -0.0051195663 0.10915441
0000b0 1f ce a2 3d 96 ed 15 bd 4a e5 9c bd 02 0e 22 3d
       0.07949471 -0.036603533 -0.07660921 0.03956414
0000c0 a4 0f c0 bd 91 ec 18 bc 21 87 b4 3d 8e 72 d5 3d
       -0.09377983 -0.009333746 0.08814836 0.1042224
0000d0 cc 5b 3b 3d 8b f2 77 bc fe e8 da bd c5 af 01 bb
       0.04574184 -0.01513351 -0.10688971 -0.0019788605
0000e0 77 63 d2 3d 4b f7 9e 3d 4d 4a 5a bd d8 a4 46 bd
       0.10272878 0.07762011 -0.053293515 -0.04849705
0000f0 2e 61 68 bd 70 c6 aa bb 88 22 36 3c 8a ae 4d bd
       -0.056733303 -0.005211644 0.011116631 -0.05021528
000100 10 ff 92 3c 3f bd 97 3a 37 95 55 3c ea 10 31 bd
       0.017943889 0.0011576785 0.013036064 -0.04322902
000110 07 4c bd 3c 50 7d 33 3c de 29 8e 3d 89 84 88 3c
       0.023107542 0.01095517 0.06941579 0.01666476
000120 46 89 0d bd 02 70 bd 3d c1 f5 97 bd 89 cc 0c 3d
       -0.034554742 0.092498794 -0.07419921 0.034374747
000130 25 f7 10 bd f2 b0 9b bd 1a 84 b4 3d 21 e9 c7 3d
       -0.035391945 -0.07602109 0.08814259 0.09761263
000140 be c9 c0 bd 61 c6 2f bd 98 80 c3 bd b6 da 35 bc
       -0.09413479 -0.0429138 -0.09546012 -0.011099508
000150 f8 87 a2 3d a4 58 52 3d b2 5d bb bd 47 17 88 3c
       0.0793609 0.051354066 -0.0914873 0.016612662
000160 03 2e 8c bb d3 a6 ac bd 9a 75 5d bd 57 95 92 3a
       -0.004277946 -0.08430257 -0.05406723 0.0011183423
000170 18 de a8 3c d3 95 d4 3d 03 ee 1a bd 54 e2 e8 3c
       0.020613715 0.10380139 -0.037824642 0.028428234
000180 d3 9c a0 bc 11 1e 81 bd 8c 41 90 3c dc 83 5d 3d
       -0.01960603 -0.06304563 0.01760938 0.05408083
000190 1f 08 01 3b 54 b4 14 bc 66 f6 97 bc 1c 0a b0 bd
       0.0019688678 -0.009076197 -0.01855011 -0.08595678
0001a0 99 53 16 3d ff b3 3e bc 9b 0a 4a 3d 75 21 96 3d
       0.03670082 -0.011639594 0.04932652 0.073306
0001b0 bd 80 de bd 90 51 e7 3c c3 55 54 3d 85 28 c1 bd
       -0.10864399 0.028237134 0.0518396 -0.094315566
0001c0 dc 68 a5 bd 56 fe 95 3d df 51 5c bc 7f 2c a8 3d
       -0.08076641 0.07323901 -0.013447254 0.08211612
0001d0 4a b5 97 3d fb 9f a8 bd cc f1 18 3d 98 21 ff 3b
       0.07407625 -0.08233639 0.03733997 0.007785987
0001e0 3b 81 88 3d 7c 04 66 3d b6 3b be 3d da 19 66 3d
       0.06665274 0.05615662 0.09288733 0.056176998
0001f0 c1 8c 0b bd 6d 52 b7 bd 6d 0d dd 3d 79 2b b1 3d
       -0.03406978 -0.08951268 0.107935764 0.0865087
000200 14 03 fa bc 5a 8e b5 bd 6c 7e c5 3c 15 5d d7 bd
       -0.030519046 -0.08865042 0.024108134 -0.10515801
000210 b4 8b 6b 3c 0d 90 74 bd 60 e1 4a 3d 9a a8 b3 bc
       0.01437657 -0.05970769 0.04953134 -0.021930981
000220 f4 8f 99 3d 1e cb 25 bb 30 a3 9f 3d 27 03 9a bd
       0.0749816 -0.002529807 0.077947974 -0.075201325
000230 a2 90 b3 bd ab 79 db bc a3 48 74 bc 1a 6c a6 bb
       -0.08767821 -0.026791414 -0.014909896 -0.0050788047
000240 72 39 fc 3c 0f e2 01 bd 18 0c 3f bc 13 b2 aa 3d
       0.03078911 -0.031709727 -0.011660598 0.08334746
000250 58 89 72 bd 29 12 39 bd c4 be a6 bd 46 0c fa 39
       -0.059213012 -0.045183334 -0.081418544 0.0004769286
000260 1f e3 d0 3d 7a 6e 9f bd f7 3d b9 3d 2f 43 8b 3c
       0.1019957 -0.077847436 0.09045022 0.01699981
000270 4a 54 4a bd c9 3d b0 3d b3 bd d6 bd 6b a1 3a bd
       -0.04939679 0.086055346 -0.10485401 -0.045564096
000280 3f f0 c0 bd 6a e7 24 bc c3 cf 84 bd bb 7c 66 bc
       -0.09420823 -0.010064939 -0.0648494 -0.014067824
000290 61 77 0c 3d 8d 58 b5 bd b1 99 87 3d e2 b9 37 3d
       0.034293536 -0.0885478 0.06621111 0.044855006
0002a0 26 86 d0 bd c0 57 19 3b 92 c1 03 3d a5 0c 6c bd
       -0.10181837 0.002339825 0.032167025 -0.057629246
0002b0 41 27 44 bd a6 83 fe 3c 24 8c ac 3a ee 74 db bc
       -0.047888998 0.031068634 0.0013164324 -0.026789155
0002c0 b1 65 01 bd a8 25 98 bd 8e 7c 88 bd a7 b2 b4 3c
       -0.03159112 -0.07429057 -0.06664382 0.022057844
0002d0 f0 33 02 bd b4 ac 78 bd 1b 4d 78 3d 7c 7a a4 b8
       -0.031787813 -0.060711578 0.06062041 -7.842944e-05
0002e0 83 27 03 bd 04 96 a2 bc 83 f4 22 bd ba cf ab 3c
       -0.032020103 -0.019846924 -0.039783966 0.020973075
0002f0 3c af a5 3d 08 cc a7 bd cd 58 a6 bd 0c 9f 7d bd
       0.08090064 -0.08193213 -0.08122406 -0.061919257
000300 ac f8 a7 bc be eb 2c 3d 68 44 45 bd f9 db 5f bd
       -0.020504318 0.04221701 -0.04816094 -0.05465314
000310 38 4b 9c 3d ad f8 5d bc d0 06 b5 3d b1 f5 d3 bd
       0.07631534 -0.013548058 0.0883919 -0.10349596
000320 8d 53 5d 3d 86 73 c6 bd 20 22 52 3d bd 59 81 3d
       0.05403476 -0.09690003 0.051302075 0.06315944
000330 ab a4 4f 3d 9e 05 ac 3d 89 82 d6 3c 6c 1b 8d 3d
       0.05069415 0.08399509 0.02618529 0.06889996
000340 2a f7 1c bd 1a 53 e0 bc 92 75 cd 3c 12 d5 50 bd
       -0.03832165 -0.027383376 0.025080476 -0.05098445
000350 37 be 8d 3d ce 43 cc bc cf 39 c4 bd 56 4d ce 3d
       0.06921046 -0.024934676 -0.095813386 0.100733444
000360 9e 64 c0 bd 80 98 9e 3c 75 02 0b 3d 81 4b 2b 3d
       -0.09394191 0.019359827 0.03393789 0.041820053
000370 b3 c7 1f 3d 79 3f 8e bd ab 5b 7e 3d e3 53 8e 3c
       0.039008807 -0.069457 0.06209914 0.017373985
000380 aa 61 89 bd 26 1c b2 3c 3b 7f 0d bc fa b0 60 3d
       -0.06708081 0.021741938 -0.008636291 0.054856278
000390 f9 85 b4 3d 57 e9 89 bd ad ba c3 bd 09 7c bb 3c
       0.08814616 -0.06733959 -0.0955709 0.022886293
0003a0 d8 6b b3 3d f1 98 4f 3d d5 30 5e 3d e9 3a 6c 3c
       0.08760804 0.050682966 0.05424579 0.014418342
0003b0 69 c5 16 3c a8 7c 16 3d c7 6d ec 3c 79 31 b0 bd
       0.00920234 0.036739975 0.02886094 -0.08603186
0003c0 ce 7f 8e 3d 2e 7e fe 3c 1c c7 9f bd 6a 4a a8 3d
       0.069579706 0.031066027 -0.07801649 0.08217318
0003d0 5d 6e 43 3d 4b e6 9b 3c 93 e4 d3 bd c0 fa da bd
       0.047712673 0.01903071 -0.103463314 -0.10692358
0003e0 00 01 c6 bc d9 ed d6 3d 59 c3 c0 3b 93 07 e1 b8
       -0.024170399 0.104945846 0.0058826623 -0.00010730247
0003f0 67 83 25 3d 57 fe 32 3d 43 e2 a7 3d 71 b9 e7 3a
       0.04040852 0.04369959 0.08197453 0.0017679167

lstm.weight_hh_l1 f4 [352, 88]
000000 c1 dc e1 3a 8d 30 9f 3d 53 76 5c bd b1 e5 e7 bc
       0.0017231927 0.07772932 -0.05382378 -0.028307768
000010 fd 0e fe 3c 80 77 28 bd 54 53 cb bd bb e5 46 bd
       0.031013006 -0.04112959 -0.09928003 -0.04855893
000020 25 8a 5c 3d e8 2e 6a bd 4d d4 af bd f4 78 80 bd
       0.053842682 -0.05717364 -0.08585415 -0.0627307
000030 f5 99 fd bc d5 73 c0 bd 17 d0 b3 bc 23 c0 fd 3c
       -0.030957201 -0.09397093 -0.02194981 0.030975407
000040 f8 3a dd 3b ef 81 6f bd ac 06 b4 3d a5 b4 46 3d
       0.0067514144 -0.058473524 0.08790335 0.04851212
000050 a8 25 94 3d ac 7b d1 bd e4 17 09 bd 71 91 e7 39
       0.07233745 -0.10228667 -0.03347005 0.00044168116
000060 6e 84 cd 3c de 2d 5a bd 04 a8 8c bc 0b cf 09 3d
       0.025087561 -0.0532664 -0.01716996 0.033644717
000070 e1 d7 64 bd d7 35 3d 3b 31 6a d3 bd 6d 76 34 bd
       -0.05586994 0.0028871202 -0.10322989 -0.044058252
000080 7b fe 3a ba ef b8 96 bd 78 1a cc bd d7 3d 12 3d
       -0.00071332575 -0.07359492 -0.09965986 0.035703506
000090 cd 41 da 3c b1 ea 1f bd c3 09 80 bc 57 51 b2 bd
       0.026642704 -0.03904218 -0.015629655 -0.087069206
0000a0 41 8e b5 bd 93 b5 6b bc 21 fe c6 3d 3c cc 59 3c
       -0.088650234 -0.014386552 0.0971644 0.013293322
0000b0 26 54 01 3d 6b 8b 35 bd 29 8d 87 bd 4a 61 38 bd
       0.03157439 -0.044322412 -0.06618721 -0.045014657
0000c0 3f e2 74 3d 12 5d 4a 3c 99 2c c4 3d c8 3c 8c bd
       0.059786078 0.012351291 0.09578819 -0.068475306
0000d0 3e 36 6b 3c 82 56 35 bd 82 20 59 3d d2 12 52 3c
       0.014356194 -0.044271953 0.053009517 0.01282187
0000e0 3a 15 3d 3c 69 87 0a bd 04 94 7d 3c cd fd 26 3d
       0.011540705 -0.033820543 0.015477184 0.040769387
0000f0 93 e6 15 3d 87 dc 05 3d 16 b9 ab 3c de 85 79 3c
       0.036596846 0.032681014 0.02096228 0.01522967
000100 cc 9f c0 bd 8c a9 35 bd ba 23 17 bd c4 97 08 bd
       -0.09405479 -0.044351146 -0.036899306 -0.03334786
000110 1e 58 96 3d 55 7a 30 3c cd 8b 8e 3d ab ec 87 3d
       0.07341026 0.010771354 0.06960259 0.06636938
000120 68 cd dd bc 75 3b 92 3c 2c 85 6f bd c2 07 83 bc
       -0.027075484 0.017850617 -0.058476612 -0.01599491
000130 35 e7 a4 bd 20 ce d3 bd 97 cf 45 3d 4b 6b d2 bd
       -0.08051912 -0.103420496 0.048293676 -0.10274371
000140 f9 af b9 bc fd 6d 24 bb ba 67 b0 bd fc 9e ad bd
       -0.022666918 -0.0025089972 -0.08613534 -0.084775895
000150 36 eb ff bc 37 d1 b7 bd 11 f4 ae bd f1 12 5b 3c
       -0.031240087 -0.089754514 -0.08542646 0.013371215
000160 4d 1e 30 bd 51 b8 cd 3b db 0d af 3c 6f 39 44 bc
       -0.042997647 0.0062780757 0.021368911 -0.011976584
000170 36 a6 d3 3c f7 92 7c bc a2 60 81 3d 36 23 d2 bb
       0.025836091 -0.0154158985 0.06317259 -0.006412889
000180 14 fe 80 bc a7 44 37 bd 6e c4 36 3d 57 fb e4 3c
       -0.015746154 -0.044743206 0.044620924 0.02795188
000190 ca 70 31 3d 6a 5d 69 bd 9a ec be 3d d1 7a c8 bd
       0.043320455 -0.056973852 0.09322472 -0.0978905
0001a0 9e 88 8c bc 92 de 24 bd 0a f9 13 3d c6 9c 3a 3d
       -0.017154988 -0.040251322 0.036126174 0.045559667
0001b0 8d 0f 82 bd a6 6a 0e 3d 7f 21 fc bc 9d 1b ae 3c
       -0.06350622 0.034769677 -0.030777691 0.021253401
0001c0 9d e6 70 3c eb 68 9d 3c 0c 35 f5 bc b1 aa 4d bb
       0.01470342 0.019215068 -0.029932521 -0.0031382258
0001d0 29 00 ad bd d3 0f 8d bd 3a 45 36 bc 1d 6f 88 bd
       -0.08447296 -0.06887784 -0.011124903 -0.06661818
0001e0 da d0 88 bd ef 3d 34 3c eb 77 c8 bd 8d 88 e5 bc
       -0.0668046 0.011001094 -0.097884975 -0.028019214
0001f0 dd bc 83 3d ad b4 95 3c e8 54 61 3d b5 27 83 3d
       0.06432507 0.01827463 0.055012614 0.06404058
000200 9f 41 d3 3d aa 41 4d bc 39 e4 af 3d 59 c4 5f 3c
       0.103152506 -0.012527863 0.08588452 0.013657653
000210 af 1c 41 bd 0b 86 bc 3d ff 59 6c 3c 13 48 56 bc
       -0.047146495 0.09205254 0.014425754 -0.013078707
000220 56 4f 34 3d 96 9c ab bd 58 d2 a1 3d b7 e1 99 bd
       0.044020973 -0.08379476 0.07901448 -0.07513755
000230 36 af ce 3d 07 42 1e 3c 98 9e 80 bd ab ce bd 3c
       0.100920126 0.009659297 -0.06280249 0.023169836
000240 6e 12 bb bc fe 42 c8 3c f5 3c 73 bd 4a 78 95 3d
       -0.022835936 0.024446007 -0.059384305 0.07298334
000250 b0 d3 b5 3d e1 e0 8d 3c e3 02 dd 3d cb e8 9c bd
       0.08878267 0.017319145 0.10791566 -0.07661589
000260 e7 5c d0 bb e1 b6 9c bd 7c 61 a0 3d 48 4b 0e 3d
       -0.006358731 -0.07652069 0.07831094 0.034739763
000270 5a 80 12 3c 51 91 75 3c 38 50 93 bd b4 61 6e bd
       0.008941734 0.014988259 -0.07193035 -0.058198646
000280 e6 57 4c 3d b3 fd 90 bd 76 19 5d 3b 00 7a 98 bd
       0.049888514 -0.07079639 0.00337371 -0.07445145
000290 42 ff 7f 3d 5a 70 cd 3d 0d 2a c6 3d fb b5 41 bd
       0.062499292 0.10031195 0.09675989 -0.04729269
0002a0 50 1f d9 3d 6c 4a 6f 3d 1f 50 a1 3d fc 65 d1 bd
       0.106016755 0.058420584 0.0787661 -0.1022453
0002b0 fa fd 58 3d 8f 4a 77 bc 76 22 99 3d 92 77 3e bc
       0.052976586 -0.01509346 0.07477276 -0.0116251875
0002c0 29 70 c3 3d 43 18 4f 3d 57 f5 4c 3d f8 62 a8 bc
       0.09542877 0.050560247 0.05003866 -0.020555004
0002d0 35 e7 b8 bd 60 b4 91 bc 6e 12 39 3c 0d f7 2b bd
       -0.09028474 -0.017786205 0.011295898 -0.041983653
0002e0 5e 33 40 3d 50 3a c7 bd eb 60 b7 bd 92 b5 02 bd
       0.046923988 -0.09727919 -0.089540325 -0.03191144
0002f0 29 e8 75 3d e8 45 bd bc 43 9d b3 bc 72 23 d8 3c
       0.06003586 -0.023104623 -0.021925574 0.02638409
000300 6d 4d f6 3c 0b 2b 94 3c 3a 62 2d bb 2b 21 ce 3d
       0.030066216 0.01808693 -0.0026456253 0.1006492
000310 9e 5a 8d bd df 43 80 bd cf d1 51 bd 56 27 6f bd
       -0.069020495 -0.062629454 -0.05122548 -0.058387123
000320 db 6d 39 bd 24 fd 8e 3d 4a cb 99 3d 98 53 02 bd
       -0.045270782 0.069818765 0.075094774 -0.031818002
000330 0e a8 a1 3d b7 de b0 3d 93 1f 09 bb 21 09 d5 3d
       0.07893382 0.086362295 -0.002092336 0.10402132
000340 94 67 9b bd 7c 56 bc bd 8d 2a a4 3d a6 47 9b bd
       -0.07588115 -0.09196183 0.080159284 -0.07582025
000350 86 1b 87 3d 70 2a 80 bd 30 25 ce 3d 57 a4 46 3d
       0.065970466 -0.06258094 0.10065687 0.04849657
000360 b7 7e e9 3b f9 06 b8 3d a3 da c8 3d c9 fc aa bd
       0.0071257013 0.08985705 0.09807327 -0.08348996
000370 37 32 48 3d 12 71 a3 bc ad 28 d7 3d c2 ed b3 3c
       0.048876014 -0.019951377 0.10505805 0.021963958
000380 ff 6a 91 bd c9 62 9a 3d 00 9c 5f 3d f8 d7 d1 3c
       -0.07100486 0.07538373 0.054592133 0.025615677
000390 9b a5 9c 3d 56 51 16 bd bb d4 00 3d f9 e2 5d bd
       0.07648774 -0.03669866 0.031452876 -0.054171536
0003a0 48 b2 5a 3d 88 81 c5 3d 22 d2 c8 bd 7d c0 97 3d
       0.05339268 0.09643847 -0.09805705 0.07409761
0003b0 58 80 c1 bd d3 e9 91 bd 02 35 20 bc 2d 1d 0c bd
       -0.09448308 -0.071246766 -0.009778263 -0.03420751
0003c0 c7 b9 6e bc cd 36 f9 bc c1 58 5f bd 5a 39 2d bd
       -0.01457066 -0.030421639 -0.054528 -0.042291023
0003d0 aa 35 84 bd f6 62 cf 3c 66 00 b3 bd 36 8a bf 3d
       -0.06455548 0.025315743 -0.0874031 0.093525335
0003e0 8f c1 bc bd 19 1c c9 bc 8a 77 b8 bd bd 4c d6 3d
       -0.09216606 -0.02454953 -0.09007175 0.104638554
0003f0 5c 55 3e bd 61 11 25 3d b6 67 84 3d a9 d3 78 bd
       -0.046468124 0.040299777 0.06465094 -0.06074873

lstm.bias_ih_l1 f4 [352]
000000 26 09 b4 bd e8 cf 78 3d 59 47 85 bc 85 d0 50 3d
       -0.087908074 0.06074515 -0.016269373 0.05098011
000010 7f 1a c7 bd 05 af 9d bd 82 0a 64 3d e1 87 81 3d
       -0.097218506 -0.07699398 0.055674084 0.06324745
000020 f1 85 d8 bb 38 e8 84 bd 04 24 4d 3d 61 16 e7 3b
       -0.006607764 -0.06489605 0.050083175 0.0070522283
000030 c0 70 a6 3d 49 6c 3a bd a9 c5 05 bd ab 11 22 bd
       0.08126974 -0.045513425 -0.032659207 -0.03956763
000040 14 2e d8 bd 01 11 67 bd fa 51 1c bd 49 f6 0b bd
       -0.10555664 -0.0564127 -0.038164116 -0.034170423
000050 d7 da 50 bd 24 f6 8b 3d 8f 41 c5 3c 52 d3 a5 3d
       -0.050989952 0.06834057 0.024079112 0.08096947
000060 bf 20 75 3d e7 6e fb bb 84 4c 86 3d a1 20 cc bd
       0.059845682 -0.0076731327 0.06557563 -0.09967161
000070 9a 80 79 3d a6 04 34 bc d4 00 f9 bc 0f 55 33 bd
       0.06091366 -0.010987436 -0.030395903 -0.04378229
000080 c5 b5 cd 3d 9a 84 d6 bd 1f 46 b9 bd af a9 2f bd
       0.100444354 -0.104745105 -0.09046578 -0.042886432
000090 cf 53 a1 bd e8 16 35 bd 49 fe f1 3b 6b a5 5f 3d
       -0.07877313 -0.0442113 0.0073850495 0.054601114
0000a0 b4 fa 46 bd 3a ea cf bd 31 ee 9e 3c fe d5 37 bd
       -0.048578933 -0.10152097 0.019400688 -0.044881813
0000b0 fd 88 55 3d cd 36 b4 bd 65 76 77 bd f7 9f 8e bd
       0.052132595 -0.08799515 -0.060415644 -0.069641046
0000c0 b1 d0 2d 3d 89 15 83 bd c8 74 da bc 46 0a 79 3d
       0.04243535 -0.06400592 -0.026667014 0.060800813
0000d0 71 87 ae 3d ac 37 58 bd 28 1d 04 bd 26 fe b7 3d
       0.08521927 -0.052787468 -0.032254368 0.08984022
0000e0 e5 9d ae 3d 14 08 bd bd ba 9d 96 3d ac 01 96 3c
       0.0852621 -0.092300564 0.07354303 0.018311344
0000f0 ee ec 9e bd a8 2b 4c 3b 0d 0b c0 3d bd e3 eb 3c
       -0.077600345 0.003115395 0.09377108 0.028795118
000100 32 da 8e bd 55 1b 52 3d 14 de 1e bd 48 9c b9 3c
       -0.06975211 0.051295597 -0.03878601 0.022657529
000110 6f ea d1 3d f3 a7 2e bd bf 61 ba bd db 4c 88 bc
       0.10249793 -0.042640638 -0.09100675 -0.01663821
000120 4a ca a7 bd 37 d3 db bc 90 af 25 bc c2 8e 7e bd
       -0.081928805 -0.026834114 -0.010112658 -0.062147863
000130 5a da 4b bd 1d a7 07 bd 68 84 be bd 84 ff 8a bd
       -0.049768783 -0.033118356 -0.09302598 -0.06787017
000140 5c 13 c2 bd cc 2d 92 bd b1 c1 92 bd dd 2d d5 3c
       -0.09476349 -0.07137641 -0.0716585 0.026022846
000150 6a af c9 bd 5d 70 26 bd c6 a2 c8 bd ab 97 89 bd
       -0.09847911 -0.0406345 -0.097966716 -0.067183815
000160 02 5a d2 3c 68 0e 01 3d 22 9c 52 3b 1e 0e c5 bd
       0.025677685 0.03150788 0.003213652 -0.09621833
000170 12 04 1c bd 25 68 0e 3d 98 34 b6 bd 2e 90 06 bd
       -0.03808982 0.03476729 -0.0889675 -0.032852344
000180 46 29 b5 3c 62 d2 dd 3d f5 5f 4e bd c8 52 88 3d
       0.022114407 0.10831143 -0.05038448 0.06656414
000190 62 d1 c3 bd ec ed da 3c 3e 47 8b bc 2f 6c 04 bd
       -0.09561421 0.026724778 -0.017001744 -0.032329734
0001a0 c2 d2 c2 bd a9 48 a4 bd 4e cb d4 3d 67 8f ab bd
       -0.09512855 -0.08021671 0.1039034 -0.08376961
0001b0 a7 c0 79 3d ff 70 5d 3d 36 85 ef 3c 9e e9 a0 bc
       0.060974743 0.05406284 0.029238325 -0.019642647
0001c0 a6 0f 14 3d c2 e4 de 3c 87 d2 a2 bd af 4b 6a bd
       0.036147736 0.02720869 -0.07950311 -0.057201084
0001d0 b8 14 71 3d 63 7e 4d bd 62 a9 39 bc ab 49 9e bc
       0.05885765 -0.05016936 -0.011331888 -0.019322237
0001e0 cd d6 b2 3d 1c d7 b8 3a f8 ad a4 bd 83 ab 96 3d
       0.08732376 0.0014102194 -0.080409944 0.07356932
0001f0 a1 f2 cc bd 07 50 91 3d 58 b8 1a bc 1d 5a 1a 3d
       -0.10007215 0.07095342 -0.009443365 0.037683595
000200 84 88 8b 3d b4 40 70 bd f6 ac d9 3c aa 9a f4 38
       0.06813148 -0.058655456 0.026571732 0.00011663635
000210 2d a4 84 bb 9f 24 2e bd 85 3d ca bd f5 f7 41 bc
       -0.0040478916 -0.042515393 -0.09875015 -0.011838903
000220 f9 17 83 bc 0f 43 a4 3d 66 43 40 3d 4f 41 5b bd
       -0.016002642 0.08020603 0.046939276 -0.05352908
000230 74 4c 60 bd ee ad a3 3d f7 9b 9b bd d7 0e b3 3d
       -0.05476041 0.07992159 -0.07598107 0.08743065
000240 3f 27 d0 bd 0f aa b8 3c 7d 35 be bd 1d d6 ad 3c
       -0.101637356 0.022542028 -0.09287546 0.021220261
000250 f9 8c c2 3c 1c d8 9f 3d bd 89 8a 3d 41 19 5a 3d
       0.023748862 0.078048915 0.06764553 0.05324674
000260 2e f6 cd bd 6a 1b 89 3d c3 fa 38 3c de 58 4e bc
       -0.10056721 0.06694682 0.011290255 -0.01259443
000270 9a f4 4d 3d 94 3f 59 bd 2f c8 cb 3d 2e 5a b7 bd
       0.0502821 -0.05303915 0.09950291 -0.08952747
000280 2d d5 90 bb ce c1 50 3d 3c fe 97 bc 95 02 02 bd
       -0.004419944 0.050966077 -0.018553846 -0.031740744
000290 c7 d9 05 bb 43 21 5f 3b a1 d3 b9 bd 0a 9a b7 bd
       -0.0020423995 0.0034046925 -0.09073568 -0.089649275
0002a0 07 a4 ec 3c 11 ce ae 3d 11 e2 b3 bd 43 5e 8e b9
       0.028886808 0.08535398 -0.08783353 -0.0002715458
0002b0 c4 74 39 3d f5 16 19 bd a4 54 a9 3d 86 0e a9 bd
       0.045277372 -0.03737541 0.08268097 -0.08254723
0002c0 87 d0 9b 3d 57 56 00 bc 4d a3 9f bd ba d4 33 bb
       0.07608133 -0.007833085 -0.07794819 -0.0027440027
0002d0 ee 5d 5d 3d 4d 7e 81 3d 04 7c b8 3d c1 97 d5 bd
       0.054044656 0.06322918 0.09008029 -0.104293354
0002e0 00 4e 68 bd 7a 00 77 3d c9 a1 a7 3d 97 fe 63 3d
       -0.05671501 0.06030319 0.08185155 0.055662718
0002f0 19 4e 9f 3d 8d 3a b4 3d e4 38 af bc 33 e1 dd bd
       0.07778568 0.0880023 -0.021389432 -0.10833969
000300 04 54 ca 3d f8 6a d5 bd 2b 0d 80 3d 40 07 1b bd
       0.09879306 -0.10420793 0.062525116 -0.03784871
000310 63 d6 26 3d 10 7d a4 bc 8a bd ba 3d 88 93 83 3c
       0.0407318 -0.020079166 0.09118183 0.01606156
000320 50 40 bb bc 36 f1 4a 3d b5 7b 39 3d f2 72 b1 3d
       -0.022857815 0.049546443 0.04528399 0.08664502
000330 5f 62 82 bd c0 24 dc bc d6 f6 0b 3d 78 09 aa 3c
       -0.06366419 -0.026872993 0.034170948 0.020756468
000340 9c 50 ad 3d 31 b5 38 3d 5d 8c 99 3d 42 0d 89 3d
       0.08462641 0.045094673 0.07497475 0.06691982
000350 d0 b4 95 bd 65 50 3a bd e9 45 ad bd 59 6f d1 bd
       -0.07309878 -0.045486826 -0.084606 -0.10226316
000360 ec e1 c9 3d 69 e9 fe bc e8 66 88 bd bf 19 b9 bd
       0.09857544 -0.031117158 -0.06660253 -0.09038114
000370 47 ce 1a bc 06 4b 90 3d 7e 48 c0 ba 66 48 2c 3d
       -0.009448594 0.070455596 -0.0014670042 0.042061232
000380 c6 cc 51 3d 52 3a 8e bd 59 cb 77 bd 37 45 6c 3d
       0.051220678 -0.069447175 -0.06049666 0.057683196
000390 82 c3 d8 3c 9c 43 45 3d 8b 9d f0 3c 2b 49 94 bd
       0.026460413 0.04816018 0.029371997 -0.07240518
0003a0 22 ce b9 bd eb ac 27 bd 76 66 a8 bd 59 13 65 bd
       -0.0907252 -0.04093639 -0.08222668 -0.055926654
0003b0 22 a3 51 3c 4b e3 43 3d d7 01 8a bd 05 df bf 3d
       0.012795242 0.047824185 -0.06738632 0.093687095
0003c0 db 84 8c 3d 19 49 88 3d d0 41 d5 3d 1b 1d 86 bd
       0.06861278 0.06654567 0.10412943 -0.0654852
0003d0 35 ee 0e bd 3d 44 bb bd cf fc 46 bc 27 36 c6 3c
       -0.03489514 -0.09143875 -0.012145235 0.024195744
0003e0 5f c2 cb 3d 38 ab 07 bd 89 e4 dd 3c 16 b9 98 3d
       0.09949183 -0.03312227 0.027086513 0.07457177
0003f0 f5 20 96 3d c3 dd 81 bd 8c 14 49 bd 27 cf 96 bd
       0.07330505 -0.06341126 -0.04909186 -0.0736373
