NoteBooks/MLP/dengue_mlp_model.pth (torch, 69795 bytes, 19 tensors)

network.0.weight f4 [128, 26]
-0.06844302 -0.05118856 -0.20004378 0.020098604 -0.014260749 -0.12801912 -0.020385157 -0.08610704
-0.3003716 -0.078007266 0.18169297 0.0060948916 -0.13501784 -4.92607e-40 0.13506703 -0.2654691
-0.027419187 0.016931817 -0.27351147 -0.012326626 0.08296833 0.084414914 -0.034466803 0.10392159
0.07399769 -0.20050818 0.094369695 -0.26660922 0.016745057 -0.083968766 -0.20766905 0.07757628
0.1074417 -0.016370855 -0.022987898 0.01977056 0.07465568 0.25737974 0.28040227 -4.98916e-40
0.047413915 0.25108063 0.049818736 -0.008413089 -0.0768285 0.08840776 0.14898437 -0.0151618235
0.10640268 -0.0206415 0.12947881 -0.02428339 0.091646716 0.004093158 -0.0320341 0.21254666
0.1807316 0.19038902 0.13896318 -0.035459258 -0.06735981 -0.20359737 0.054429755 0.18487692
-0.056659758 -5.24747e-40 0.16972986 0.25027186 0.15755653 0.033391975 0.18251209 0.054588363
-0.07792855 -0.12892902 0.0044619795 0.12033371 -0.09652335 -0.09619979 0.031076996 -0.08736852
0.1876562 0.054137092 0.20674641 0.082572 -0.11573688 -0.020797461 -0.11672572 -0.03531994
0.20539786 -0.0037261113 0.11725315 -4.93445e-40 -0.19175531 0.14891508 -0.09191543 -0.2560305
0.012685766 -0.15401445 -0.113791704 -0.20323615 0.16832225 0.001288178 0.08426861 -0.04491348
0.05120417 0.052223418 0.23267658 0.03214196 -0.052145243 -0.0016110197 0.23152664 -0.054149948
-0.17667569 -0.11734714 0.19039741 0.24000375 -0.09782493 4.95177e-40 0.05404498 -0.013230221
0.03287273 0.21119787 0.025934286 0.1865238 0.23011622 0.007426295 0.11648285 0.017425807
-0.09683908 0.1229385 -0.07582507 -0.11106303 0.16768576 0.10145743 -0.09128033 0.034928
-0.08000733 -0.048504997 0.012500775 -0.09256934 -0.20987888 0.0011240427 -0.112987205 5.07035e-40
0.120839 -0.061385583 0.006212072 0.18354687 -0.04454021 -0.09687878 -0.3107167 -0.14954378
-0.042889293 0.16817106 0.1390628 -0.03622455 0.00057654764 -0.06768463 -0.0424522 -0.13211566
0.1041838 -0.079642266 0.043986965 0.013316344 -0.062048756 -0.01271203 -0.008334113 0.13015531
-0.009823135 4.97241e-40 0.091772854 0.10309888 -0.1324383 -0.14728355 -0.18908294 0.20792222
-0.10971074 0.05870716 -0.059275832 0.07344983 -0.122984216 -0.13591838 0.028026722 0.17488204
-0.07184094 -0.04369079 -0.010198071 0.002132901 0.16600303 -0.17898329 0.10025844 0.06868676
-0.05256408 -0.051674813 0.13872226 4.9764e-40 0.21503823 -0.08079639 0.17540252 0.0978223
-0.16323817 -0.24442635 0.1459338 -0.09110866 0.008995147 -0.0030678033 -0.0929466 0.055414878
-0.04174353 -0.19879127 0.18493114 -0.22167376 0.09017988 -0.006829681 -0.06037569 0.16754091
-0.02048613 -0.22971854 -0.17265467 0.041530043 0.07844578 -4.95788e-40 -0.06389163 -0.049691036
0.17150995 0.010637223 -0.1316763 -0.08118979 -0.066461295 0.13603494 0.12623481 -0.17234394
0.07148569 0.22010063 -0.06030668 0.17432101 -0.03290924 0.12080445 0.010597247 0.101877674
0.04327717 -0.02786646 -0.0022523545 -0.1812995 -0.2583707 -0.23201318 0.13202387 4.97569e-40
-0.11674569 0.067704484 -0.07198332 0.1311028 0.15034983 0.1424377 -0.23398252 0.114161536
00000000: db2b 8cbd 18ab 51bd 47d8 4cbe d4a5 a43c
00000010: eba5 69bc 7217 03be c6fe a6bc e358 b0bd
00000020: 4eca 99be 46c2 9fbd b90d 3a3e a8b7 c73b
00000030: 1e42 0abe 305d 0580 034f 0a3e 91eb 87be
00000040: 349e e0bc 98b4 8a3c b209 8cbe 9ef5 49bc
00000050: 4deb a93d bae1 ac3d 102d 0dbd d8d4 d43d
00000060: 1a8c 973d 0452 4dbe e644 c13d 0181 88be
00000070: ee2c 893c d1f7 abbd 32a7 54be 50e0 9e3d
00000080: 650a dc3d 2c1c 86bc 1e51 bcbc dff5 a13c
00000090: 14e5 983d 47c7 833e e390 8f3e c66e 0580
000000a0: 1835 423d a48d 803e bb0e 4c3d 0ed7 09bc
000000b0: 4358 9dbd 210f b53d 5c8f 183e 4c69 78bc
000000c0: a6e9 d93d 5d18 a9bc 1896 043e f6ed c6bc
000000d0: 46b1 bb3d e61f 863b 3036 03bd d5a5 593e
000000e0: b411 393e 57f5 423e 5d4c 0e3e ba3d 11bd
000000f0: f1f3 89bd d47b 50be bcf1 5e3d 6050 3d3e
00000100: 1014 68bd c8b6 0580 aacd 2d3e a223 803e
00000110: 8056 213e 06c6 083d 73e4 3a3e 0c98 5f3d
00000120: 0199 9fbd f805 04be cc35 923b 8571 f63d
00000130: 09ae c5bd 6504 c5bd 2f95 fe3c 44ee b2bd
00000140: f228 403e dbbe 5d3d 55b5 533e 821b a93d
00000150: 7507 edbd 705f aabc e50d efbd a4ab 10bd
00000160: d153 523e c631 74bb 6b22 f03d 865f 0580
00000170: 815b 44be 327d 183e 283e bcbd 6e16 83be
00000180: f6d7 4f3c f7b5 1dbe a00b e9bd 231d 50be
00000190: ab5c 2c3e 15d8 a83a 0595 ac3d 32f7 37bd
000001a0: 77bb 513d 39e8 553d c542 6e3e 4aa7 033d
000001b0: 4096 55bd da28 d3ba 5215 6d3e 56cc 5dbd
000001c0: 79ea 34be b353 f0bd 8af7 423e 8bc3 753e
000001d0: 7058 c8bd 5a64 0500 455e 5d3d 92c3 58bc
000001e0: 8ea5 063d 4144 583e 2474 d43c 1800 3f3e
000001f0: 96a3 6b3e 4758 f33b 8f8e ee3d 91c0 8e3c
00000200: 9153 c6bd 2ec7 fb3d 2d4a 9bbd 0475 e3bd
00000210: d1b5 2b3e eac8 cf3d 2ff1 babd aa10 0f3d
00000220: e2da a3bd 2dad 46bd 0dd0 4c3c fe94 bdbd
00000230: 7dea 56be 9d54 933a d665 e7bd 6885 0500
00000240: 707a f73d 736f 7bbd a38e cb3b b6f3 3b3e
00000250: cc6f 36bd 6268 c6bd 4216 9fbe 0122 19be
00000260: afac 2fbd 0935 2c3e 7b66 0e3e 3260 14bd
00000270: 7523 173a 3d9e 8abd 5ce2 2dbd 5449 07be
00000280: 515e d53d 7c1b a3bd ad2b 343d cb2c 5a3c
00000290: d626 7ebd 1e46 50bc ce8b 08bc 6f47 053e
000002a0: 37f1 20bc 1b6a 0500 68f3 bb3d 8125 d33d
000002b0: e89d 07be 80d1 16be f59e 41be 90e9 543e
000002c0: 06b0 e0bd eb76 703d 37cb 72bd dd6c 963d
000002d0: 26df fbbd 302e 0bbe 4c98 e53c 4714 333e
000002e0: 5821 93bd 1df5 32bd cf15 27bc 24c8 0b3b
000002f0: b3fc 293e 6547 37be 4c54 cd3d a5ab 8c3d
00000300: 6f4d 57bd f8a8 53bd 350d 0e3e 386b 0500
00000310: fb32 5c3e 9478 a5bd b89c 333e 0f57 c83d
00000320: e827 27be e74a 7abe ac6f 153e 2d97 babd
00000330: 6260 133c 330d 49bb c95a bebd b6fa 623d
00000340: 44fb 2abd f08f 4bbe 975e 3d3e 72fe 62be
00000350: 3bb0 b83d 84cb dfbb 804c 77bd d88f 2b3e
00000360: 87d2 a7bc 563b 6bbe 63cc 30be 681b 2a3d
00000370: 2ea8 a03d 0e66 0580 9dd9 82bd d488 4bbd
00000380: 4ea0 2f3e bf47 2e3c 27d6 06be d546 a6bd
00000390: dc1c 88bd be4c 0b3e b343 013e ee7a 30be
000003a0: 1767 923d 0f62 613e 2304 77bd 3581 323e
000003b0: d7cb 06bd 5368 f73d 13a0 2d3c 3ea5 d03d
000003c0: 6743 313d 3448 e4bc 3d9c 13bb 93a6 39be
000003d0: 2a49 84be dd94 6dbe 4431 073e 056b 0500
000003e0: 5d18 efbd a6a8 8a3d fe6b 93bd d03f 063e
000003f0: 4ef5 193e 30db 113e 1d99 6fbe 86cd e93d

network.0.bias f4 [128]
0.000101854464 8.288496e-06 -1.249957e-05 -2.7049107e-06 -2.2753977e-05 2.1629803e-05 -5.715814e-05 -4.960512e-05
-7.069856e-06 2.5850466e-05 -5.4538827e-06 0.00011813096 4.2486725e-05 2.5122865e-05 6.464369e-05 -2.8437014e-05
3.3000393e-05 3.6572797e-05 -8.530058e-06 4.7004643e-05 3.865608e-05 -7.170027e-05 3.3066564e-05 -0.00015121738
4.7566555e-05 1.94684e-05 -1.9617324e-05 0.00012363213 1.24859225e-05 8.054162e-05 0.00025281977 -6.3396634e-05
0.00024398796 3.870669e-05 -6.436549e-06 5.8468242e-05 9.451763e-05 -2.3038097e-05 1.0712094e-05 -3.154699e-05
-4.581942e-05 -0.0001331427 -5.0195704e-05 -4.1115665e-05 6.00056e-05 0.00015438149 3.1128886e-05 -3.0975712e-05
7.9860925e-05 3.1264808e-05 9.48546e-06 0.00010990796 -0.00014501947 1.9907076e-05 5.264621e-05 -6.0742314e-05
0.0001091407 5.7609854e-05 6.903141e-05 6.5256885e-05 -4.8765214e-05 9.919928e-05 1.4487987e-05 1.632616e-05
-3.7192105e-05 -4.060416e-05 -5.3177242e-05 -3.424639e-05 4.9734408e-05 2.2608345e-05 6.6937275e-05 0.00018120283
1.5769881e-05 -2.7658138e-05 6.322727e-05 0.00015569918 -1.0938676e-05 -1.4083567e-05 -7.782226e-05 -6.705247e-05
2.189494e-05 6.402744e-05 9.62687e-05 -2.0536636e-07 9.165729e-06 -3.0376943e-05 1.0053433e-05 -3.2495536e-06
4.1578176e-05 3.951946e-05 -1.9532963e-05 -3.557935e-05 1.1695667e-05 4.7079597e-05 -0.00014240955 7.752049e-06
-5.9755507e-06 2.7858376e-05 -1.5864805e-05 -4.3448705e-05 7.001876e-05 5.0716867e-06 5.0346775e-05 7.287741e-05
-8.682432e-06 2.5774212e-05 0.00023684617 2.9838713e-05 -3.907667e-05 3.4871267e-05 -4.561142e-05 6.8181653e-06
1.1823695e-05 -0.00010654683 -1.4099371e-05 1.2643832e-05 -1.5821894e-05 -1.3934355e-05 0.00016343847 8.34268e-05
7.968918e-06 -6.199944e-05 2.1168553e-05 -0.00010348865 3.097247e-05 -0.00012153757 -3.167868e-06 -1.8632156e-06
00000000: b39a d538 d20e 0b37 3fb5 51b7 0386 35b6
00000010: cbdf beb7 a671 b537 16bd 6fb8 180f 50b8
00000020: 9a39 edb6 74d9 d837 7f00 b7b6 14bd f738
00000030: c633 3238 f1be d237 5191 8738 068c eeb7
00000040: e769 0a38 be65 1938 521c 0fb7 da26 4538
00000050: a622 2238 ca5d 96b8 f4b0 0a38 1b90 1eb9
00000060: 3382 4738 1250 a337 e28f a4b7 3fa3 0139
00000070: a17a 5137 74e8 a838 e58c 8439 cff3 84b8
00000080: 05d7 7f39 fe58 2238 89f9 d7b6 cc3b 7538
00000090: c437 c638 f041 c1b7 18b8 3337 5351 04b8
000000a0: 3a2e 40b8 399c 0bb9 3a89 52b8 9c73 2cb8
000000b0: 86ae 7b38 77e1 2139 6390 0238 ebeb 01b8
000000c0: 027b a738 5522 0338 be23 1f37 637e e638
000000d0: 5e10 18b9 1ffe a637 70d0 5c38 90c5 7eb8
000000e0: 78e2 e438 1ca2 7138 f5c4 9038 86da 8838
000000f0: 4089 4cb8 3509 d038 6e11 7337 29f4 8837
00000100: b8fe 1bb8 634e 2ab8 a10a 5fb8 c8a3 0fb8
00000110: ea99 5038 0da7 bd37 ad60 8c38 4401 3e39
00000120: 9049 8437 6603 e8b7 e298 8438 2e43 2339
00000130: 4185 37b7 7648 6cb7 8234 a3b8 859e 8cb8
00000140: 07ab b737 7846 8638 dde3 c938 ad82 5cb4
00000150: 82c6 1937 fdd1 feb7 2aab 2837 e812 5ab6
00000160: 3a64 2e38 b2c1 2538 b8da a3b7 093b 15b8
00000170: 8238 4437 5577 4538 c653 15b9 cc0e 0237
00000180: 9781 c8b6 68b1 e937 6915 85b7 b13c 36b8
00000190: 09d7 9238 752d aa36 702b 5338 c3d5 9838
000001a0: c3aa 11b7 b335 d837 e959 7839 264e fa37
000001b0: 41e6 23b8 bd42 1238 e44e 3fb8 98c7 e436
000001c0: 625e 4637 e571 dfb8 568c 6cb7 d820 5437
000001d0: 42b9 84b7 99c7 69b7 ae60 2b39 6cf5 ae38
000001e0: 3eb2 0537 b205 82b8 1f93 b137 0c08 d9b8
000001f0: 70e8 0138 fce1 feb8 8f97 54b6 9a13 fab5

network.1.weight f4 [128]
1.0924358 0.9551963 0.88871306 1.0498873 0.9576824 0.88214713 0.98233116 0.9772804
0.92256576 0.9759528 0.9440102 0.9875907 0.89625466 1.0594002 1.0430057 0.92552894
0.88902444 0.9177214 0.9309064 0.88818836 1.0071553 0.89262164 0.97446597 0.9916159
1.0857394 0.87037545 0.9860632 0.9459177 0.86019367 1.0166658 1.2119437 0.9782411
1.066099 1.0245371 0.8741018 0.8795751 0.88444 0.99980605 0.92199934 0.9996377
0.9241543 1.0240645 1.1614786 1.029778 1.0406154 1.0442767 0.9375296 0.8715462
1.085664 0.9294304 1.0636015 0.9860962 0.9768921 0.89487433 0.88683164 0.91572326
0.9942952 1.0871085 0.92646945 1.0267799 0.9788061 1.0791663 1.063368 0.94114876
1.0251671 0.9148378 0.9726929 0.90140015 0.99475825 0.9041592 0.9847806 1.1760147
0.92482626 0.8185363 1.1046405 1.1995435 1.0191876 0.9224896 0.93171215 1.1461439
1.0558875 0.9870716 0.9012445 0.9692744 0.9308565 1.1648353 0.894422 0.89310586
0.94400537 0.9539843 0.92744416 0.93027896 0.9181981 1.0052818 1.073845 0.8968222
0.9148917 1.0133932 0.9845373 1.0090301 1.1374271 0.86041796 1.0163225 0.9884475
0.9648403 1.0141752 1.1310942 0.91661054 1.0291744 1.017559 0.94127476 0.89192134
0.97611624 0.92152387 0.8438339 0.97742116 1.003139 0.9496576 1.0323349 1.0853184
1.0717163 0.888651 0.85476357 0.99969643 0.9575282 1.0431434 0.8880304 0.87401545
00000000: f0d4 8b3f bf87 743f b382 633f b562 863f
00000010: ac2a 753f 65d4 613f 0e7a 7b3f 0c2f 7a3f
00000020: 452d 6c3f 0bd8 793f a7aa 713f bed2 7c3f
00000030: f270 653f 6d9a 873f 3681 853f 77ef 6c3f
00000040: 1b97 633f caef 6a3f e24f 6e3f 5060 633f
00000050: 77ea 803f da82 643f 9a76 793f 8ada 7d3f
00000060: 82f9 8a3f edd0 5e3f a36e 7c3f aa27 723f
00000070: a735 5c3f 1b22 823f f920 9b3f 026e 7a3f
00000080: ef75 883f 0824 833f 23c5 5f3f d52b 613f
00000090: a96a 623f 4af3 7f3f 2608 6c3f 42e8 7f3f
000000a0: 6095 6c3f 8c14 833f 55ab 943f c4cf 833f
000000b0: e332 853f dcaa 853f f101 703f a71d 5f3f
000000c0: 0af7 8a3f 27ef 6d3f 1824 883f cd70 7c3f
000000d0: 9a15 7a3f 7c16 653f 6607 633f d76c 6a3f
000000e0: 218a 7e3f 5f26 8b3f 1a2d 6d3f 866d 833f
000000f0: 0993 7a3f 1f22 8a3f 711c 883f 20ef 703f
00000100: ad38 833f cf32 6a3f 6702 793f 29c2 663f
00000110: 7aa8 7e3f fa76 673f 951a 7c3f a687 963f
00000120: 6ac1 6c3f 988b 513f dc64 8d3f a48a 993f
00000130: bd74 823f 4728 6c3f b084 6e3f d8b4 923f
00000140: 5227 873f b9b0 7c3f f6b7 663f 5e22 783f
00000150: 9d4c 6e3f 5319 953f d7f8 643f 96a2 643f
00000160: 56aa 713f 5138 743f fb6c 6d3f c326 6e3f
00000170: 080f 6b3f 13ad 803f c173 893f 2496 653f
00000180: 5836 6a3f deb6 813f a30a 7c3f e627 813f
00000190: 3697 913f 5a44 5c3f db16 823f e50a 7d3f
000001a0: c6ff 763f 7ed0 813f b2c7 903f fda6 6a3f
000001b0: fdbb 833f 603f 823f 62f7 703f f554 643f
000001c0: c1e2 793f fde8 6b3f 8005 583f 4638 7a3f
000001d0: dc66 803f c31c 733f 8d23 843f b7eb 8a3f
000001e0: 002e 893f a27e 633f c9d1 5a3f 1bec 7f3f
000001f0: 9120 753f b985 853f f655 633f 7abf 5f3f

network.1.bias f4 [128]
-0.11487712 -0.09300954 -0.095904015 -0.033286408 0.04792277 -0.11703583 -0.05450686 -0.05546697
-0.07833978 -0.24533156 -0.13375439 -0.20675954 -0.14097603 0.043593872 -0.072258785 -0.34259832
-0.26446158 -0.08541622 -0.08092691 -0.17820433 -0.07605776 -0.11403226 -0.045296747 -0.09627394
-0.30320206 -0.18465559 -0.024765242 -0.25053495 -0.12993668 -0.2589417 -0.27501178 -0.18475115
-0.51674217 -0.009015934 -0.0635739 -0.22622682 -0.23238179 -0.18162686 -0.1047952 -0.055696893
-0.16454439 -0.13997027 0.022607705 -0.08993293 -0.0069320933 -0.1016903 -0.028847422 -0.104884386
-0.23472545 -0.15156735 0.08722807 -0.042832576 0.009352039 -0.2341819 -0.24597989 -0.010226659
-0.18071496 -0.05269198 -0.057552908 -0.10661452 -0.31576988 -0.25314865 -0.017960759 -0.08896032
-0.064733334 -0.17180124 -0.15313104 -0.101228006 -0.33422026 -0.16726688 0.02996804 -0.29101294
-0.101858035 -0.3012186 -0.14513968 -0.29505387 -0.09398653 -0.09903834 -0.17955035 -0.3212247
-0.13525464 -0.12194414 -0.12212773 -0.1415181 0.013381496 -0.029202675 -0.093869686 -0.233639
-0.20093672 -0.05983944 -0.087682135 -0.07241045 -0.2702739 -0.12842166 -0.032043587 -0.101624295
-0.123352595 -0.025866032 -0.21408266 -0.080113694 -0.113688804 -0.04991417 -0.04412548 -0.3267058
-0.06068061 -0.117999375 -0.03755498 -0.099043764 -0.12074992 -0.14455724 -0.10069578 -0.110075615
-0.16255464 -0.25019053 -0.12120219 -0.19839817 -0.1844075 -0.27480453 -0.1743151 -0.27766496
-0.3714699 -0.100167066 -0.15050146 -0.008759679 -0.08117811 -0.08353945 -0.053590246 -0.17423537
00000000: b244 ebbd c97b bebd 5369 c4bd 5457 08bd
00000010: ab4a 443d 7bb0 efbd 9642 5fbd 5531 63bd
00000020: 9b70 a0bd 3238 7bbe e9f6 08be c6b8 53be
00000030: 055c 10be 7d8f 323d 6afc 93bd 0c69 afbe
00000040: 8267 87be b3ee aebd 02bd a5bd 327b 36be
00000050: 2cc4 9bbd bf89 e9bd 1589 39bd 452b c5bd
00000060: 4d3d 9bbe 5b16 3dbe 7ae0 cabc 1e46 80be
00000070: 1f0e 05be 0294 84be 58ce 8cbe 682f 3dbe
00000080: 3749 04bf 91b7 13bc 0833 82bd 01a8 67be
00000090: 7ef5 6dbe 64fc 39be de9e d6bd 6d22 64bd
000000a0: 537e 28be 5e54 0fbe cb33 b93c c22e b8bd
000000b0: 9d26 e3bb 0143 d0bd 6e51 ecbc a0cd d6bd
000000c0: de5b 70be 7934 1bbe a1a4 b23d 3671 2fbd
000000d0: 4b39 193c 61cd 6fbe 27e2 7bbe b78d 27bc
000000e0: 580d 39be 8cd3 57bd 99bc 6bbd b758 dabd
000000f0: 97ac a1be b39c 81be 7122 93bc d430 b6bd
00000100: e992 84bd aaec 2fbe 62ce 1cbe a150 cfbd
00000110: eb1e abbe 0248 2bbe 897f f53c a6ff 94be
00000120: f29a d0bd 5339 9abe 7f9f 14be 4d11 97be
00000130: 037c c0bd 9dd4 cabd 0cdc 37be 9077 a4be
00000140: 3180 0abe d9bd f9bd 1a1e fabd 1fea 10be
00000150: 103e 5b3c 733a efbc c03e c0bd 103f 6fbe
00000160: 5bc2 4dbe 331a 75bd b192 b3bd ee4b 94bd
00000170: 5761 8abe f880 03be 2340 03bd 6620 d0bd
00000180: 49a0 fcbd 00e5 d3bc 7c38 5bbe a612 a4bd
00000190: add5 e8bd cd72 4cbd ebbc 34bd fc45 a7be
000001a0: 3b8c 78bd a8a9 f1bd 40d3 19bd 75d7 cabd
000001b0: bc4b f7bd d006 14be 9739 cebd 536f e1bd
000001c0: b974 26be f918 80be db38 f8bd e428 4bbe
000001d0: 52d5 3cbe 2eb3 8cbe a87f 32be 1a2a 8ebe
000001e0: 4d31 bebe 6424 cdbd 0e1d 1abe c284 0fbc
000001f0: b540 a6bd bb16 abbd 7281 5bbd c26a 32be

network.1.running_mean f4 [128]
0.004509373 -0.05349318 -0.027891511 -0.004011602 -0.042575665 0.0039012688 -0.0021850427 -0.0084433
-0.005663397 0.038537405 -0.0015970876 -0.004975914 -0.009491071 -0.03225658 0.00958947 0.0031404968
0.0060052294 -0.032789025 0.010208043 0.002120296 -0.0122963535 -0.0021770059 -0.043438666 0.008198567
-0.0142713515 0.03833819 -0.012226603 0.0069670044 0.022145862 -0.0047467123 -0.010921896 -0.016130624
-0.008894193 -0.014799384 -0.0059463843 0.016955238 0.021398557 -0.033111125 0.014231024 -0.022551734
0.00076688675 -0.024100937 -0.005756079 0.016921284 -0.005192297 0.012505606 -0.0022525527 -0.01145624
0.020070191 0.010294235 -0.007844245 0.010508352 -0.0070411395 0.0024785758 0.047883213 -0.01228333
-0.047456324 0.0141242305 -0.017528618 -0.03475532 -0.004397789 -0.0018405793 -0.0050673154 0.032976337
-0.027970638 0.023418125 -0.050015673 0.008430602 0.0014996886 -0.01109608 -0.016823744 -0.014244588
-0.010340645 0.050170377 -0.01930837 -0.0076709515 0.01632584 -0.00032227757 -0.030425757 -0.014274771
-0.011368663 0.0030669225 0.011553068 -0.035629164 -0.027032904 -0.0015183825 -0.035888605 -0.013586474
-0.004871322 -0.018928248 -0.010719239 -0.02302438 0.0003215163 -0.00056603533 -0.0039017096 0.0045225997
-0.048381377 0.0031315037 -0.016232587 -0.016562102 0.004507753 0.0006685956 0.0048861606 -0.016174505
-0.012615483 -0.022665309 0.003185428 0.025229387 -0.021903954 -0.0063026585 0.008499335 -0.029620733
-0.0045200703 -0.008351065 -0.05259811 0.027040947 0.0015599629 -0.0024686686 -0.023590367 -0.00714407
-0.0030328794 0.028091727 0.009338257 0.0068381256 0.0018912809 -0.02997274 -0.028239781 -0.039251808
00000000: 5dc3 933b aa1b 5bbd bd7c e4bc c273 83bb
00000010: d263 2ebd 6eac 7f3b ef32 0fbb c455 0abc
00000020: 0494 b9bb 66d9 1d3d 5e55 d1ba fe0c a3bb
00000030: 7080 1bbc 7a1f 04bd 271d 1d3c cbd0 4d3b
00000040: 84c7 c43b c94d 06bd a33f 273c aaf4 0a3b
00000050: a576 49bc 19ac 0ebb beec 31bd 4853 063c
00000060: 63d2 69bc 8208 1d3d 1752 48bc 784b e43b
00000070: 3d6b b53c 4f8a 9bbb c1f1 32bc 5f24 84bc
00000080: f3b8 11bc 1e79 72bc e3d9 c2bb b6e5 8a3c
00000090: 074c af3c 889f 07bd 3e29 693c 6abe b8bc
000000a0: e608 493a 546f c5bc 7e9d bcbb 819e 8a3c
000000b0: 2524 aabb 50e4 4c3c 909f 13bb f4b2 3bbc
000000c0: 3e6a a43c 27a9 283c 2685 00bc 392b 2c3c
000000d0: 5cb9 e6bb 9a6f 223b 3021 443d 0540 49bc
000000e0: 9061 42bd 5169 673c 2d98 8fbc 985b 0ebd
000000f0: 541b 90bb 983f f1ba b90b a6bb 3212 073d
00000100: ae22 e5bc 5ed7 bf3c 3cdd 4cbd 8220 0a3c
00000110: 3391 c43a 55cc 35bc f3d1 89bc 2262 69bc
00000120: cf6b 29bc 747f 4d3d 962c 9ebc 9b5c fbbb
00000130: c5bd 853c 5df7 a8b9 703f f9bc bbe0 69bc
00000140: a143 3abc 6cfe 483b 1449 3d3c e3ef 11bd
00000150: 1c74 ddbc 7604 c7ba eeff 12bd cd99 5ebc
00000160: 9c9f 9fbb 6a0f 9bbc bf9f 2fbc a09d bcbc
00000170: 3091 a839 fd61 14ba d3b3 7fbb 5132 943b
00000180: 8d2b 46bd ea39 4d3b 34fa 84bc 3fad 87bc
00000190: c6b5 933b b144 2f3a 161c a03b 6580 84bc
000001a0: 2cb1 4ebc 99ac b9bc 9dc2 503b dcad ce3c
000001b0: ec6f b3bc 8886 cebb cb40 0b3c 2ea7 f2bc
000001c0: 191d 94bb e8d2 08bc 1e71 57bd fa84 dd3c
000001d0: ab77 cc3a 63c9 21bb 9640 c1bc ce18 eabb
000001e0: 46c3 46bb 9f20 e63c 7dff 183c 5b12 e03b
000001f0: dbe4 f73a 6489 f5bc 1d57 e7bc 81c6 20bd

network.1.running_var f4 [128]
0.34565687 0.75496274 0.40595514 0.33037183 0.44157067 0.75233436 0.166697 0.29672712
0.44671828 0.43579188 0.2762887 0.22275297 0.43492195 0.41753545 0.18529244 0.19038299
0.38835457 0.48866484 0.23593722 0.3372111 0.26577714 0.50264126 0.68239886 0.12760629
0.27794695 0.40914905 0.2878435 0.32219723 0.66809446 0.341873 0.27460226 0.36855674
0.2659818 0.17875807 0.4317978 0.22663821 0.2690494 0.24223356 1.0141928 0.48905423
0.33786365 0.38162285 0.20995452 0.29177228 0.44509715 0.10558794 0.27800056 0.39830908
0.24133952 0.28418314 0.26101726 0.3073935 0.6652052 0.6163211 0.403314 0.4274502
0.3477472 0.36750975 0.41241452 0.25151923 0.30696014 0.28417042 0.33587548 0.41141117
0.26871648 0.25657484 0.39357892 0.39724767 0.39086062 0.33172113 0.20788635 0.42352244
0.40945873 0.45978457 0.33607572 0.3935214 0.1537775 0.39689028 0.27433497 0.39572394
0.19778928 0.14846031 0.3225544 0.3537821 0.32254192 0.27221674 0.45206898 0.963708
0.25937817 0.31107667 0.37574008 0.25992396 0.33141857 0.27300096 0.15319374 0.21257281
0.39714172 0.4184028 0.24862334 0.22936364 0.21422972 0.58715683 0.6493063 0.2766887
0.277419 0.44191268 0.122374155 0.3111631 0.34706596 0.23746514 0.22918405 0.32109272
0.2885506 0.19814721 0.4462293 0.40552208 0.62286276 0.3539157 0.40618548 0.24437287
0.20056625 0.24293204 0.29049528 0.18870029 0.52382874 0.24957527 0.933744 0.26735687
00000000: f0f9 b03e 3d45 413f 5ad9 cf3e 7f26 a93e
00000010: 8d15 e23e fc98 403f 9eb2 2a3e 9eec 973e
00000020: 42b8 e43e 1d20 df3e b675 8d3e 5b19 643e
00000030: 17ae de3e 35c7 d53e 4dbd 3d3e c2f3 423e
00000040: 69d6 c63e 4732 fa3e 8799 713e efa6 ac3e
00000050: f113 883e 19ad 003f b1b1 2e3f 39ab 023e
00000060: 104f 8e3e fc7b d13e 3960 933e 09f7 a43e
00000070: 3d08 2b3f fa09 af3e ab98 8c3e 78b3 bc3e
00000080: c42e 883e 5b0c 373e 9a14 dd3e d913 683e
00000090: d8c0 893e 130c 783e 12d1 813f 5165 fa3e
000000a0: 77fc ac3e 1264 c33e 51fe 563e 2d63 953e
000000b0: c6e3 e33e 7d3e d83d 1756 8e3e 2bef cb3e
000000c0: b521 773e 7480 913e 0ea4 853e ae62 9d3e
000000d0: e34a 2a3f 38c7 1d3f 2c7f ce3e c1da da3e
000000e0: ec0b b23e 3d2a bc3e ff27 d33e 21c7 803e
000000f0: e129 9d3e c97e 913e dff7 ab3e 7ca4 d23e
00000100: 3595 893e c75d 833e 2d83 c93e 0c64 cb3e
00000110: e21e c83e 5ad7 a93e 29e0 543e efd7 d83e
00000120: 93a4 d13e e268 eb3e 1e12 ac3e a37b c93e
00000130: d977 1d3e 3435 cb3e a275 8c3e 549c ca3e
00000140: 4689 4a3e fb05 183e da25 a53e ed22 b53e
00000150: 3724 a53e fe5f 8b3e 9675 e73e 91b5 763f
00000160: 37cd 843e 7145 9f3e 0161 c03e c114 853e
00000170: b2af a93e c8c6 8b3e d2de 1c3e b0ac 593e
00000180: 2956 cb3e e438 d63e 1e97 7e3e 4dde 6a3e
00000190: 095f 5b3e e94f 163f f038 263f 24aa 8d3e
000001a0: dd09 8e3e 6142 e23e 4d9f fa3d c550 9f3e
000001b0: a1b2 b13e 102a 733e 39af 6a3e 4466 a43e
000001c0: e7bc 933e 1ae7 4a3e 2b78 e43e 97a0 cf3e
000001d0: ef73 1f3f 7034 b53e 8bf7 cf3e e23c 7a3e
000001e0: 3d61 4d3e 2dc3 783e ccbb 943e a63a 413e
000001f0: a419 063f a990 7f3e d909 6f3f 00e3 883e

network.4.weight f4 [64, 128]
-0.18335138 -0.12641935 0.097893536 -0.14123686 -0.058359034 0.12445316 -0.05963014 -0.1288244
-0.0065881237 0.08467977 -0.18383723 0.09803716 -0.052845884 -0.020795695 0.06455683 0.096486054
0.23021485 -0.008419656 -0.08729747 0.12540264 0.0059654503 -0.0010117559 -0.10448467 0.0016713421
0.015098714 0.054149814 -0.26731768 0.087122746 -0.09984759 -0.04082172 0.12874733 -0.17782216
0.26208505 -0.09475929 0.09915661 -0.004651734 -0.09898378 0.26060316 -0.08885289 -0.07129971
0.13586664 -0.25205785 0.17220747 0.0529093 -0.17293523 0.13533783 -0.09440974 -0.18987712
-0.09581258 0.14743493 0.009736349 -0.013318314 -0.037026685 0.17679276 -0.076029554 -0.041690633
0.17866962 0.006806168 -0.08258061 0.17738324 0.09782422 0.15903343 0.01718232 0.066089585
-0.026338408 0.081787184 0.012536383 -0.103714384 -0.07190968 -0.09793646 -0.12920548 -0.007355414
-0.025543151 -0.1667088 -0.11560463 0.15044032 0.19836266 -0.06585381 0.00930977 -0.0054448848
-0.07208877 -0.24487469 0.13281132 0.20739526 -0.010075246 -0.03390574 -0.1417473 0.1587146
-0.06389113 -0.17790036 -0.105720215 0.011352972 0.072302245 -0.10150885 0.014011707 -0.039096233
-0.03233786 0.0017682121 0.027316002 0.09695255 0.016681047 0.12716778 -0.07081617 0.0106276795
-0.16615148 0.020560006 0.05906535 0.032788128 -0.07329755 0.12800129 -0.18934926 0.115606636
-0.0026892833 0.16560218 -0.039083228 -0.041745175 0.12998334 -0.054419372 -0.21236573 0.21027255
-0.024119575 0.10300196 -0.055080097 -0.14887072 -0.09614873 -0.026878947 0.060330395 0.0842153
0.10242425 0.11212819 -0.13396756 0.12956528 0.116957836 0.15675046 0.0482999 -0.19101398
-0.14625789 0.11379185 0.019424498 0.15418887 -0.06424545 -0.029580602 -0.056034528 0.20040672
0.03545481 0.06395126 0.055448562 -0.16598365 -0.097689174 0.10825014 0.14986771 -0.14159629
0.08772297 0.017544387 0.018269595 -0.19555634 0.081168756 0.0061867665 -0.015695414 -0.014476934
-0.0008597884 -0.14022774 -0.12683202 0.08973274 -0.068799 0.048308026 -0.057748605 -0.19938603
0.013968156 -0.046201576 -0.31383345 -0.32587782 -0.16405188 -0.1148622 -0.10253904 0.0608778
-0.1377867 -0.17470777 -0.05854071 0.1796413 0.092405796 -0.036901135 -0.010837951 0.023963528
0.09197869 -0.03179382 -0.13040136 -0.019031074 -0.05128941 0.0926124 -0.16523899 -0.041673984
0.089631565 0.08341126 0.061214793 -0.085137285 0.0111494465 -0.083949395 0.09846195 0.07449433
-0.1895209 0.10317424 0.10981238 0.055100195 -0.20998222 0.07664524 0.11551456 -0.07872002
0.039348666 0.03631459 0.024469633 -0.08263533 0.06111765 -0.32575524 -0.13442689 0.0008782685
0.10602061 0.11001953 0.07710854 -0.03431943 -0.17081816 -0.088354126 -0.12745738 -0.030852769
-0.1555812 -0.17914909 -0.13983642 0.012164813 -0.27504992 -0.033853263 -0.017519234 -0.054950587
-0.124236025 -0.20709619 -0.25605354 0.09746753 0.0074772956 -0.22595744 -0.11317494 -0.036493205
-0.11350422 0.112839736 0.056687295 0.10094358 0.01591275 0.08564372 0.00126353 -0.002739031
0.051351696 -0.14015563 -0.033377267 0.06753465 0.04854425 -0.080959365 0.105647 -0.12461793
00000000: 77c0 3bbe 1374 01be 687c c83d 65a0 10be
00000010: e209 6fbd 4ce1 fe3d bc3e 74bd 8bea 03be
00000020: 30e1 d7bb 966c ad3d d43f 3cbe b5c7 c83d
00000030: ed74 58bd bc5b aabc 5f36 843d 7b9a c53d
00000040: 71bd 6b3e 99f2 09bc 04c9 b2bd 8d69 003e
00000050: d379 c33b e59c 84ba 0ffc d5bd ef10 db3a
00000060: 9960 773c 32cc 5d3d dddd 88be 696d b23d
00000070: e57c ccbd ad34 27bd 57d6 033e 0317 36be
00000080: 0330 863e 2911 c2bd 9f12 cb3d 936d 98bb
00000090: 02b8 cabd c76d 853e 81f8 b5bd 9505 92bd
000000a0: a020 0b3e ba0d 81be 2857 303e 6cb7 583d
000000b0: ef15 31be 0096 0a3e e559 c1bd 266f 42be
000000c0: 6339 c4bd 2ff9 163e 3585 1f3c 0f35 5abc
000000d0: 4ba9 17bd 2909 353e 62b5 9bbd ccc3 2abd
000000e0: 2bf5 363e 4606 df3b 0620 a9bd f4a3 353e
000000f0: 1158 c83d a9d9 223e f0c1 8c3c fa59 873d
00000100: a5c3 d7bc 0a80 a73d 6765 4d3c 3568 d4bd
00000110: 6245 93bd e992 c8bd 714e 04be af05 f1bb
00000120: df3f d1bc b6b5 2abe 1fc2 ecbd 070d 1a3e
00000130: 951f 4b3e 5dde 86bd 0188 183c 016b b2bb
00000140: 47a3 93bd 6ec0 7abe b1ff 073e 6c5f 543e
00000150: a512 25bc bfe0 0abd 3426 11be 1586 223e
00000160: 5ad9 82bd 832b 36be d783 d8bd d101 3a3c
00000170: 3313 943d dfe3 cfbd 5c91 653c 5f23 20bd
00000180: b474 04bd 5ac3 e73a cfc5 df3c 0f8f c63d
00000190: b1a6 883c 4538 023e 1108 91bd b81f 2e3c
000001a0: 9d23 2abe 756d a83c 82ee 713d d84c 063d
000001b0: 071d 96bd c512 033e c6e4 41be 2cc3 ec3d
000001c0: b03e 30bb 9e93 293e bc15 20bd fdfc 2abd
000001d0: 5a1a 053e d9e6 5ebd 6776 59be b051 573e
000001e0: 6a96 c5bc b1f2 d23d ab9b 61bd 9171 18be
000001f0: a0e9 c4bd 3d31 dcbc 011d 773d 1279 ac3d
00000200: cec3 d13d 77a3 e53d cb2e 09be c3ac 043e
00000210: 9787 ef3d 3183 203e 1ed6 453d 2b99 43be
00000220: a1c4 15be b40b e93d 2020 9f3c b0e3 1d3e
00000230: 1e93 83bd 0553 f2bc 7684 65bd 6b37 4d3e
00000240: 1039 113d e1f8 823d 081e 633d 9ef7 29be
00000250: 4311 c8bd 40b2 dd3d ec76 193e 9efe 10be
00000260: 1aa8 b33d 3fb9 8f3c 1eaa 953c ec3f 48be
00000270: ce3b a63d 5cba ca3b ab93 80bc aa30 6dbc
00000280: 6c63 61ba dc97 0fbe 41e0 01be ccc5 b73d
00000290: 7de6 8cbd a3de 453d cd89 6cbd da2b 4cbe
000002a0: b1da 643c dd3d 3dbd c7ae a0be 75d9 a6be
000002b0: 37fd 27be e03c ebbd fdff d1bd 005b 793d
000002c0: f517 0dbe 98e6 32be 62c8 6fbd e4f3 373e
000002d0: 403f bd3d a525 17bd a991 31bc 294f c43c
000002e0: 535f bc3d 3d3a 02bd ef87 05be 0ee7 9bbc
000002f0: d814 52bd 92ab bd3d 6934 29be 57b2 2abd
00000300: c190 b73d 86d3 aa3d 5dbc 7a3d 755c aebd
00000310: 2bac 363c a9ed abbd 6ba6 c93d 7c90 983d
00000320: c411 42be 044d d33d 50e5 e03d beb0 613d
00000330: 9405 57be 2ef8 9c3d e692 ec3d f637 a1bd
00000340: 112c 213d 9cbe 143d 8a74 c83c b63c a9bd
00000350: 8056 7a3d 64c9 a6be 34a7 09be 9a3b 663a
00000360: 5521 d93d eb51 e13d 15eb 9d3d 8892 0cbd
00000370: f5ea 2ebe 02f3 b4bd 3084 02be f2be fcbc
00000380: ae50 1fbe dc72 37be 4731 0fbe ec4e 473c
00000390: 58d3 8cbe b8a9 0abd 7f84 8fbc de13 61bd
000003a0: 756f febd 0611 54be 7319 83be 0e9d c73d
000003b0: 1a04 f53b 6361 67be 43c8 e7bd e679 15bd
000003c0: e774 e8bd 8518 e73d f030 683d 82bb ce3d
000003d0: 755b 823c fa65 af3d 089d a53a 5181 33bb
000003e0: 2856 523d f584 0fbe 9ab6 08bd 9b4f 8a3d
000003f0: 56d6 463d 06ce a5bd 745d d83d af37 ffbd

network.4.bias f4 [64]
-2.6413703e-05 2.1764617e-05 -4.9509552e-05 2.406433e-05 -2.2879274e-05 8.100774e-06 4.525971e-05 1.849398e-05
-1.9410295e-06 5.302073e-06 5.263364e-05 -9.674394e-06 1.1101996e-05 1.2158242e-05 4.92275e-05 -2.3573773e-05
8.336226e-06 -1.9210262e-05 3.4177134e-05 -6.014187e-05 -3.4815028e-05 -2.1773716e-05 1.4137396e-05 -7.52604e-05
-1.648641e-05 4.6221314e-05 2.2280565e-06 1.8665076e-05 -2.2051994e-05 -2.6759375e-05 -1.1884518e-06 6.9416805e-05
1.482783e-05 -6.482293e-06 1.5766422e-05 -3.0801053e-05 -2.1311987e-05 -1.8276697e-06 5.903385e-05 8.31874e-06
2.4816143e-06 -4.4313274e-05 3.3051579e-06 -2.5822403e-05 -6.8375724e-05 2.8726305e-05 3.0789826e-05 1.14215445e-05
2.2124714e-05 2.4751822e-05 6.7294706e-05 7.605079e-05 1.6465455e-08 1.1290197e-05 2.0996587e-05 -5.0769177e-06
-1.1716915e-06 1.7033843e-06 -6.8541394e-06 -4.856861e-05 -5.0968527e-05 8.214102e-05 4.861806e-05 1.0610088e-05
00000000: ff92 ddb7 2993 b637 7aa8 4fb8 c1dd c937
00000010: deec bfb7 8fe8 0737 3ed5 3d38 8523 9b37
00000020: a242 02b6 76e8 b136 f1c2 5c38 354f 22b7
00000030: b642 3a37 40fb 4b37 a079 4e38 4bc0 c5b7
00000040: d1db 0b37 b925 a1b7 6b59 0f38 d740 7cb8
00000050: 5a06 12b8 b3a6 b6b7 a72f 6d37 1fd5 9db8
00000060: 4c4c 8ab7 c2dd 4138 b885 1536 f292 9c37
00000070: 4cfc b8b7 5279 e0b7 e582 9fb5 dd93 9138
00000080: 0bc5 7837 7982 d9b6 2242 8437 6130 01b8
00000090: 25c7 b2b7 414e f5b5 1d9b 7738 b790 0b37
000000a0: cf89 2636 04dd 39b8 2ece 5d36 309d d8b7
000000b0: f064 8fb8 45f9 f037 5324 0138 299f 3f37
000000c0: 7698 b937 22a2 cf37 9220 8d38 757d 9f38
000000d0: eb6f 8d32 076b 3d37 d421 b037 645a aab6
000000e0: 0343 9db5 d79f e435 9cfc e5b6 26b6 4bb8
000000f0: 0ac7 55b8 2043 ac38 3feb 4b38 fb01 3237

network.5.weight f4 [64]
0.9344177 0.89680254 1.137388 1.056497 1.0651773 0.94635236 0.92692524 1.0795618
1.1468918 1.1829969 0.95811343 0.92486995 0.960389 0.89471465 0.9581379 1.0040083
0.95395195 0.92885023 0.98270315 1.1139642 1.1129725 1.0039681 0.93763536 0.9444008
1.0389005 1.0871209 0.9633789 0.9862077 1.0348148 0.9109625 0.94487965 1.1886588
0.9478916 0.93560386 0.924162 1.0273759 0.9037534 0.9003699 1.0484307 0.987663
0.8860607 1.0355676 0.9090288 1.0250171 0.9909006 0.93511033 1.1919826 1.1081542
1.1180208 0.9781 0.9489837 0.9360837 1.0206835 1.0818576 0.8786419 0.9701888
1.0151209 1.0505272 0.84939224 0.9705234 0.923533 0.95757604 0.93829703 0.89840573
00000000: 0036 6f3f da94 653f ee95 913f 4b3b 873f
00000010: bb57 883f 2644 723f f94a 6d3f 152f 8a3f
00000020: 5acd 923f 716c 973f ec46 753f 47c4 6c3f
00000030: 0edc 753f 050c 653f 8748 753f 5883 803f
00000040: 3236 743f 21c9 6d3f 6f92 7b3f 6196 8e3f
00000050: e275 8e3f 0782 803f df08 703f 40c4 713f
00000060: b1fa 843f c726 8b3f 00a0 763f 1c78 7c3f
00000070: d074 843f d734 693f a2e3 713f f925 983f
00000080: 06a9 723f bc83 6f3f e195 6c3f 0e81 833f
00000090: 625c 673f a47e 663f fa32 863f 7bd7 7c3f
000000a0: e0d4 623f 7b8d 843f 1db6 683f c333 833f
000000b0: a9ab 7d3f 6463 6f3f e392 983f ffd7 8d3f
000000c0: 4e1b 8f3f c364 7a3f 99f0 723f 2ea3 6f3f
000000d0: c2a5 823f 4f7a 8a3f adee 603f 4b5e 783f
000000e0: 7bef 813f ad77 863f c571 593f 3974 783f
000000f0: a96c 6c3f b423 753f 3c34 703f ebfd 653f

network.5.bias f4 [64]
-0.3574949 -0.3569465 -0.10658786 0.034021545 0.010177614 -0.3702482 -0.30857503 0.025672235
0.036263824 0.002817811 -0.3791756 -0.24869822 -0.31455624 -0.070237726 -0.24459389 -0.05589937
-0.25395137 -0.2211494 -0.02434649 0.0758699 0.025921606 -0.25604874 -0.11504093 -0.35237867
-0.022708347 -0.044694364 -0.46471083 -0.061977535 -0.2553251 -0.11195782 -0.31410417 -0.06461606
-0.120560825 0.020660153 -0.33252844 0.03610361 -0.09489941 -0.10861916 0.013165463 -0.24018098
-0.09410788 0.020431327 -0.07320556 0.0036333778 -0.2832358 -0.26333788 -0.010364301 -0.0129780965
0.0013018225 -0.0070213433 -0.3049744 -0.22169915 0.060634922 0.029588569 -0.0651985 -0.38723502
0.042980693 -0.11043442 -0.13967192 -0.10247563 -0.05256133 -0.322636 -0.39210927 -0.16977325
00000000: 9209 b7be b1c1 b6be bc4a dabd 2d5a 0b3d
00000010: 02c0 263c 2c91 bdbe 8cfd 9dbe 944e d23c
00000020: 6089 143d 06ab 383b 4e23 c2be bfaa 7ebe
00000030: 840d a1be ccd8 8fbd d276 7abe bdf6 64bd
00000040: ea05 82be fd74 62be 4a72 c7bc ae61 9b3d
00000050: 8c59 d43c d218 83be 949a ebbd fa6a b4be
00000060: db06 babc 7011 37bd 94ee edbe 28dc 7dbd
00000070: f9b9 82be 244a e5bd 43d2 a0be 6d55 84bd
00000080: 98e8 f6bd 7b3f a93c 2b41 aabe 61e1 133d
00000090: 9f5a c2bd b973 debd f4b3 573c 01f2 75be
000000a0: a2bb c0bd 995f a73c ccec 95bd f71d 6e3b
000000b0: 4804 91be 39d4 86be 07cf 29bc 15a2 54bc
000000c0: eaa1 aa3a 4c13 e6bb 9b25 9cbe 1a05 63be
000000d0: 535c 783d ba63 f23c cb86 85bd ab43 c6be
000000e0: 860c 303d 712b e2bd 2806 0fbe bede d1bd
000000f0: 8d4a 57bd 8c30 a5be 8cc2 c8be 0ad9 2dbe

network.5.running_mean f4 [64]
-0.29995158 -1.2477196 -1.4180219 -1.214773 -0.9707207 -0.076536745 -1.2437992 0.024550341
-1.1857489 -1.7438705 -1.6865065 0.8137845 -1.3230456 -0.17129229 -0.9510178 1.127605
-0.9009246 -1.1763073 -1.1158094 -1.3204141 0.50774896 -0.8096395 0.15763527 -1.2501616
0.8858146 -1.4202878 -1.1724013 0.043084107 1.0051782 0.8419359 0.77656883 -1.4031332
1.206631 -0.29913825 -0.8677955 -0.6412158 -0.3159613 -0.11208014 -0.9844849 -0.0804989
-0.7399886 -0.12357925 -0.53730386 -0.8336165 -0.53339684 0.6088343 -1.0406549 -1.3821021
-0.6943152 0.76930803 -1.196337 -1.5421989 -0.88641983 1.268822 0.13714509 -1.3163927
0.71607065 0.78474593 -0.28577766 1.2774858 -0.08954477 -1.3894829 -0.8786708 0.11982665
00000000: 4193 99be 47b5 9fbf be81 b5bf af7d 9bbf
00000010: 2781 78bf 4cbf 9cbd d034 9fbf cc1d c93c
00000020: 9fc6 97bf 2637 dfbf 72df d7bf 2e54 503f
00000030: 8f59 a9bf 3f67 2fbe e775 73bf 5c55 903f
00000040: ffa2 66bf 3d91 96bf d8d2 8ebf 5403 a9bf
00000050: d6fb 013f 8944 4fbf 246b 213e 4c05 a0bf
00000060: bfc4 623f fecb b5bf 3f11 96bf f678 303d
00000070: aea9 803f 1c89 573f 37cd 463f de99 b3bf
00000080: e272 9a3f a628 99be d927 5ebf b826 24bf
00000090: aec5 a1be 468a e5bd 3407 7cbf 9bdc a4bd
000000a0: e56f 3dbf 1e17 fdbd bf8c 09bf e467 55bf
000000b0: b28c 08bf 91dc 1b3f 2e34 85bf b9e8 b0bf
000000c0: a4be 31bf 5ff1 443f 9221 99bf c666 c5bf
000000d0: 69ec 62bf c268 a23f c36f 0c3e 8e7f a8bf
000000e0: 6850 373f 1ce5 483f 7351 92be a884 a33f
000000f0: 4063 b7bd 93da b1bf 92f0 60bf ad67 f53d

network.5.running_var f4 [64]
1.0836016 1.1093284 1.4489893 1.5053344 1.7096953 1.0414234 1.4313449 1.5309272
1.3784766 2.275093 1.0857421 1.499663 1.209375 0.70676625 1.819211 1.4014053
1.1736845 1.1086653 1.3183892 2.0418983 1.1553735 1.3199153 0.67842656 1.4225737
0.95544493 1.9242676 1.0149032 0.893838 1.0440106 0.7723808 1.1210142 1.5601888
1.4844944 1.1980566 1.3794188 1.6874248 1.2394425 0.8267343 1.3275357 1.21621
0.9242212 1.4866683 1.0568342 1.3239198 1.3190565 1.0441211 1.3867127 1.5669761
2.3403294 1.3680079 1.2498219 1.3468575 1.7682366 1.1658123 1.12643 1.0893563
1.755465 1.0211638 0.9269269 1.5416803 1.10468 1.3366104 1.1178284 0.9119328
00000000: 75b3 8a3f 79fe 8d3f 7b78 b93f ccae c03f
00000010: 4cd7 da3f 5d4d 853f 4f36 b73f 6cf5 c33f
00000020: ec71 b03f 209b 1140 99f9 8a3f f5f4 bf3f
00000030: cdcc 9a3f a2ee 343f e8db e83f 4061 b33f
00000040: 4b3b 963f bfe8 8d3f fac0 a83f 76ae 0240
00000050: 47e3 933f fcf2 a83f 5dad 2d3f e516 b63f
00000060: 0a98 743f 674e f63f 59e8 813f 91d2 643f
00000070: 24a2 853f c0ba 453f 657d 8f3f 44b4 c73f
00000080: ea03 be3f eb59 993f cc90 b03f 89fd d73f
00000090: 0da6 9e3f dca4 533f b1ec a93f c5ac 9b3f
000000a0: c399 6c3f 264b be3f 5846 873f 3476 a93f
000000b0: d8d6 a83f c3a5 853f cd7f b13f ac92 c83f
000000c0: f5c7 1540 e21a af3f 2afa 9f3f d465 ac3f
000000d0: 9455 e23f 5639 953f dc2e 903f 0770 8b3f
000000e0: 14b3 e03f 7fb5 823f 154b 6d3f c855 c53f
000000f0: 2766 8d3f 0d16 ab3f 0015 8f3f 6e74 693f

network.8.weight f4 [32, 64]
-0.064073846 -0.11756063 -0.24120119 -0.16139103 0.2448669 0.10972751 0.08307036 -0.008885792
0.051735476 -0.030175269 -0.20118275 0.14478394 0.10427516 0.2129542 -0.19562475 0.10667309
0.1356206 -0.06618355 0.11577434 0.15266183 -0.07244889 0.18325399 0.07483016 -0.00818886
0.1429438 0.181667 0.018918484 0.16049601 -0.20840818 -0.02414714 -0.07195283 0.18770555
0.21813995 -0.10564656 -0.050774634 -0.050679334 -0.028608188 0.15665135 0.08483975 0.16419373
-0.10315556 -0.029773274 -0.1982765 0.25174162 -0.0960837 -0.06893379 -0.077906474 0.08791564
0.17958495 -0.24967481 0.21269311 0.07147688 0.12745711 -0.17242122 0.102167346 0.23428664
0.19243802 -0.13212322 0.030571798 -0.15628502 0.10187913 0.10953207 0.16453865 -0.2537074
0.10059087 0.06435316 -0.25896034 -0.16048686 0.09320964 -0.19875719 0.1758069 0.09366736
-0.25916582 -0.42142367 -0.07978678 -0.07073542 -0.11639919 0.13708991 0.2699373 -0.025392514
0.15383367 0.2165564 0.0049437424 -0.31927723 0.026915621 0.21197598 -0.13141656 0.03766056
-0.06781189 -0.20652987 0.06972325 -0.1895546 -0.09086231 0.13122377 -0.14677045 -0.2750923
0.105371684 -0.011556548 -0.08442549 -0.18256684 -0.063833356 -0.06438889 -0.3120535 0.13931216
0.17244154 -0.13686654 0.16582847 -0.0066008004 0.14502883 -0.19006836 -0.07155304 -0.07806433
0.11344696 -0.083797686 0.19004431 0.1421347 -0.30527702 0.12277346 -0.105443425 0.20757781
-0.12663224 -0.13954721 0.11293011 -0.10495705 -0.16417372 0.21645592 0.29289797 0.045370974
0.30341604 0.1250399 -0.061642624 -0.12982875 -0.11229185 0.027794119 0.0034868938 0.02390268
0.009733852 -0.19047248 -0.081662245 0.18489583 0.006906961 0.10028789 0.27078775 -0.24454424
0.0778828 0.07910068 -0.2213161 -0.1396246 -0.12990981 -0.22944525 -0.1013598 0.28954947
0.19722857 -0.15229376 -0.06441237 -0.19080395 0.14168091 -0.22832002 -0.07826169 -0.13441522
-0.14369342 0.15428896 -0.16120492 -0.2654766 -0.22010723 -0.1209708 0.07567754 0.107512824
-0.047184985 0.112285726 0.12686509 0.0711996 0.11220145 -0.10962201 -0.27810508 0.024296647
0.16797227 0.16009256 -0.022344073 0.033528894 0.22855565 -0.24476944 0.18674792 0.27115738
0.115148224 0.045522172 0.003869906 0.05721581 -0.13198522 0.017004589 -0.11013481 0.003702974
-0.09159553 0.2611129 -0.04031843 -0.02101917 -0.24074854 -0.07653555 0.17067906 0.019932216
-0.25540173 -0.29117945 0.1696693 0.056428283 0.13086182 -0.08984528 0.18317424 -0.017905645
0.064509846 0.14332788 -0.19403955 -0.3557857 0.09224416 -0.05622022 -0.26964572 -0.19058068
0.12546475 -0.088325 0.1778854 0.10937393 -0.3290781 -0.24817395 0.035225883 -0.052209824
0.024488024 -0.013243522 0.26463953 -0.22133672 0.1645487 0.1990743 -0.3218555 -0.049656525
0.18893883 0.1736681 -0.069884054 0.038872067 -0.18940781 0.02264584 -0.07010553 -0.05102226
0.05933775 -0.052598614 0.11270401 0.21636347 -0.03639111 0.07068936 0.15281059 0.22742005
-0.033503406 -0.28334555 0.07431443 -0.004380942 0.092537045 -0.053630356 0.040771205 -0.26597053
00000000: 2639 83bd a1c3 f0bd 72fd 76be b143 25be
00000010: 63be 7a3e d1b8 e03d cb20 aa3d b795 11bc
00000020: 94e8 533d 2032 f7bc da02 4ebe 3e42 143e
00000030: 378e d53d aa10 5a3e db51 48be 6c77 da3d
00000040: 20e0 0a3e 3e8b 87bd 191b ed3d 6253 1c3e
00000050: 1560 94bd efa6 3b3e 8e40 993d 912a 06bc
00000060: dc5f 123e ea06 3a3e f0fa 9a3c 1159 243e
00000070: f468 55be 39d0 c5bc 015c 93bd e235 403e
00000080: 1460 5f3e 395d d8bd 10f9 4fbd 2295 4fbd
00000090: b85b eabc 3669 203e 76c0 ad3d 6722 283e
000000a0: 3943 d3bd 15e7 f3bc ff08 4bbe 47e4 803e
000000b0: 88c7 c4bd 292d 8dbd 6e8d 9fbd 1d0d b43d
000000c0: 1ee5 373e c1aa 7fbe 39cc 593e 7862 923d
000000d0: 1e84 023e 308f 30be 1d3d d13d d6e8 6f3e
000000e0: 790e 453e 4f4b 07be b571 fa3c 2e09 20be
000000f0: 01a6 d03d 5a52 e03d d27c 283e f0e5 81be
00000100: 9602 ce3d 97cb 833d 7396 84be ab56 24be
00000110: b2e4 be3d 0187 4bbe b906 343e acd4 bf3d
00000120: 62b1 84be d8c4 d7be 4067 a3bd bbdd 90bd
00000130: b362 eebd 4c61 0c3e 3935 8a3e f603 d0bc
00000140: 9386 1d3e f6c0 5d3e 1eff a13b 4e78 a3be
00000150: 267e dc3c 3b10 593e 1092 06be f641 1a3d
00000160: f6e0 8abd 917c 53be 10cb 8e3d 9a1a 42be
00000170: 0516 babd 865f 063e fe4a 16be e6d8 8cbe
00000180: 1ccd d73d ad57 3dbc 45e7 acbd cdf2 3abe
00000190: 10bb 82bd 53de 83bd 7ac5 9fbe d9a7 0e3e
000001a0: 8494 303e be26 0cbe f0ce 293e 874b d8bb
000001b0: 7082 143e 48a1 42be 668a 92bd 31e0 9fbd
000001c0: e156 e83d 1f9e abbd fa9a 423e c28b 113e
000001d0: 454d 9cbe a770 fb3d b9f2 d7bd 478f 543e
000001e0: e2ab 01be 77e5 0ebe e747 e73d b9f3 d6bd
000001f0: 281d 28be 9fa6 5d3e b9f6 953e ead6 393d
00000200: 5959 9b3e 760a 003e fa7c 7cbd d4f1 04be
00000210: 45f9 e5bd 7eb0 e33c 5f84 643b 8ecf c33c
00000220: bc7a 1f3c 380b 43be 893e a7bd 5555 3d3e
00000230: ca53 e23b bd63 cd3d b1a4 8a3e ce69 7abe
00000240: 0481 9f3d 8aff a13d b0a0 62be c0f9 0ebe
00000250: 1407 05be b2f3 6abe ba95 cfbd d43f 943e
00000260: 49f6 493e e5f2 1bbe a2ea 83bd 1c62 43be
00000270: cd14 113e b9cc 69be aa47 a0bd 25a4 09be
00000280: 5e24 13be edfd 1d3e e712 25be 8dec 87be
00000290: ca63 61be 8abf f7bd d3fc 9a3d af2f dc3d
000002a0: 0b45 41bd 0ff6 e53d ece8 013e 19d1 913d
000002b0: e0c9 e53d 8181 e0bd ca63 8ebe c309 c73c
000002c0: ec00 2c3e 4eef 233e eb0a b7bc 9855 093d
000002d0: 7e0a 6a3e d7a4 7abe d93a 3f3e 24d5 8a3e
000002e0: d5d2 eb3d 7575 3a3d 409e 7d3b 205b 6a3d
000002f0: 2227 07be 354d 8b3c 5c8e e1bd 98ad 723b
00000300: 7096 bbbd 97b0 853e f024 25bd 6530 acbc
00000310: c986 76be acbe 9cbd 7ec6 2e3e e348 a33c
00000320: 04c4 82be 7915 95be cabd 2d3e 5821 673d
00000330: a400 063e cd00 b8bd 0792 3b3e dcae 92bc
00000340: bd1d 843d 8bc4 123e 4eb2 46be 8b29 b6be
00000350: 82ea bc3d 2c47 66bd 010f 8abe 9527 43be
00000360: d579 003e bde3 b4bd 9727 363e 70ff df3d
00000370: ed7c a8be 5021 7ebe 0449 103d f8d9 55bd
00000380: 1c9b c83c 5bfb 58bc d57e 873e 18a6 62be
00000390: 747f 283e 22da 4b3e 3eca a4be a464 4bbd
000003a0: 2e79 413e 0dd6 313e 5f1f 8fbd 5138 1f3d
000003b0: 1ff4 41be c583 b93c 7d93 8fbd b8fc 50bd
000003c0: 240c 733d a571 57bd 5cd1 e63d 638e 5d3e
000003d0: d80e 15bd 95c5 903d 617a 1c3e cde0 683e
000003e0: de3a 09bd ab12 91be 2a32 983d 018e 8fbb
000003f0: 1084 bd3d 81ab 5bbd b5ff 263d 4a2d 88be

network.8.bias f4 [32]
3.0897775e-06 1.795601e-05 -1.056268e-05 -4.2584026e-05 -3.1911637e-05 -2.209773e-05 6.594034e-05 3.404272e-07
-3.0264304e-05 5.3623324e-07 6.8285946e-05 3.859942e-06 2.2592728e-06 2.5875197e-05 -0.0001836248 6.360162e-05
-2.4402072e-05 8.520303e-06 -6.849669e-08 1.0606747e-05 -1.19259485e-05 1.3925065e-06 1.5587371e-05 3.3079135e-07
-2.1260852e-05 -1.4645433e-05 4.743277e-05 -7.125611e-05 1.3107572e-06 2.125851e-05 1.4843187e-05 -5.059778e-06
00000000: f959 4f36 3da0 9637 5d36 31b7 409c 32b8
00000010: dcd8 05b8 845e b9b7 7349 8a38 f5c3 b634
00000020: 19e0 fdb7 abf1 0f35 bd34 8f38 a684 8136
00000030: 039e 1736 900e d937 688b 40b9 dc61 8538
00000040: 0db3 ccb7 6cf2 0e37 7418 93b3 a2f3 3137
00000050: 8f15 48b7 29e6 ba35 a0c1 8237 9e97 b134
00000060: 5559 b2b7 a8b5 75b7 8df2 4638 556f 95b8
00000070: 46ed af35 4d54 b237 0107 7937 29c7 a9b6

network.9.weight f4 [32]
0.7757886 1.098867 0.8750364 0.92450947 1.1942008 0.7276392 1.2996877 0.8036024
1.0088619 0.85410494 1.2919039 1.0200245 0.77330804 1.0575078 1.0551996 1.2486122
0.9943958 0.8352991 0.7672472 0.95734143 1.0000178 0.8227174 1.1166261 0.7750056
1.1316186 0.96340096 1.0477226 1.1165322 0.8753023 1.0901442 1.0198848 0.72989035
00000000: 159a 463f ada7 8c3f 6302 603f a7ac 6c3f
00000010: 92db 983f 9046 3a3f 2b5c a63f e3b8 4d3f
00000020: 6322 813f 9fa6 5a3f 1b5d a53f 2a90 823f
00000030: 84f7 453f 6a5c 873f c810 873f 86d2 9f3f
00000040: b990 7e3f 29d6 553f 506a 443f 5414 753f
00000050: 9500 803f 9c9d 523f 9bed 8e3f c466 463f
00000060: e1d8 903f 72a1 763f c61b 863f 87ea 8e3f
00000070: d013 603f d889 8b3f 968b 823f 18da 3a3f

network.9.bias f4 [32]
-0.21920931 0.053356167 -0.10783183 0.01688764 -0.069242656 -0.27520025 0.047034547 -0.19794647
0.12493438 -0.12658687 0.12256002 -0.07803208 -0.2194489 -0.07420779 -0.1189372 0.12462883
-0.0942717 -0.14614588 -0.19300088 -0.046936244 -0.07111829 -0.17419623 0.04728793 -0.21567075
0.1439412 0.025912143 -0.09076745 -0.05624837 -0.122149214 -0.029517094 -0.11571989 -0.26200488
00000000: 6878 60be ff8b 5a3d efd6 dcbd f357 8a3c
00000010: 18cf 8dbd 0ce7 8cbe 4ca7 403d 7bb2 4abe
00000020: 99dd ff3d fd9f 01be bf00 fb3d 48cf 9fbd
00000030: 36b7 60be 41fa 97bd 5995 f3bd 663d ff3d
00000040: 8511 c1bd 44a7 15be 06a2 45be 3840 40bd
00000050: 77a6 91bd 7f60 32be fdb0 413d cbd8 5cbe
00000060: 5265 133e b445 d43c 49e4 b9bd b164 66bd
00000070: 5e29 fabd d5cd f1bc 8dfe ecbd 8125 86be

network.9.running_mean f4 [32]
0.58915895 -0.94451725 -0.36728993 -0.65742475 -1.2105712 0.52388686 -0.90997064 0.051486317
0.846903 -0.33013558 -1.2646292 -0.94150037 0.31029713 -1.1352563 -1.3779635 -1.0538267
-1.3890638 -0.26424316 -0.08302029 -0.9364967 -0.40781423 -0.35992336 -0.95257634 0.17894678
0.32364044 -0.8005488 -1.046234 -0.821829 0.67718977 -0.8557993 -1.0880185 0.024163015
00000000: 1fd3 163f e2cb 71bf 6d0d bcbe fd4c 28bf
00000010: fff3 9abf 731d 063f d6f3 68bf 51e3 523d
00000020: a3ce 583f 8807 a9be 5fdf a1bf 2b06 71bf
00000030: 44df 9e3e 1450 91bf 1c61 b0bf cbe3 86bf
00000040: d8cc b1bf e14a 87be 8b06 aabd 3fbe 6fbf
00000050: 07cd d0be e047 b8be 0bdc 73bf d33d 373e
00000060: 33b4 a53e c4f0 4cbf ffea 85bf 6363 52bf
00000070: 4f5c 2d3f aa15 5bbf 3144 8bbf 84f1 c53c

network.9.running_var f4 [32]
0.49311066 2.350694 0.71540046 1.8575494 1.6807917 0.5765309 1.4578596 1.029662
1.2167721 1.099258 1.2440147 1.4771531 0.7732431 1.6379887 2.0419912 1.763624
1.7615645 0.58170193 0.66792804 0.8737723 1.5224779 0.5472054 1.411586 1.021378
1.0140262 1.6915554 1.9107747 1.7129519 0.49066374 1.3399748 2.2408478 0.8558136
00000000: 0079 fc3e c571 1640 7c24 373f 2ec4 ed3f
00000010: 2f24 d73f 8797 133f 259b ba3f f7cb 833f
00000020: 30bf 9b3f 7cb4 8c3f e03b 9f3f 5a13 bd3f
00000030: 43f3 453f 9da9 d13f fcaf 0240 6ebe e13f
00000040: f27a e13f 6bea 143f 55fd 2a3f 8baf 5f3f
00000050: 8ee0 c23f a715 0c3f daae b43f 84bc 823f
00000060: 9ccb 813f e384 d83f 4494 f43f 0242 db3f
00000070: 4738 fb3e 4b84 ab3f 0d6a 0f40 9a16 5b3f

network.12.weight f4 [1, 32]
-0.015562975 0.2488543 0.07567898 0.33422697 0.27966 -0.0636149 0.22170618 -0.014318893
0.16766772 -0.0062928167 0.21329287 0.33097464 -0.024613746 0.35366964 0.32280606 0.2248945
0.35031965 0.0706912 -0.004281401 0.08947756 0.36116448 -0.018103655 0.26326206 0.01117413
0.14208925 0.32786778 0.35402775 0.30385366 0.025378425 0.29360467 0.38600174 -0.08805235
00000000: d9fb 7ebc a9d3 7e3e 95fd 9a3d cc1f ab3e
00000010: 982f 8f3e 8748 82bd f206 633e ca99 6abc
00000020: 16b1 2b3e f933 cebb 7269 5a3e 8275 a93e
00000030: c4a2 c9bc 3014 b53e d646 a53e be4a 663e
00000040: 195d b33e 8cc6 903d ff4a 8cbb 0340 b73d
00000050: 8dea b83e 1e4e 94bc 49ca 863e b313 373c
00000060: d87f 113e 49de a73e 2043 b53e b592 9b3e
00000070: 6ae6 cf3c 5a53 963e 05a2 c53e ca54 b4bd
