NoteBooks/MLP/dengue_mlp_model.pth (torch, 69411 bytes, 19 tensors)

network.0.weight f4 [128, 26]
0	0xbd2dfe5d	-0.042478908
1	0xbe6eba86	-0.2331334
2	0xbe872c65	-0.26401058
3	0x3c8724a7	0.01649697
4	0xbce1eaac	-0.02757772
5	0x3d6b7ee3	0.057494055
6	0xbdcac41f	-0.099006884
7	0xbcc58fca	-0.024116416
8	0xbe7023d7	-0.23451172
9	0xbdfb1114	-0.12259117
10	0x3e0e6d28	0.13908827
11	0x3d7d68b6	0.06186744
12	0xbe128448	-0.14308274
13	0x00247a78	3.350011e-39
14	0x3e3b305a	0.18280163
15	0xbe8828b6	-0.2659356
16	0x3ce765ba	0.02824675
17	0x3d198b57	0.0374864
18	0xbe48acf7	-0.19597231
19	0x3df8616e	0.12127958
20	0x3d36b7a4	0.044608727
21	0x3d9c543e	0.076332554
22	0xbc567480	-0.013089299
23	0x3df2e6c7	0.118604235
24	0x3c19ac1f	0.009379416
25	0xbd6025f2	-0.054723687
26	0x3de37085	0.11105446
27	0xbeb23138	-0.34803176
28	0x3cfa72ad	0.03057226
29	0x3ba15c67	0.0049243453
30	0xbe1b9687	-0.1519414
31	0x3dfb677d	0.12275598
32	0xbbfff6c2	-0.0078113982
33	0xbdba6316	-0.091009304
34	0xbdd676fe	-0.10471915
35	0x3da91752	0.08256401
36	0xbcbe39f5	-0.023220995
37	0x3df2a710	0.11848271
38	0x3e2086b7	0.1567639
39	0x80b0a7e8	-1.6223281e-38
40	0xbd9bb332	-0.07602538
41	0x3e858e9e	0.2608537
42	0x3c089d3e	0.008338271
43	0xbdc43e73	-0.09582224
44	0xbe42948f	-0.19001983
45	0x3e1122d0	0.14173436
46	0x3d5180f3	0.051148366
47	0xbe0e1bcd	-0.13877793
48	0x3e08a98a	0.13345924
49	0x398d42a8	0.00026943278
50	0x3c959393	0.018258845
51	0xbc9a6ba7	-0.01885016
52	0x3ddd526b	0.108067356
53	0xbe2550ac	-0.16144055
54	0x3d42b331	0.04753417
55	0x3e1187da	0.1421198
56	0x3e4073c6	0.18794164
57	0x3e4cc064	0.19995266
58	0x3e1edd14	0.15514022
59	0x3b13ff29	0.0022582507
60	0xbe6ca82b	-0.23111026
61	0xbe142454	-0.14466983
62	0x3de42d30	0.11141431
63	0x3e85da2b	0.2614301
64	0xbc02bce4	-0.007979605
65	0x00ccf0e4	1.8820856e-38
66	0x3dd80ebf	0.105496876
67	0x3e368ca8	0.17827094
68	0x3dac2594	0.08405605
69	0xbcd24459	-0.025667356
70	0x3e400b37	0.18754278
71	0xbd436e8b	-0.047712844
72	0xbcb7e34a	-0.022447247
73	0xbda456b4	-0.0802435
74	0x3b0800a5	0.0020752337
75	0x3e31bf30	0.17358088
76	0xbd825242	-0.06363346
77	0xbd2cb479	-0.0421643
78	0x3de6cd7b	0.11269661
79	0x3d9575d1	0.07297862
80	0x3e340b77	0.17582498
81	0xba43e175	-0.00074722554
82	0x3e302b02	0.17203906
83	0x3da2cbb6	0.07949011
84	0xbdb49f33	-0.08819427
85	0xbc27c8e6	-0.010240769
86	0xbe176426	-0.14784297
87	0xbc7ba9d7	-0.015360317
88	0x3e898f6d	0.26867238
89	0x3d370a17	0.044687357
90	0x3e6f734e	0.23383829
91	0x819fe9a0	-5.874261e-38
92	0xbe055557	-0.13020836
93	0x3e6a4109	0.22876371
94	0xbce0604c	-0.027389668
95	0xbe16756a	-0.14693227
96	0xbd11bea3	-0.035582196
97	0x3e504009	0.20336927
98	0xbd80de60	-0.06292415
99	0xbdb16611	-0.08662046
100	0x3e3e25e1	0.18569137
101	0x3c951832	0.018200014
102	0x3e26d8ce	0.16293642
103	0xbd8d7a27	-0.06908064
104	0x3dcb0925	0.099138536
105	0x3d000af2	0.03126044
106	0x3e3aed4f	0.18254589
107	0x3d70e52d	0.05881231
108	0x3e01df73	0.12682895
109	0x3cd8b37f	0.026452778
110	0x3e6d13bd	0.23152061
111	0x3d0324e7	0.032017615
112	0xbe8b01b1	-0.27149728
113	0xbdfc16b4	-0.12309018
114	0x3e3396f2	0.1753805
115	0x3e871261	0.2638121
116	0xbe02e6b1	-0.12783314
117	0x007a3142	1.1221601e-38
118	0x3db5b77f	0.0887289
119	0xbd120159	-0.035645816
120	0x39159e52	0.00014268726
121	0x3e4501a0	0.19238901
122	0xbd844824	-0.06459072
123	0x3e78613f	0.24255846
124	0x3e592f43	0.21209435
125	0xbcb9028b	-0.02258422
126	0x3dde5efb	0.1085796
127	0x3d76f2c2	0.060290106
128	0xbe05e989	-0.13077368
129	0x3da50d2f	0.08059155
130	0xbd91a997	-0.07112425
131	0xbd91fbc0	-0.071280956
132	0x3e411c86	0.18858537
133	0x3ddda5e5	0.108226575
134	0xbdf7d493	-0.12101092
135	0x3d8236d9	0.063581176
136	0xbd9e6308	-0.077337325
137	0xbe0c9152	-0.1372731
138	0xbcc0d54d	-0.02353921
139	0xbdb71835	-0.08940164
140	0xbe062ff8	-0.13104236
141	0x3caaed11	0.020864995
142	0xbdfee1e6	-0.124454305
143	0x0106d87d	2.4767236e-38
144	0x3e515947	0.20444213
145	0x3e534929	0.20633377
146	0x3c9a0079	0.018799054
147	0x3e168a84	0.14701277
148	0xbdd21131	-0.10257185
149	0x3c8ccdcb	0.017187973
150	0xbe72eac1	-0.23722364
151	0xbe24ddf6	-0.16100296
152	0xbc6ec5fa	-0.0145735685
153	0x3dcf7c1c	0.10131094
154	0x3e227336	0.15864262
155	0xbd3c6e8f	-0.046003874
156	0xbd0b24ad	-0.033970524
157	0x3c040087	0.008056766
158	0xbd37c3b9	-0.04486439
159	0xbc346145	-0.011009519
160	0x3d420d1d	0.047375787
161	0xbe4e6b90	-0.2015822
162	0x3cb68f3c	0.022285096
163	0xbaf75a23	-0.0018871467
164	0xbe28665c	-0.16445297
165	0xbca5d33d	-0.020242328
166	0xbd42e0fb	-0.04757784
167	0x3d83e7a5	0.06440667
168	0xbd3f2b8a	-0.04667238
169	0x80d304da	-1.937903e-38
170	0x3dd9b843	0.10630848
171	0x3dc4576d	0.09586988
172	0xbe5ee86a	-0.21768346
173	0xbe71b935	-0.23605807
174	0x3d7c77e9	0.061637793
175	0x3e480f95	0.19537194
176	0xbe18f2b7	-0.14936338
177	0x3cb3094f	0.021855025
178	0xbd8f090e	-0.06984149
179	0x3d68e89a	0.05686245
180	0xbde8d542	-0.11368801
181	0xbe859ddd	-0.26097003
182	0x3d421475	0.04738279
183	0x3df6b7d0	0.12046778
184	0x3c8af21d	0.016961152
185	0xbdd860a9	-0.105653115
186	0xbdb9a352	-0.09064354
187	0xbcae2ac5	-0.021260628
188	0x3e241956	0.1602529
189	0xbda121af	-0.07867753
190	0x3df689cd	0.12038002
191	0x3b8696a6	0.004107314
192	0xbd64d184	-0.055863872
193	0x3c47ec48	0.01220233
194	0x3e060d54	0.13091022
195	0x0135e8b8	3.3411417e-38
196	0x3e91049c	0.2832383
197	0x3bab76e9	0.005232681
198	0x3e4f8c5e	0.2026839
199	0x3cb97ee7	0.02264352
200	0xbe237489	-0.15962423
201	0xbe8d8a3a	-0.2764452
202	0x3e184737	0.14870916
203	0xbdca8c67	-0.09890061
204	0x3d753c37	0.05987188
205	0xbc3a903b	-0.011386926
206	0xbdcb19ee	-0.09917055
207	0x3d95212c	0.07281718
208	0x3cf1c136	0.029511075
209	0xbd8c5893	-0.06852832
210	0x3e22ee48	0.1591121
211	0xbd41356a	-0.04717008
212	0x3de42b64	0.111410886
213	0xbe09f40f	-0.13472007
214	0x3c9d6262	0.019211952
215	0x3e855b44	0.26046193
216	0xbdca234c	-0.098700136
217	0xbe3a88d5	-0.1821626
218	0xbdeb03b3	-0.11475315
219	0x3dbb5747	0.09147506
220	0x3de2d3fd	0.1107559
221	0x8031ffba	-4.591677e-39
222	0xbe4ecfd9	-0.20196475
223	0x3d4c8bf4	0.049938157
224	0x3e2a096a	0.16605154
225	0xbe259d66	-0.16173324
226	0xbe02ae34	-0.12761766
227	0x3e0c8dbc	0.13725942
228	0xbcaa38ac	-0.020778976
229	0x3e2c6024	0.1683355
230	0x3e7c89c9	0.24661936
231	0xbd8c9962	-0.06865193
232	0x3dc5e9c9	0.096637316
233	0x3e08a981	0.1334591
234	0xbd22301e	-0.03959667
235	0x3e93f2e9	0.28896263
236	0x3c4cddfb	0.012504096
237	0x3e4edefb	0.20202248
238	0x3bdf5d37	0.006816532
239	0x3e3cf98c	0.1845457
240	0x3d548ba4	0.051890984
241	0xbdf013bf	-0.11722516
242	0x3d825511	0.063638814
243	0xbdbd8c56	-0.092552826
244	0xbe1c88ca	-0.15286556
245	0xbe455b03	-0.19273
246	0x3dd9c992	0.106341496
247	0x01021d75	2.3898363e-38
248	0xbe08c978	-0.13358104
249	0x3e558669	0.20852055
250	0xbd89c455	-0.067269005
251	0x3da038fd	0.0782337
252	0x3de9180f	0.11381542
253	0x3d9a9168	0.07547265
254	0xbe14a6eb	-0.14516799
255	0x3db535b5	0.088481344

network.0.bias f4 [128]
0	0xb9adf53b	-0.00033179842
1	0xb87d6730	-6.0416e-05
2	0x37b58add	2.1641545e-05
3	0x39443c61	0.0001871451
4	0x38b2516b	8.502867e-05
5	0xb89d07d5	-7.487802e-05
6	0xba3ae1a7	-0.0007128962
7	0xb92c9aab	-0.00016460817
8	0x391df706	0.0001506471
9	0x3857aa5a	5.1418647e-05
10	0xb94b5067	-0.00019389541
11	0x3a37c8bc	0.0007010808
12	0xb95e55eb	-0.00021203577
13	0x399dfc2f	0.00030133265
14	0xb9a0eaa0	-0.00030692387
15	0x3ad4c2de	0.0016232391
16	0x38f58f14	0.00011709161
17	0xb7e5c521	-2.7390723e-05
18	0xb94fee67	-0.0001982987
19	0xb884fbc0	-6.3411426e-05
20	0x369524ab	4.4448147e-06
21	0xb98d0f56	-0.00026905042
22	0xba57790a	-0.00082196353
23	0x380c5e61	3.34665e-05
24	0xb9c20590	-0.00037006708
25	0x388bc3d5	6.664513e-05
26	0x39b2a234	0.00034071656
27	0xb8e60564	-0.00010968259
28	0xb69f3ed8	-4.7458852e-06
29	0xb9693e6a	-0.00022243863
30	0x39e34b1a	0.0004335277
31	0xb7803c9e	-1.5287016e-05
32	0xb9e775b8	-0.0004414746
33	0xb9be2406	-0.00036266464
34	0xb92996ec	-0.00016173319
35	0xb7cb787c	-2.425559e-05
36	0xb8faea9a	-0.00011964627
37	0x38e03de7	0.000106926826
38	0xb9055c59	-0.0001271827
39	0xb998a51c	-0.00029114715
40	0x39c2dd75	0.00037167562
41	0xb8bc02dd	-8.965072e-05
42	0xb88140b7	-6.1632534e-05
43	0xb99a6115	-0.000294455
44	0xb9d2ca00	-0.00040204823
45	0xba373598	-0.0006988882
46	0x3991c81d	0.0002780565
47	0x3860cd4e	5.3596967e-05
48	0xb7b9115e	-2.2061806e-05
49	0x39b6f4a7	0.00034896025
50	0x393b44ee	0.00017859388
51	0xb88e56d5	-6.7872614e-05
52	0x38e416bf	0.00010876124
53	0x38c74d27	9.50343e-05
54	0xb9abc3ac	-0.00032761449
55	0x38d57643	0.000101786594
56	0x3825e0c9	3.9548413e-05
57	0x398c5a22	0.00026770035
58	0x39854920	0.0002542222
59	0x39686628	0.000221633
60	0x399ea0c0	0.00030255876
61	0xb73ea546	-1.1363363e-05
62	0x38fcf931	0.00012062712
63	0x391774c0	0.00014443975
64	0xba2de142	-0.00066329923
65	0x37ab031a	2.0386233e-05
66	0xb864d0c3	-5.455386e-05
67	0x399603ab	0.00028612962
68	0xb801a333	-3.0907988e-05
69	0x36ecda74	7.0587794e-06
70	0xb926b374	-0.00015897845
71	0x3a3725db	0.0006986537
72	0xb893dd92	-7.050777e-05
73	0x38507a2d	4.970485e-05
74	0x3923bbae	0.00015614807
75	0x3913aa41	0.00014082437
76	0xb978d3a0	-0.0002372996
77	0x399964b7	0.00029257472
78	0xb8931d0f	-7.014919e-05
79	0xb7e90311	-2.7777192e-05
80	0x3a4e1d16	0.00078626105
81	0xb9c3fb0d	-0.00037380346
82	0xb98a301a	-0.0002635725
83	0xba1b1e20	-0.000591727
84	0x3983b130	0.00025118282
85	0xb9a3d798	-0.00031250413
86	0xb926d0c6	-0.00015908768
87	0xb7a6604a	-1.983358e-05
88	0xb96c33b6	-0.00022525978
89	0xb8913bf1	-6.925304e-05
90	0x39bbabef	0.0003579552
91	0x3a1abe20	0.00059029646
92	0xb9d6d57c	-0.0004097632
93	0xb9b001a4	-0.00033570558
94	0xba538b51	-0.0008069771
95	0xb9400119	-0.00018310956
96	0xb983d7d8	-0.00025147083
97	0xb8a14edc	-7.691767e-05
98	0xb9dc968d	-0.0004207384
99	0x39d5acb7	0.00040755208
100	0xb98a4ade	-0.00026377192
101	0xb9c059dd	-0.00036688047
102	0x390ec20d	0.00013614465
103	0xb98efed0	-0.000272742
104	0xb9cd8054	-0.0003919626
105	0xb9423390	-0.0001852049
106	0x39e6350a	0.00043908536
107	0x38cd8418	9.799766e-05
108	0x3981a942	0.00024730904
109	0xb9a9f5b0	-0.00032417243
110	0x3a454680	0.0007525459
111	0xb75663c2	-1.2778621e-05
112	0xb91c17d6	-0.00014886199
113	0x388c62dc	6.694134e-05
114	0xb7c3be36	-2.3334385e-05
115	0x39187784	0.00014540373
116	0xb9416633	-0.00018443986
117	0xb92c52ad	-0.00016433997
118	0x38cfbb66	9.905435e-05
119	0xba1035a1	-0.00055011554
120	0xb8b17226	-8.4612795e-05
121	0xb9b36282	-0.00034214935
122	0xb91ebdaa	-0.0001513871
123	0x374a5785	1.20605155e-05
124	0x395409e1	0.00020221576
125	0x397e33d4	0.00024242635
126	0x398120fb	0.0002462937
127	0xb9207198	-0.00015301106

network.1.weight f4 [128]
0	0x3f84385f	1.0329703
1	0x3f650335	0.8945802
2	0x3f5afbe9	0.85540634
3	0x3f841a03	1.0320438
4	0x3f7d690c	0.98988414
5	0x3f60767f	0.8768081
6	0x3f80120c	1.0005507
7	0x3f76e9f8	0.9645076
8	0x3f721659	0.9456535
9	0x3f80e457	1.0069684
10	0x3f7e6f5a	0.9938866
11	0x3f76f09f	0.9646091
12	0x3f70353e	0.9383124
13	0x3f91acaa	1.1380818
14	0x3f92c274	1.1465592
15	0x3f7e0c0a	0.9923712
16	0x3f640403	0.8906862
17	0x3f57d15d	0.8430384
18	0x3f73a164	0.9516814
19	0x3f6326e9	0.8873125
20	0x3f80c831	1.0061094
21	0x3f725d46	0.94673574
22	0x3f8298f8	1.0202932
23	0x3f843866	1.0329711
24	0x3f638808	0.8887944
25	0x3f5eb753	0.8699848
26	0x3f79d432	0.9758941
27	0x3f882c5f	1.0638541
28	0x3f67f61d	0.90609914
29	0x3f8c1a5c	1.0945544
30	0x3f8eba03	1.1150516
31	0x3f68abe0	0.9088726
32	0x3f6af92d	0.9178646
33	0x3f8e6833	1.1125549
34	0x3f6be4a9	0.9214578
35	0x3f539bbb	0.826595
36	0x3f5539dc	0.8329141
37	0x3f7cb725	0.98716956
38	0x3f6c4c80	0.9230423
39	0x3f682ee8	0.90696573
40	0x3f78adfe	0.9714049
41	0x3f7c6e84	0.98606133
42	0x3f8a6b07	1.0813912
43	0x3f781733	0.969104
44	0x3f835060	1.0258904
45	0x3f88aeff	1.0678405
46	0x3f8abe81	1.0839387
47	0x3f6cfc73	0.92572707
48	0x3f78f0de	0.97242534
49	0x3f5e8920	0.86927986
50	0x3f782fac	0.9694774
51	0x3f75a1a2	0.9594976
52	0x3f79738c	0.97441936
53	0x3f4b1062	0.79321873
54	0x3f78a73a	0.9713017
55	0x3f54f9a7	0.8319344
56	0x3f812df1	1.0092145
57	0x3f88181f	1.0632361
58	0x3f726db0	0.9469862
59	0x3f7fa165	0.99855644
60	0x3f673d8f	0.90328306
61	0x3f903541	1.1266252
62	0x3f7f308c	0.9968345
63	0x3f500428	0.8125634
64	0x3f7de3cc	0.99175715
65	0x3f46acb2	0.7760726
66	0x3f84fa3e	1.0388868
67	0x3f7da024	0.9907248
68	0x3f664e78	0.89963484
69	0x3f7e26bf	0.9927787
70	0x3f7a7d65	0.97847587
71	0x3f886c6a	1.0658085
72	0x3f7427b7	0.953731
73	0x3f6edd0c	0.9330604
74	0x3f80cb0b	1.0061964
75	0x3f5d3ad1	0.8641787
76	0x3f5599cb	0.83437794
77	0x3f504271	0.8135138
78	0x3f5a9726	0.85386884
79	0x3f8a0d43	1.0785297
80	0x3f8a63a5	1.0811659
81	0x3f844022	1.0332072
82	0x3f755e50	0.95847034
83	0x3f8869ac	1.0657248
84	0x3f8559f4	1.0418077
85	0x3f915f2e	1.1357172
86	0x3f6d3f16	0.92674387
87	0x3f59a64e	0.85019386
88	0x3f71420a	0.9424139
89	0x3f75b651	0.9598132
90	0x3f7c211a	0.9848801
91	0x3f7bdf17	0.98387283
92	0x3f5819a3	0.8441412
93	0x3f85feb8	1.0468359
94	0x3f818075	1.0117327
95	0x3f610ded	0.87911874
96	0x3f52194d	0.82069856
97	0x3f7caba2	0.9869939
98	0x3f87a554	1.0597329
99	0x3f7f5046	0.9973186
100	0x3f7ec06b	0.99512357
101	0x3f7040c9	0.93848854
102	0x3f738cab	0.9513652
103	0x3f63bbc5	0.8895839
104	0x3f8a0063	1.0781368
105	0x3f76fb12	0.9647685
106	0x3fa186b0	1.2619228
107	0x3f4f3129	0.8093439
108	0x3f8d3a95	1.1033503
109	0x3f6b6750	0.9195452
110	0x3f825aec	1.0183997
111	0x3f5739d3	0.8407261
112	0x3f87600d	1.0576187
113	0x3f667fcd	0.9003876
114	0x3f843895	1.0329767
115	0x3f6d8137	0.9277529
116	0x3f6fbdb9	0.9364887
117	0x3f60ce3c	0.8781469
118	0x3f6d042e	0.925845
119	0x3f80ab15	1.005221
120	0x3f95cfb4	1.1704011
121	0x3f5b5c3c	0.85687613
122	0x3f530a01	0.8243714
123	0x3f8651e7	1.0493745
124	0x3f6106e0	0.87901115
125	0x3f89d2bd	1.0767437
126	0x3f776e0a	0.9665228
127	0x3f7300c4	0.94923043

network.1.bias f4 [128]
0	0xbe6f7664	-0.23385006
1	0xbdf662e6	-0.12030582
2	0xbe3ea665	-0.18618162
3	0xbe0b1574	-0.13582402
4	0xbca1e6d6	-0.019763391
5	0xbe51a81e	-0.20474288
6	0xbc27721f	-0.01022008
7	0xbe2fe8cb	-0.17178647
8	0xbe11fbf3	-0.14256267
9	0xbe8b7317	-0.27236244
10	0xbe207e9f	-0.15673302
11	0xbea5018b	-0.3222774
12	0xbe46a14b	-0.19397466
13	0x3c033625	0.0080085145
14	0xbe29b33b	-0.16572277
15	0xbe8b9d58	-0.2726848
16	0xbe94a70c	-0.29033697
17	0xbe45f320	-0.19331026
18	0xbe59f6e5	-0.21285589
19	0xbe3251ec	-0.17414063
20	0xbd984dc1	-0.074367054
21	0xbe684c36	-0.22685322
22	0xbd0721d4	-0.032991245
23	0xbe2f5736	-0.17123112
24	0xbe11ee9a	-0.14251176
25	0xbe72d716	-0.23714861
26	0xbe18360c	-0.14864367
27	0xbeecffe2	-0.46288973
28	0xbd882284	-0.06647208
29	0xbe1388fc	-0.14407724
30	0xbefb6ebf	-0.4910793
31	0xbe7b57a8	-0.24545157
32	0xbeb3cf0a	-0.35118896
33	0xbd0bbd9c	-0.034116372
34	0xbd5367f6	-0.051612817
35	0xbea171ae	-0.31532043
36	0xbe5d78d4	-0.21628124
37	0xbe47d7eb	-0.1951596
38	0xbde625e7	-0.11237698
39	0x3ce52051	0.027969511
40	0xbdfb2602	-0.12263109
41	0xbe30e9ac	-0.17276639
42	0xbd312f18	-0.043257803
43	0xbe876641	-0.264452
44	0xbcae6353	-0.021287596
45	0xbe671b9e	-0.22569129
46	0xbd975605	-0.07389454
47	0xbd3dce40	-0.046339273
48	0xbeb3be8e	-0.3510632
49	0xbe80d26d	-0.25160542
50	0xbdcd7666	-0.10032348
51	0xbbe315d6	-0.0069300933
52	0x3c342540	0.010995209
53	0xbdd44341	-0.1036439
54	0xbe991002	-0.29895025
55	0xbdf627b9	-0.12019295
56	0xbe327f7a	-0.17431441
57	0xbe2f728a	-0.17133537
58	0xbd8194bb	-0.06327196
59	0xbe47f86b	-0.19528358
60	0xbe162e89	-0.14666189
61	0xbe06eef9	-0.13177098
62	0xbdbedbee	-0.09319292
63	0xbd89f42e	-0.06736027
64	0xbe3031b0	-0.17206454
65	0xbe7aee9b	-0.24505083
66	0xbe592568	-0.21205676
67	0xbd73752f	-0.059437927
68	0xbef1cc7b	-0.4722632
69	0xbede8f12	-0.4346853
70	0xbdcdda38	-0.100513875
71	0xbf089465	-0.5335143
72	0xbde14946	-0.11000304
73	0xbe9b8708	-0.30376458
74	0xbe8dc0f9	-0.2768629
75	0xbf058348	-0.52153444
76	0xbe059183	-0.1304379
77	0xbe2a02cc	-0.1660263
78	0xbdb820ad	-0.089906074
79	0xbf1393e1	-0.5764752
80	0xbe3c88f4	-0.18411618
81	0xbea8e05c	-0.32983673
82	0xbe48f096	-0.19623026
83	0xbead77f9	-0.33880594
84	0xbdf15f81	-0.11785794
85	0xbdbbad17	-0.09163874
86	0xbd87b925	-0.066271104
87	0xbe890016	-0.26757878
88	0xbea3f57d	-0.3202323
89	0xbe1dc0be	-0.15405557
90	0xbe180662	-0.14846185
91	0xbd9a7de7	-0.07543545
92	0xbec9500d	-0.39318886
93	0xbe88b147	-0.26697752
94	0xbd41f6bb	-0.04735444
95	0xbead7802	-0.3388062
96	0xbe9c8690	-0.30571413
97	0xbd95621a	-0.07294102
98	0xbe2482fe	-0.16065595
99	0xbe6689bb	-0.22513478
100	0xbe103bcf	-0.14085315
101	0xbdf45371	-0.11929978
102	0xbe37ceaf	-0.17949937
103	0xbe98b5e1	-0.29826263
104	0xbe359a4e	-0.17734644
105	0xbe3c0629	-0.18361725
106	0xbe05fea2	-0.13085416
107	0xbe699c9d	-0.2281365
108	0xbe2b3647	-0.16719924
109	0xbe9ea4a7	-0.30984995
110	0xbe087939	-0.13327493
111	0xbe295bff	-0.16539
112	0xbdbaff17	-0.09130686
113	0xbe784ceb	-0.24248092
114	0xbd9488e5	-0.07252673
115	0xbe8e2dff	-0.27769467
116	0xbdab7a13	-0.08372893
117	0xbefb312d	-0.49060956
118	0xbe163efb	-0.14672463
119	0xbedec971	-0.43513063
120	0xbe504651	-0.20339324
121	0xbea4d66f	-0.3219485
122	0xbeb7ba67	-0.358844
123	0xbd1b4520	-0.03790772
124	0xbe31dadd	-0.17368646
125	0xbdb5e454	-0.08881441
126	0xbe0e7273	-0.13910846
127	0xbe09085e	-0.13382098

network.1.running_mean f4 [128]
0	0xbcd05f8e	-0.025436189
1	0x3c3334e5	0.010937904
2	0xbca182e6	-0.019715738
3	0xbb1d23a3	-0.002397754
4	0xbccaf8ae	-0.024776783
5	0x3c1372fc	0.008999582
6	0xbcd599cd	-0.026074314
7	0x3bc4b0b6	0.006002511
8	0xbc5a8112	-0.013336437
9	0x3a598340	0.0008297451
10	0x3c2f26b4	0.01069038
11	0xbb98af74	-0.0046595875
12	0xbb9cd53a	-0.004786161
13	0x3b3583d6	0.0027696989
14	0x3acd99da	0.001568611
15	0x3c3b979d	0.011449722
16	0xbc4dcb86	-0.012560731
17	0xbc6c6274	-0.01442777
18	0x3c1562c7	0.009117789
19	0xbc316c23	-0.010829004
20	0xbcd042f5	-0.025422553
21	0xbb200058	-0.0024414267
22	0xbb0655a2	-0.0020497818
23	0x3ab6444a	0.001390585
24	0xbbf27b44	-0.0073999483
25	0x3cfd80b0	0.030945152
26	0xbcab8628	-0.020937994
27	0xbb821b70	-0.003970556
28	0x3be78cab	0.0070663295
29	0xbb97e6a2	-0.004635648
30	0xbb6339b3	-0.0034671843
31	0x3c37db4b	0.011221717
32	0x3bb9d0bc	0.005670635
33	0xbc458066	-0.012054538
34	0xba82aef0	-0.0009970348
35	0x3c03a0f3	0.008033979
36	0x3bcf51d4	0.0063268933
37	0xbbb00315	-0.005371461
38	0x3d0f7c18	0.035030454
39	0xbc6300ab	-0.01385514
40	0x3c0aadee	0.00846432
41	0x3c9007e9	0.017581897
42	0xbc09fe26	-0.00842241
43	0x3bbd6356	0.005779664
44	0xbc84dd7a	-0.01621889
45	0x3c05f7f0	0.008176789
46	0xbc7ef3d4	-0.015561063
47	0x3bd6dda4	0.0065571833
48	0x3cb232e7	0.021752788
49	0x3c50bf4c	0.012740921
50	0xbc0d56ea	-0.008626679
51	0x3ca9fbb0	0.020749897
52	0xbd11b3c2	-0.03557182
53	0x3c057496	0.008145472
54	0xbc9c4e40	-0.019080281
55	0xbd07b8d2	-0.033135243
56	0x3be8bda0	0.007102683
57	0x3be4c9d1	0.006982066
58	0x3c53d89b	0.012930061
59	0xbc26f4fa	-0.010190243
60	0x3a77bf2c	0.0009450789
61	0x3a1fbc00	0.0006093383
62	0x3adf69c4	0.001704507
63	0x3c676962	0.014124246
64	0x3c225a78	0.009909265
65	0xbb84e27d	-0.00405532
66	0x3c553890	0.013013974
67	0xbcfb008c	-0.03063991
68	0xba96df99	-0.0011510729
69	0xbb75615b	-0.0037442062
70	0xbc981707	-0.018565668
71	0xbbab9181	-0.0052358513
72	0xbc7ef494	-0.015561242
73	0x3c28482e	0.010271115
74	0xbb053ecb	-0.0020331617
75	0xbc1af82f	-0.009458586
76	0x3b2bb598	0.0026200768
77	0xbd5567d0	-0.052100956
78	0xbc811328	-0.015756205
79	0xbb518e45	-0.0031975668
80	0x39fea848	0.00048572035
81	0x3c3b90d7	0.011448107
82	0x3af2c40e	0.0018521564
83	0xbaf7b64e	-0.0018898936
84	0x3b6dce78	0.0036286395
85	0xbab8d88e	-0.0014102624
86	0x3b765da4	0.0037592435
87	0xbba38eb2	-0.004991376
88	0x3bc4f148	0.0060102083
89	0xbb218c3f	-0.0024650244
90	0xbb31c24c	-0.0027123867
91	0xb8d52a40	-0.00010164501
92	0x3c515322	0.012776168
93	0x3c81ab03	0.015828615
94	0xbb981a82	-0.004641832
95	0xbc8ca377	-0.01716779
96	0xbac226ec	-0.0014812625
97	0xbbee5d94	-0.007274339
98	0xb98b721e	-0.0002659717
99	0x3c2184b6	0.009858301
100	0xbb0f2391	-0.0021841268
101	0xbc2ea71e	-0.010659961
102	0x3cdfc7b0	0.027316898
103	0x3bc84644	0.006111892
104	0x3bf48cb8	0.007463064
105	0xbbaa5ced	-0.005199066
106	0x39eb0158	0.00044823694
107	0xbc397e9e	-0.011321692
108	0x3c51c5d4	0.012803514
109	0x3bdb8d07	0.0067001614
110	0x39b923a8	0.00035312516
111	0xbcceed98	-0.025259778
112	0x3bec0512	0.007202753
113	0x3b9577ec	0.004561415
114	0xbb83e839	-0.004025486
115	0xbb3d5420	-0.0028889254
116	0xbc3b6fc6	-0.011440223
117	0xbc841f44	-0.01612819
118	0xba1757c4	-0.0005773271
119	0x3a56ac58	0.00081891334
120	0x3b0198ff	0.001977503
121	0xbc9483ea	-0.018129308
122	0xb86dbcc0	-5.668099e-05
123	0x3c9f2f33	0.019431686
124	0xbd1b0b29	-0.03785244
125	0xba95d540	-0.0011431351
126	0x3bdb7d02	0.0066982517
127	0x3c1397bc	0.009008344

network.1.running_var f4 [128]
0	0x3e81ef25	0.25377765
1	0x3f0300f3	0.51173323
2	0x3ea4a3ab	0.3215612
3	0x3eef4815	0.46734682
4	0x3ef8d3dd	0.4859914
5	0x3f5d70c3	0.86500186
6	0x3ed63d87	0.41843817
7	0x3edb5e3e	0.4284534
8	0x3f10aaec	0.56510806
9	0x3ec126fa	0.3772505
10	0x3e8e464d	0.2778801
11	0x3eb1a4a9	0.34695938
12	0x3ec6ede0	0.3885336
13	0x3ec7daf9	0.3903425
14	0x3e4ed5bf	0.20198725
15	0x3e599d44	0.21251398
16	0x3eb2e71f	0.34941956
17	0x3ee223e1	0.44167998
18	0x3e89352c	0.2679838
19	0x3f32aead	0.69797784
20	0x3eb4b69b	0.35295567
21	0x3e9722f7	0.29518864
22	0x3e8dac05	0.27670303
23	0x3df2da97	0.11858099
24	0x3f29b44c	0.66290736
25	0x3f1771c2	0.59157956
26	0x3ec641a7	0.38721964
27	0x3ee82c2b	0.45346197
28	0x3f2f7943	0.68544406
29	0x3e8c6a26	0.27424735
30	0x3ec00a43	0.3750783
31	0x3ebb46fb	0.3657759
32	0x3e85ed3f	0.26157567
33	0x3dff1297	0.124547176
34	0x3e794f0b	0.24346559
35	0x3eb65dca	0.3561843
36	0x3e830c88	0.25595498
37	0x3eabf485	0.3358499
38	0x3f6d0aa9	0.9259439
39	0x3edd4e2d	0.43223706
40	0x3ee118df	0.43964288
41	0x3eb2d5c7	0.34928724
42	0x3e6d236c	0.23158044
43	0x3ef8a9d2	0.48567063
44	0x3e504e7c	0.2034244
45	0x3e1fccb9	0.15605439
46	0x3eabd7c2	0.33563048
47	0x3e9a3ae3	0.30123052
48	0x3ebb7897	0.3661544
49	0x3ea2f4b7	0.31827328
50	0x3ecb3fdb	0.39697155
51	0x3f153caa	0.5829569
52	0x3f7116e2	0.9417554
53	0x3f2c7f68	0.67381907
54	0x3f09ab68	0.5377717
55	0x3f7221e7	0.9458298
56	0x3ee93804	0.4555055
57	0x3eba5ad1	0.36397412
58	0x3ede3197	0.4339721
59	0x3eb26a3e	0.3484668
60	0x3f08e0f8	0.53468275
61	0x3eab9940	0.33515358
62	0x3ed67c8b	0.41891894
63	0x3f5e5920	0.86854744
64	0x3eef526d	0.46742573
65	0x3eac775a	0.33684808
66	0x3f0d62bf	0.552288
67	0x3f261122	0.6486989
68	0x3ee2140a	0.44155914
69	0x3ed3e861	0.4138823
70	0x3ec198ce	0.37811893
71	0x3f2084ea	0.6270281
72	0x3eda04e9	0.4258187
73	0x3ecbc289	0.39796856
74	0x3ec3b983	0.38227472
75	0x3ea41bea	0.32052547
76	0x3ea3af2e	0.3196959
77	0x3f2717a8	0.6527047
78	0x3f14fbde	0.5819682
79	0x3f0937d5	0.5360082
80	0x3e165c53	0.14683656
81	0x3e423189	0.18964209
82	0x3e388b1b	0.18021815
83	0x3ec6b451	0.38809446
84	0x3ee7c97a	0.45270902
85	0x3e93881a	0.28814775
86	0x3f0c363c	0.54770255
87	0x3f19d872	0.60095894
88	0x3ed0578f	0.40691802
89	0x3ec88840	0.3916645
90	0x3f10cb3e	0.5656012
91	0x3e624790	0.22097611
92	0x3ea1460d	0.31498757
93	0x3eb3bc83	0.3510476
94	0x3e957b40	0.29195595
95	0x3e950f31	0.29113153
96	0x3ed8a78f	0.42315337
97	0x3ebc9368	0.36831212
98	0x3e4dc54b	0.20094793
99	0x3e7a858b	0.24465005
100	0x3e886028	0.2663586
101	0x3f0ab41e	0.54181087
102	0x3ed3fc60	0.41403484
103	0x3eb4b55f	0.35294625
104	0x3e62da0c	0.22153491
105	0x3f18151e	0.5940722
106	0x3e0c3b09	0.13694395
107	0x3f03d7d3	0.51501197
108	0x3ec976ae	0.39348358
109	0x3eaddfa4	0.33959687
110	0x3e5f6d6a	0.21819082
111	0x3ef5fc75	0.48044172
112	0x3e90e4b2	0.2829948
113	0x3eb5499a	0.35407716
114	0x3edb78a8	0.4286549
115	0x3f202c5c	0.6256769
116	0x3f343771	0.70397097
117	0x3eebd2dd	0.46059313
118	0x3ee71264	0.45131218
119	0x3e9113bf	0.28335378
120	0x3e75b9ea	0.23996702
121	0x3e999466	0.29996032
122	0x3e514c66	0.204393
123	0x3e5b784c	0.21432608
124	0x3f4f21ce	0.80910957
125	0x3ebafa91	0.36519292
126	0x3f0666ce	0.5250062
127	0x3eb5b8e7	0.35492632

network.4.weight f4 [64, 128]
0	0xbdbd8928	-0.09254676
1	0xbd970851	-0.07374633
2	0x3ce8ac4c	0.02840247
3	0xbe6b680b	-0.22988908
4	0xbe0b2faf	-0.13592409
5	0x3d989a42	0.07451297
6	0xbda90704	-0.08253291
7	0xbe49f8f5	-0.19723876
8	0xbcec2e16	-0.02883057
9	0x3d8f296e	0.06990324
10	0xbe30de8f	-0.172724
11	0x3d747d97	0.059690084
12	0xbdc1c983	-0.094622634
13	0xbbe13143	-0.0068723275
14	0x3c0b98a1	0.008520276
15	0x3d96f05a	0.07370062
16	0x3e1d66f4	0.15371305
17	0x3bebb093	0.00719268
18	0xbe1b4574	-0.15163213
19	0x3ca1eab2	0.019765232
20	0x3ce6c4f0	0.028170079
21	0x3d0ca4c6	0.034336828
22	0x3d95d275	0.07315532
23	0x3d6f99fb	0.058496457
24	0xbd685ad6	-0.056727253
25	0x3cef2968	0.029194549
26	0xbe2bdbde	-0.16783091
27	0x3de90ba3	0.11379173
28	0xbe4262df	-0.18983029
29	0x3cb1a193	0.02168349
30	0x3d99f506	0.07517438
31	0xbe019b67	-0.12656938
32	0x3e0c351c	0.13692135
33	0xbd72e8cb	-0.05930404
34	0x3c385ca1	0.011252553
35	0xbc1c687c	-0.009546395
36	0xbe03fe09	-0.12889875
37	0x3e506fe8	0.20355189
38	0xbce7b426	-0.028284144
39	0xbd371163	-0.044694316
40	0x3dcb9e13	0.0994226
41	0xbe21ea47	-0.15812026
42	0x3da12e6c	0.078701824
43	0xbe2ffc6e	-0.17186138
44	0xbdb1e9cd	-0.08687172
45	0x3dc1ab1f	0.09456467
46	0xbdc7c271	-0.09753884
47	0xbe0e8844	-0.13919169
48	0xbd05b9a0	-0.03264773
49	0x3e097176	0.13422188
50	0xbdd4afad	-0.1038507
51	0xbd97afd1	-0.07406581
52	0x3e007777	0.12545572
53	0x3da9a441	0.08283282
54	0xbe054628	-0.13015044
55	0xbca1874b	-0.019717833
56	0x3e42c400	0.1902008
57	0xbc8e12a9	-0.017342882
58	0xbe15ae45	-0.1461726
59	0x3e82033c	0.25393093
60	0x3d4a952e	0.049458675
61	0x3e1568c6	0.14590749
62	0x3da45168	0.080233395
63	0x3bd27dda	0.006423694
64	0xbdfd21b8	-0.12359947
65	0xbd3d2928	-0.046181828
66	0xbcb3a329	-0.021928387
67	0xbeb1d324	-0.347314
68	0xbe60165b	-0.21883528
69	0xbd929aa0	-0.07158399
70	0xbdf0ccb7	-0.11757796
71	0xbddd66bf	-0.10810613
72	0xbe23f7f3	-0.16012554
73	0xbe867803	-0.26263437
74	0xbdff7b3a	-0.124746755
75	0x3e072adc	0.13199943
76	0x3ddb96d8	0.107221305
77	0xbe3a9a29	-0.1822287
78	0xb9817fb2	-0.00024699938
79	0xbc0b995e	-0.008520452
80	0xbdafdf4d	-0.08587513
81	0xbe918b30	-0.28426504
82	0x3e4df1db	0.20111792
83	0x3e38812e	0.18018028
84	0xbdc67175	-0.09689609
85	0xbd6cf3a4	-0.05784954
86	0xbe8394dd	-0.2569951
87	0x3df19d26	0.11797552
88	0xbddfe6c2	-0.109326854
89	0xbe700a9b	-0.23441546
90	0xbe056f4c	-0.13030738
91	0xbd6da5cc	-0.058019444
92	0x3cc86cc5	0.024465928
93	0xbe32f570	-0.1747644
94	0x3db28d67	0.087183766
95	0xbded920b	-0.11600121
96	0xbd8c7c3a	-0.06859632
97	0x3dba78a3	0.09105041
98	0x3dbd93e6	0.09256725
99	0x3d6e983e	0.05825066
100	0xbc0fba79	-0.008772486
101	0x3dd7dc9a	0.10540123
102	0xbd0f18ec	-0.034935877
103	0x3d2a3aff	0.04156017
104	0xbd98c818	-0.0746004
105	0x3de0c3cd	0.10974846
106	0x3df695ec	0.12040314
107	0xbc5716aa	-0.013127962
108	0xbdd87d4c	-0.105707735
109	0x3de54a50	0.111958146
110	0xbe803994	-0.2504393
111	0x3d9ed105	0.07754711
112	0x3dc3d7d4	0.0956265
113	0x3e193a71	0.149637
114	0xbdf95fee	-0.121765
115	0xbd9bf0b9	-0.076142736
116	0x3dcd0371	0.10010422
117	0xbd7011a3	-0.05861057
118	0xbe3947f2	-0.18093851
119	0x3e3bd866	0.18344268
120	0x3c25caa9	0.010119119
121	0x3d2cecab	0.04221789
122	0xbd25ddbf	-0.040494677
123	0xbe1a5402	-0.15071109
124	0xbe7d2e10	-0.24724603
125	0x3c98b130	0.018639177
126	0xbacf8921	-0.0015833714
127	0x3d983380	0.07431698
128	0x3dee8a52	0.11647476
129	0x3d946b5f	0.07247042
130	0xbdc8d1ff	-0.098056786
131	0xbd48500b	-0.04890446
132	0x3cff595f	0.031170545
133	0x3daa24a5	0.08307771
134	0xbd8b2221	-0.06793619
135	0xbe1eebe1	-0.15519668
136	0xbe1195a6	-0.14217243
137	0x3e0f2e52	0.13982514
138	0x3d5bfae7	0.053706076
139	0x3e2e852a	0.17042986
140	0xbe33fb55	-0.17576344
141	0xbdd01d8e	-0.10161887
142	0xbd59e4f8	-0.053196877
143	0x3e7f3771	0.24923493
144	0xbc856517	-0.016283555
145	0x3dcc2dc1	0.09969664
146	0x3d3e750c	0.046498343
147	0xbd93b3af	-0.07212006
148	0xbd85d3bf	-0.06534528
149	0x3e27b2da	0.1637682
150	0x3e945651	0.28972104
151	0xbe302559	-0.17201747
152	0x3dad8c9d	0.084740855
153	0x3d0342d0	0.03204614
154	0x3d0597eb	0.032615583
155	0xbdf53ffd	-0.119750954
156	0x3d6001dd	0.054689277
157	0x3de18000	0.11010742
158	0x3ccb224b	0.024796626
159	0xbc84bfd9	-0.016204761
160	0x3da3c5a9	0.07996685
161	0xbe83c1aa	-0.2573369
162	0xbe940756	-0.28911847
163	0x3dad9f22	0.08477618
164	0xbd812060	-0.06305003
165	0xbde837df	-0.113387816
166	0xbdb51e8f	-0.08843719
167	0xbe2d9218	-0.16950262
168	0x3db3acfa	0.08773227
169	0x3c93f47c	0.018060915
170	0xbe735b70	-0.2376535
171	0xbe52f1dd	-0.20600076
172	0xbe8b73b2	-0.27236706
173	0xbe255367	-0.16145097
174	0xbe05b349	-0.13056673
175	0x3db16b3d	0.08663032
176	0xbd7a2dd7	-0.061078873
177	0xbe834503	-0.2563859
178	0xbd7bceaa	-0.061476387
179	0x3e42d916	0.19028124
180	0x3e3387f1	0.17532326
181	0x3c88d451	0.016702803
182	0x3c321c9e	0.010871081
183	0x3d9789db	0.07399341
184	0x3d3ed7b9	0.046592448
185	0xbda0653a	-0.078318074
186	0xbe087cb5	-0.13328822
187	0xbbb8bb16	-0.0056375368
188	0x3db145d5	0.086558975
189	0x3b80b92d	0.0039283247
190	0xbe7e92be	-0.24860665
191	0xbd1b9ae4	-0.037989512
192	0xbcb970d6	-0.022636812
193	0x3d7613ae	0.06007736
194	0x3dae76b1	0.08518732
195	0xbdea32d4	-0.11435476
196	0x3d16b748	0.036795884
197	0xbda7db87	-0.081961684
198	0x3d528723	0.051398408
199	0x3d96f3c0	0.073707104
200	0xbe2eb171	-0.17059876
201	0x3da6db99	0.08147354
202	0x3e20dbfe	0.1570892
203	0x3dbecbca	0.093162134
204	0xbe3a632a	-0.1820189
205	0x3d95af31	0.07308806
206	0xbdb209f2	-0.08693303
207	0xbda59fb9	-0.08087105
208	0xbd3025df	-0.043004867
209	0xbb3add51	-0.0028513263
210	0x3d7c570a	0.061606444
211	0xbddaa387	-0.106757216
212	0xbd85fb5d	-0.06542084
213	0xbe62f80b	-0.22164933
214	0xbe26b3ac	-0.16279477
215	0x3c72a35d	0.014809457
216	0x3d69acf4	0.057049707
217	0x3d8a44db	0.067514144
218	0x3e2547dc	0.16140693
219	0xbd5620a5	-0.052277226
220	0xbe208836	-0.1567696
221	0xbe09c396	-0.13453516
222	0xbded0387	-0.115729384
223	0xbd197205	-0.037462253
224	0xbdd4074f	-0.103529565
225	0xbe46a9fd	-0.19400783
226	0xbe8c47cb	-0.27398524
227	0x3c0c6131	0.008568094
228	0xbdee6acb	-0.11641463
229	0xbdc994e8	-0.09842855
230	0xbc59a8ce	-0.013284875
231	0x3c03c355	0.008042176
232	0x3d23e15e	0.04000985
233	0xbe2b61d2	-0.16736534
234	0xbea15536	-0.31510323
235	0x3df1c07b	0.11804291
236	0xbdb0215e	-0.08600114
237	0xbd628858	-0.05530581
238	0xbd639112	-0.05555827
239	0x3d8589ee	0.065204486
240	0xbe607ecd	-0.2192337
241	0x3e2e568e	0.17025205
242	0xbc5f29fb	-0.013620849
243	0x3e1bb9b8	0.15207565
244	0x3e0895c0	0.13338375
245	0x3e029c76	0.12754998
246	0xbd801246	-0.062534854
247	0x3c991bb3	0.018689966
248	0x3e2912f9	0.16511144
249	0xbe120e50	-0.14263272
250	0x3d25eb87	0.04050782
251	0x3d6d7e68	0.05798188
252	0x3d826a2f	0.06367909
253	0xbd213ca2	-0.039364465
254	0x3cc58582	0.024111513
255	0xbde13cdb	-0.109979354

network.4.bias f4 [64]
0	0xb980c5a1	-0.00024561308
1	0xb902acce	-0.00012462141
2	0xb7401d2d	-1.1450885e-05
3	0xb8cd99bc	-9.803797e-05
4	0xb9239d43	-0.00015603476
5	0x3914034c	0.00014115608
6	0x382e7c65	4.1600684e-05
7	0x392b8ae0	0.00016359566
8	0x38133396	3.5095574e-05
9	0x39dc710c	0.00042045896
10	0x37da9ac5	2.6059695e-05
11	0x38f1818a	0.00011515904
12	0xb8c18c29	-9.229064e-05
13	0xb92398a8	-0.0001560176
14	0xb9104fba	-0.0001376261
15	0x3827f246	4.0041537e-05
16	0x382171e2	3.8491453e-05
17	0x388a419c	6.5925735e-05
18	0x39eb06cc	0.00044827757
19	0x37f4ae8b	2.9168345e-05
20	0x39573a7a	0.00020525782
21	0xb9c7ca8b	-0.00038107144
22	0x37c8a6e0	2.3919565e-05
23	0xb997400a	-0.00028848677
24	0xb9800b16	-0.00024422322
25	0xb9f18b41	-0.00046070854
26	0xb892ccb7	-6.9999536e-05
27	0xb80ddd56	-3.3823155e-05
28	0xb8e54464	-0.0001093231
29	0x388a83b0	6.6048815e-05
30	0xb7e0fa9f	-2.6819585e-05
31	0xb9a39aed	-0.0003120521
32	0xb98a92f9	-0.00026430914
33	0xb89f2ae1	-7.5896976e-05
34	0xb8fa8b08	-0.000119468255
35	0xb882bc67	-6.233976e-05
36	0xb8d91910	-0.000103520346
37	0xb8c90162	-9.5846844e-05
38	0xb987118a	-0.00025762274
39	0x3912f651	0.00014015405
40	0x398fa1fa	0.00027395767
41	0xb930294a	-0.0001680005
42	0x371ae41f	9.232229e-06
43	0x39030ad8	0.00012497173
44	0xb8015d7c	-3.084306e-05
45	0x392a6363	0.00016249488
46	0xb8ad65d1	-8.2682476e-05
47	0x3987011f	0.00025750042
48	0xb8186490	-3.633328e-05
49	0xb91ecf15	-0.00015145198
50	0x39dd1ed3	0.0004217537
51	0x399e04af	0.00030139598
52	0x37df6bda	2.6633894e-05
53	0x37240654	9.776635e-06
54	0xb7609a38	-1.3387347e-05
55	0x3832947e	4.25768e-05
56	0x368f9009	4.2785e-06
57	0x369edd93	4.7345616e-06
58	0xb9875491	-0.00025812213
59	0x392aedee	0.00016301099
60	0xb93a55d1	-0.00017770311
61	0xb789f693	-1.6446493e-05
62	0xb92b9ed8	-0.00016367005
63	0xb84d6ca6	-4.8976995e-05

network.5.weight f4 [64]
0	0x3f5b4691	0.8565455
1	0x3f5f23bb	0.87163895
2	0x3f8e7506	1.1129463
3	0x3f8c0db5	1.0941683
4	0x3f7cce94	0.98752713
5	0x3f6bc423	0.92096156
6	0x3f6121aa	0.8794199
7	0x3f896eba	1.0736916
8	0x3f93c171	1.1543409
9	0x3f8b35df	1.0875815
10	0x3f6600bc	0.8984487
11	0x3f6c54c4	0.9231684
12	0x3f740b55	0.9532979
13	0x3f7829a2	0.96938527
14	0x3f6d64bf	0.9273185
15	0x3f80971a	1.0046113
16	0x3f6509b2	0.8946792
17	0x3f692500	0.9107208
18	0x3f8ff4b2	1.124655
19	0x3f908107	1.1289376
20	0x3f6a1e3c	0.91452384
21	0x3f7305d8	0.9493079
22	0x3f73b35f	0.95195574
23	0x3f6c0593	0.92196006
24	0x3f89a497	1.0753354
25	0x3f80f822	1.0075724
26	0x3f69b02a	0.9128443
27	0x3f5c42a2	0.86039174
28	0x3f9c93bb	1.2232584
29	0x3f523324	0.82109284
30	0x3f7143f9	0.94244343
31	0x3f93b293	1.1538872
32	0x3f6b42c9	0.9189878
33	0x3f8991bb	1.0747598
34	0x3f676e2a	0.9040247
35	0x3f80ff2d	1.0077873
36	0x3f60536c	0.8762729
37	0x3f75672f	0.9586057
38	0x3f854e89	1.0414592
39	0x3f6d9ff0	0.9282217
40	0x3f66251b	0.8990037
41	0x3f7d1ac8	0.9886899
42	0x3f837c3d	1.027229
43	0x3f899eb1	1.0751554
44	0x3f61a683	0.881447
45	0x3f766202	0.962433
46	0x3f84ad1c	1.0365329
47	0x3f988245	1.1914755
48	0x3f7e9dba	0.9945942
49	0x3f767a20	0.962801
50	0x3f69ff74	0.91405416
51	0x3f6d224d	0.92630464
52	0x3f73da61	0.95255095
53	0x3f8cca19	1.0999175
54	0x3f69a1e5	0.91262656
55	0x3f62d704	0.8860934
56	0x3f8700a1	1.0547067
57	0x3f81b1d8	1.0132399
58	0x3f60d5ac	0.8782604
59	0x3f70ea65	0.9410766
60	0x3f77a38d	0.96733934
61	0x3f638bde	0.88885295
62	0x3f62f88e	0.88660514
63	0x3f6179ec	0.88076663

network.5.bias f4 [64]
0	0xbeea9091	-0.4581342
1	0xbef4cfa2	-0.4781466
2	0xbe4e7def	-0.20165227
3	0x3c7ec615	0.015550156
4	0x3d2adbf5	0.041713674
5	0xbeb36b1b	-0.35042652
6	0xbed98f8e	-0.42492336
7	0xbcd909f5	-0.026494006
8	0xbc817f45	-0.015807757
9	0xbd6a5c0b	-0.057216685
10	0xbede787e	-0.43451303
11	0xbd9e5d93	-0.077326916
12	0xbf07a350	-0.5298357
13	0xbc74c1a8	-0.014938749
14	0xbea0666a	-0.31328136
15	0x3bc5b67d	0.006033717
16	0xbed69ef2	-0.4191814
17	0xbed78252	-0.42091614
18	0xbd3bd290	-0.045855105
19	0xbd20b99f	-0.039239522
20	0xbed24f12	-0.4107595
21	0xbef55494	-0.4791609
22	0xbd7f6696	-0.062353693
23	0xbeea2dfe	-0.45738214
24	0xbe041dd2	-0.12902
25	0xbca39fc2	-0.01997364
26	0xbf1151b1	-0.56765276
27	0xbe397a60	-0.18113089
28	0x3e29a35c	0.16566223
29	0xbdffd959	-0.12492628
30	0xbe9e79b7	-0.30952236
31	0xbda2bf15	-0.07946602
32	0xbdcaaac8	-0.09895855
33	0x3dd57906	0.10423474
34	0xbee6f66e	-0.45109886
35	0xbc7662d7	-0.015038214
36	0xbeb2c348	-0.34914613
37	0xbe99e583	-0.30057916
38	0x3cbd97dc	0.023143701
39	0xbeadd369	-0.33950356
40	0xbe96c6d0	-0.29448557
41	0x3d25bd04	0.040463462
42	0xbe5e5439	-0.21711816
43	0x3d96540a	0.07340248
44	0xbef4c0ff	-0.47803494
45	0xbece3150	-0.40271997
46	0xbd99a0c6	-0.07501368
47	0x3dd95c5c	0.10613319
48	0x3ddac68c	0.10682401
49	0xbd8e8cb9	-0.069604345
50	0xbf09e07b	-0.53858155
51	0xbedca2c9	-0.43092945
52	0xbea17b6d	-0.3153948
53	0xbbd0804e	-0.0063629514
54	0xbbc98c16	-0.0061507327
55	0xbee037f6	-0.43792695
56	0x3dd93ec4	0.10607675
57	0xbe00adad	-0.12566252
58	0xbe69313e	-0.2277269
59	0xbe4856fc	-0.19564432
60	0xbbc635e2	-0.006048904
61	0xbf03916f	-0.5139379
62	0xbf19b90d	-0.6004799
63	0xbea6d4d6	-0.32584256

network.5.running_mean f4 [64]
0	0xbf728ae7	-0.947432
1	0xbf95cc92	-1.1703055
2	0xbfb2f059	-1.3979598
3	0xbf650eaf	-0.8947553
4	0xbf0f961f	-0.5608844
5	0xbf2a8be4	-0.66619706
6	0xbf91d5df	-1.1393393
7	0x3f893d57	1.0721844
8	0xbf6b52c3	-0.9192316
9	0xbfa704ba	-1.3048317
10	0xbfbbfa15	-1.4685694
11	0x3e910a50	0.2832818
12	0xbfd57030	-1.6674862
13	0xbf65edd0	-0.89816
14	0xbf81a768	-1.0129213
15	0x3f645e41	0.8920632
16	0xbf3b136f	-0.7307653
17	0xbfb7df9e	-1.4365118
18	0xbf834164	-1.0254331
19	0xbfa686cf	-1.300989
20	0xbf57267b	-0.8404309
21	0xbf08f75b	-0.53502434
22	0x3f46799a	0.775293
23	0xbf91d2be	-1.1392438
24	0x3f79dce9	0.9760271
25	0xbf99085b	-1.1955675
26	0xbfb4abf5	-1.4114977
27	0xbf328a4e	-0.69742286
28	0xbf3ef218	-0.74588156
29	0xbe89e9be	-0.26936144
30	0x3e272450	0.16322446
31	0xbf785b7a	-0.9701458
32	0x3f4ae168	0.7925019
33	0xbf8095fe	-1.0045774
34	0xbf861da6	-1.0477798
35	0xbf15106a	-0.5822817
36	0xbf695634	-0.9114716
37	0xbf7602aa	-0.96097815
38	0xbf855c4e	-1.0418794
39	0xbed80c66	-0.4219696
40	0xbf63afc2	-0.8894006
41	0x3f286247	0.6577496
42	0xbdea7c6c	-0.11449513
43	0xbf42ed55	-0.7614339
44	0xbe4a606e	-0.19763348
45	0xbe393ed0	-0.18090367
46	0xbf2abcfa	-0.66694605
47	0xbf788faa	-0.97094214
48	0x3f08fbdb	0.535093
49	0xbf932d28	-1.1498156
50	0xbf89bc3c	-1.076057
51	0xbfa74e13	-1.3070701
52	0xbee6f1e4	-0.45106423
53	0x3fa3d027	1.2797898
54	0xbe72124b	-0.2363979
55	0xbf99c128	-1.2012072
56	0x3eed335b	0.46328244
57	0xbddb6973	-0.10713472
58	0xbeb05650	-0.3444085
59	0x3f6a485e	0.91516674
60	0x3f187fed	0.595702
61	0xbfa5dec4	-1.2958608
62	0xbfb0992c	-1.3796744
63	0xbf8cff71	-1.1015455

network.5.running_var f4 [64]
0	0x3f851f3c	1.0400157
1	0x3fa0d5c9	1.2565242
2	0x3f98b212	1.1929343
3	0x3fbe0012	1.4843771
4	0x3f66ede9	0.9020677
5	0x3f8da121	1.1064798
6	0x3fdb9328	1.7154284
7	0x3fc87fbf	1.5663985
8	0x3fce4945	1.611611
9	0x3fa361b9	1.2764198
10	0x3f9e495d	1.2366139
11	0x3fc02291	1.5010549
12	0x3f9048db	1.1272234
13	0x3fabecb6	1.3431613
14	0x3fd9a94b	1.7004789
15	0x3fb0622e	1.3779962
16	0x3f8d8fe1	1.1059533
17	0x3fcc43dd	1.595821
18	0x3faa0ff1	1.3286115
19	0x3fbd6cee	1.4798868
20	0x3f8b2ef9	1.087371
21	0x3f8e6cf7	1.1127003
22	0x3f535889	0.8255697
23	0x3f764e24	0.96212983
24	0x3f76b0d2	0.96363556
25	0x3fb59a2d	1.4187676
26	0x3fc6d8b1	1.5534879
27	0x3fbed779	1.4909507
28	0x40076cbe	2.116012
29	0x3f578f33	0.8420288
30	0x3f9b5aed	1.2137123
31	0x3fa8a3da	1.3175004
32	0x3f813e3f	1.0097121
33	0x3fb7c6b3	1.4357513
34	0x3f4031d7	0.7507605
35	0x3fb0d43c	1.3814769
36	0x3f9849a0	1.1897469
37	0x3fdb2d2d	1.7123162
38	0x3f7263be	0.94683444
39	0x3f89b8a1	1.0759469
40	0x3f998610	1.1994038
41	0x40176281	2.3653872
42	0x3f873e8f	1.0565966
43	0x3fbbe2ab	1.4678549
44	0x3f5b4fc6	0.856686
45	0x3f63bc36	0.8895906
46	0x3f802127	1.0010117
47	0x4003f191	2.061619
48	0x3ff2e117	1.8974942
49	0x3f9337ee	1.1501443
50	0x3f7c973d	0.9866827
51	0x3f9a1289	1.2036906
52	0x3f4c4c7a	0.79804194
53	0x3f8f23cd	1.11828
54	0x3f8db8c6	1.1072013
55	0x3f5739fb	0.84072846
56	0x3fc06097	1.5029477
57	0x3f6f4473	0.9346382
58	0x3f3398c4	0.70154977
59	0x3fb5019b	1.4141115
60	0x3f6a0e4b	0.9142806
61	0x3fa5c03e	1.2949293
62	0x3f7e2da7	0.9928841
63	0x3f8658b7	1.0495824

network.8.weight f4 [32, 64]
0	0xbd9453a1	-0.072425134
1	0xbdf60889	-0.12013347
2	0xbe8b95cf	-0.27262732
3	0xbe2cf2d3	-0.16889505
4	0x3e87b52b	0.26505408
5	0x3e346f9d	0.17620702
6	0x3de311b9	0.11087365
7	0xbd34cd2b	-0.044140976
8	0x3d7e4da6	0.06208577
9	0xbd71f928	-0.059075505
10	0xbe72262e	-0.23647377
11	0x3e597554	0.21236163
12	0x3d65a598	0.056066126
13	0x3e46a70f	0.19399665
14	0xbe3ee87f	-0.18643378
15	0x3e050fe9	0.1299435
16	0x3e25460c	0.16140002
17	0xbd8d9ad5	-0.069142975
18	0x3df4588c	0.119309515
19	0x3e121781	0.14266779
20	0xbdf945d9	-0.121715255
21	0x3e26a081	0.16272165
22	0x3dd8eee8	0.10592443
23	0xbcf7404d	-0.030182028
24	0x3e3ef6f1	0.18648888
25	0x3dc520b7	0.096253805
26	0x3cb5deec	0.022201024
27	0x3e0d9302	0.1382561
28	0xbe042194	-0.12903434
29	0xbd9ae2cb	-0.075627886
30	0xbca9523a	-0.020669091
31	0x3dde294e	0.10847722
32	0x3e728a79	0.23685636
33	0xbde33588	-0.11094195
34	0xbc5341ac	-0.012894075
35	0xbdd9a635	-0.106274046
36	0xbe0b7082	-0.13617137
37	0x3e25549a	0.16145554
38	0x3d440c76	0.047863446
39	0x3e3998da	0.18124714
40	0xbdf6ce21	-0.12051035
41	0xbcf8166c	-0.03028413
42	0xbe54f743	-0.20797448
43	0x3e54666d	0.20742197
44	0xbd95bc37	-0.0731129
45	0x3d344c28	0.04401794
46	0xbde1e54c	-0.11030063
47	0x3c3aabac	0.011393469
48	0x3e7a5a91	0.24448611
49	0xbe82d7fd	-0.2555541
50	0x3e35d092	0.17755345
51	0x3b03d630	0.002011668
52	0x3e0f5c98	0.14000165
53	0xbe0ff40a	-0.14057937
54	0x3dd4ca57	0.10390156
55	0x3e5c00f8	0.21484745
56	0x3e5dd2cf	0.21662448
57	0xbdb0802d	-0.086181976
58	0x3d41174b	0.047141355
59	0xbda5cb96	-0.080954716
60	0x3e41eb89	0.18937506
61	0x3dea3568	0.11435968
62	0x3daa05ec	0.08301911
63	0xbe6fd4e7	-0.2342106
64	0x3e3acc13	0.1824191
65	0x3dc63d27	0.09679633
66	0xbea87b42	-0.32906538
67	0xbe1bd320	-0.15217257
68	0x3e06e09e	0.13171622
69	0xbe1d5dc4	-0.153678
70	0x3da3e729	0.08003075
71	0x3c1a01c8	0.009399839
72	0xbe7395a4	-0.23787552
73	0xbeb2e0a9	-0.34937027
74	0xbdc23bc0	-0.09484053
75	0xbdd9b029	-0.10629303
76	0xbd2014a7	-0.039082196
77	0x3e31b682	0.17354777
78	0x3e86de15	0.2634131
79	0xbcebc10b	-0.028778573
80	0x3e0424c0	0.12904644
81	0x3e5dfc53	0.21678285
82	0xbdc71e8d	-0.09722624
83	0xbe99e463	-0.30057058
84	0x3d69ada3	0.05705036
85	0x3e340634	0.17580491
86	0xbe7a3339	-0.24433602
87	0x3dc1316a	0.09433253
88	0xbe0cb83b	-0.13742153
89	0xbe2d3866	-0.16916046
90	0x3d8003cf	0.062507264
91	0xbda5ec79	-0.08101744
92	0xbe297b4c	-0.1655094
93	0x3e3eb745	0.186246
94	0xbdae5110	-0.08511555
95	0xbe2a85b5	-0.16652568
96	0x3e0fdd83	0.14049344
97	0x3d9f3f6d	0.077757694
98	0xbd97ae3c	-0.074062794
99	0xbdc37fdd	-0.09545872
100	0xbcec4992	-0.028843675
101	0xbd6a19c5	-0.057153482
102	0xbe7628d8	-0.24039018
103	0x3de2a20d	0.11066065
104	0x3e7bd3c6	0.24592504
105	0xbe6b7428	-0.22993529
106	0x3ea4dd88	0.32200265
107	0xbcb7c88b	-0.022434494
108	0x3e5ea78c	0.21743602
109	0xbdd03d3a	-0.10167928
110	0xbd3a60a4	-0.04550232
111	0x3bc71e32	0.0060765976
112	0x3d73ee64	0.05955352
113	0xbe3843cc	-0.17994612
114	0x3e09c659	0.1345457
115	0x3e5a95ca	0.21346202
116	0xbe134f97	-0.1438583
117	0x3e0d44ab	0.13795726
118	0xbe115024	-0.14190727
119	0x3e5b8688	0.21438038
120	0xbe4636a8	-0.19356787
121	0xbe0dea9f	-0.13859032
122	0x3dc2d1ba	0.095126584
123	0xbe097c42	-0.13426307
124	0xbe627a38	-0.22116935
125	0x3e5c452b	0.2151076
126	0x3e91cc43	0.28476152
127	0x3e0aa018	0.13537633
128	0x3e82b591	0.2552915
129	0x3dc0717a	0.09396644
130	0xbd5fbdf8	-0.054624528
131	0x3c229cdd	0.009925094
132	0xbddc51da	-0.107577994
133	0xbdc325ec	-0.095287174
134	0xbcd4af95	-0.02596263
135	0x3db3358b	0.08750447
136	0x3e046bce	0.12931749
137	0xbe102660	-0.14077139
138	0xbe2719ed	-0.16318484
139	0x3e171b2e	0.14756462
140	0xbe2889c3	-0.16458802
141	0x3e211414	0.15730315
142	0x3ea5f2a3	0.3241168
143	0xbe596eb0	-0.2123363
144	0x3c6ca44f	0.014443471
145	0x3df2851a	0.11841793
146	0xbda893ba	-0.082313016
147	0xbdd223e1	-0.102607496
148	0xbca41fef	-0.020034758
149	0xbe96a832	-0.29425198
150	0xbcbd09f1	-0.02307603
151	0x3e24d8b8	0.16098297
152	0x3e6303f4	0.22169477
153	0xbe238904	-0.15970236
154	0xbd10bc43	-0.03533579
155	0xbe14843b	-0.14503567
156	0x3e8e0639	0.27739123
157	0xbe3df308	-0.1854974
158	0xbd548741	-0.0518868
159	0xbcea42cc	-0.028596304
160	0xbcd93873	-0.026516175
161	0x3ea301d5	0.31837335
162	0xbe6b2364	-0.22962719
163	0xbe75c1aa	-0.23999658
164	0xbe4fc452	-0.20289734
165	0xbda435f5	-0.08018104
166	0x3d4dc7e1	0.050239448
167	0x3c2ca308	0.010536917
168	0xbb298453	-0.0025866225
169	0x3d599ae8	0.053126246
170	0x3e695275	0.22785361
171	0x3cb5a25b	0.022172144
172	0x3e0c200b	0.13684098
173	0xba111579	-0.0005534511
174	0xbe71d806	-0.23617563
175	0x3e1a755a	0.15083829
176	0x3db78177	0.0896024
177	0x3da49ab6	0.08037321
178	0xbc34c7fe	-0.01103401
179	0x3ce83d1a	0.028349448
180	0x3ea6af07	0.3255541
181	0xbe3f0e05	-0.18657692
182	0x3e06adbf	0.13152216
183	0x3e39e6ad	0.18154402
184	0x3db29cd5	0.087213196
185	0x3e1ec4f6	0.15504822
186	0x3de67327	0.11252432
187	0x3dce8fa1	0.10085989
188	0xbe321ae7	-0.17393075
189	0x3cf4c8aa	0.02988084
190	0xbde33cae	-0.11095558
191	0xbce4a70a	-0.027911682
192	0xbc0080a1	-0.0078431675
193	0x3e806150	0.25074244
194	0xbd9c9875	-0.07646266
195	0xbd404410	-0.04693991
196	0xbe5b2006	-0.21398935
197	0x3d0e4887	0.034737136
198	0x3e4ac560	0.19801855
199	0xbd6b3694	-0.057425097
200	0xbeb1def5	-0.34740415
201	0xbe5f742a	-0.21821657
202	0x3e2de02c	0.16980046
203	0xbd19c1cd	-0.03753834
204	0x3e05f6a7	0.13082372
205	0xbe35e256	-0.17762122
206	0x3e30d32f	0.1726806
207	0xbbc1434e	-0.005897916
208	0x3d45241f	0.04813015
209	0x3e1d4d30	0.15361476
210	0xbe90c50e	-0.2827534
211	0xbe9a69f4	-0.3015896
212	0x3e3da9f9	0.1852187
213	0xbd6401e7	-0.055665877
214	0xbe7c370a	-0.2463037
215	0xbdfdc606	-0.123912856
216	0x3d7f0700	0.062262535
217	0xbcce6b9a	-0.025197793
218	0x3e1b1eac	0.15148419
219	0x3dee2377	0.11627858
220	0xbecedcad	-0.40402737
221	0xbe556d31	-0.20842434
222	0x3dec0749	0.11524827
223	0xbd629a85	-0.055323143
224	0x3be7b5c1	0.0070712273
225	0xbd32b832	-0.043632694
226	0x3e9d0cb9	0.3067377
227	0xbdab9860	-0.083786726
228	0x3e58e8ec	0.21182603
229	0x3e73a374	0.23792821
230	0xbe9592f0	-0.29213667
231	0x3d13b3e7	0.03606024
232	0x3e72d232	0.23712996
233	0x3e16aaf9	0.14713658
234	0xbd80f1ae	-0.06296097
235	0x3d0a0eca	0.03370551
236	0xbe2ae7e8	-0.16690028
237	0x3e0dbc72	0.13841417
238	0xbd957aab	-0.07298788
239	0xbe0f968d	-0.14022274
240	0x3d2b12bd	0.041765917
241	0xbc9c54b6	-0.019083362
242	0x3dff2e25	0.12459973
243	0x3e6b9a86	0.23008165
244	0x3dceb191	0.10092462
245	0x3dc034a1	0.09385038
246	0x3e0983b5	0.13429148
247	0x3e341589	0.1758634
248	0xbe1b7f7b	-0.15185349
249	0xbe89fbdb	-0.26949963
250	0x3d92d9e2	0.07170464
251	0x3ca31021	0.019905152
252	0x3d620a80	0.055185795
253	0xbd32f719	-0.043692682
254	0x3d563e77	0.052305665
255	0xbde408b4	-0.111344725

network.8.bias f4 [32]
0	0x361242e7	2.1794638e-06
1	0x39310304	0.00016881159
2	0xb8054c94	-3.178099e-05
3	0xb8721c53	-5.7723675e-05
4	0xb9cbeb04	-0.00038894278
5	0xb8e5e2ee	-0.0001096184
6	0xb8093be2	-3.2719116e-05
7	0xb85a9d38	-5.212167e-05
8	0x378ae440	1.655717e-05
9	0x3839ec00	4.432723e-05
10	0x392e1836	0.00016602952
11	0x3989e06d	0.00026297887
12	0x381fde30	3.8115482e-05
13	0x39c98f79	0.00038444603
14	0x39e37fff	0.00043392178
15	0xb84ad2ec	-4.835699e-05
16	0x39aa51e5	0.00032485943
17	0x37f4190d	2.9098732e-05
18	0x36e4b90e	6.8164727e-06
19	0x38925bd6	6.978928e-05
20	0xb95deee4	-0.00021165196
21	0xb9babd24	-0.00035617605
22	0xb97efce4	-0.00024317537
23	0xb59fef80	-1.1916127e-06
24	0xb95962e1	-0.00020731568
25	0xb96781d9	-0.00022078249
26	0x39f8fd97	0.00047491185
27	0xb94ee928	-0.00019732548
28	0xb87fed97	-6.101801e-05
29	0xb961a4b0	-0.00021519023
30	0xb998dbb8	-0.00029155402
31	0xb61f3cec	-2.3728307e-06

network.9.weight f4 [32]
0	0x3f43c84c	0.76477504
1	0x3f8ddc0a	1.1082776
2	0x3f6461d1	0.89211756
3	0x3f6fb88e	0.93640983
4	0x3f9838f8	1.1892385
5	0x3f406328	0.751513
6	0x3fa46105	1.2842108
7	0x3f4ef8ee	0.80848587
8	0x3f762aa2	0.961588
9	0x3f656484	0.896065
10	0x3f9fa387	1.247178
11	0x3f81b39f	1.0132941
12	0x3f485a42	0.7826272
13	0x3f854d39	1.0414191
14	0x3f85f1e3	1.0464443
15	0x3f9e8fd1	1.2387639
16	0x3f7b5f38	0.9819217
17	0x3f4b1922	0.79335225
18	0x3f423009	0.75854546
19	0x3f919a4a	1.137521
20	0x3f789b29	0.97111756
21	0x3f771589	0.96517235
22	0x3f83211b	1.0244478
23	0x3f434816	0.7628187
24	0x3f8d2bc8	1.1028986
25	0x3f72567c	0.94663215
26	0x3f7e8c07	0.99432415
27	0x3f8d3828	1.1032763
28	0x3f802a45	1.00129
29	0x3f8c1050	1.0942478
30	0x3f7f8c9d	0.99823934
31	0x3f34dc5b	0.70648736

network.9.bias f4 [32]
0	0xbe71e653	-0.23623018
1	0xbda8af79	-0.08236594
2	0xbe32bbdc	-0.17454475
3	0xbdfadc9c	-0.12249109
4	0xbd9bf579	-0.076151796
5	0xbe5bf03a	-0.21478358
6	0xbce9c34c	-0.028535508
7	0xbe2ce4d8	-0.16884172
8	0x3e31328c	0.17304438
9	0xbdf48251	-0.119389184
10	0x3dd5a755	0.10432307
11	0xbdf2b434	-0.11850777
12	0xbe44f8cd	-0.19235535
13	0xbe45f0d5	-0.19330151
14	0xbe1c65a5	-0.1527315
15	0x3d5277e6	0.051383875
16	0xbe444e7c	-0.19170564
17	0xbe405362	-0.18781808
18	0xbe4bd68e	-0.19906065
19	0xbe542501	-0.20717241
20	0xbe5dd532	-0.21663359
21	0xbe19f23e	-0.15033814
22	0xbdbdc171	-0.09265412
23	0xbe7d10fb	-0.24713509
24	0x3dd25aa3	0.10271194
25	0xbe4a5ed8	-0.19762743
26	0xbdf6ac81	-0.12044621
27	0xbe4e8392	-0.20167378
28	0xbdca45be	-0.098765835
29	0xbe29a691	-0.16567446
30	0xbe593cca	-0.21214595
31	0xbe907c3f	-0.28219792

network.9.running_mean f4 [32]
0	0x3f0c1128	0.5471368
1	0xbf55d8af	-0.8353376
2	0x3ea7512e	0.32679123
3	0xbf43a58b	-0.76424474
4	0xbf9a4d62	-1.2054865
5	0x3e5ad57e	0.21370503
6	0xbf5fb48e	-0.8738488
7	0xbdba73a4	-0.09104088
8	0x3f664740	0.8995247
9	0x3db57b6c	0.088614315
10	0xbf8bbf3d	-1.0917736
11	0xbf979304	-1.1841741
12	0x3efa6498	0.48904872
13	0xbf9f9758	-1.2468061
14	0xbfa47878	-1.2849264
15	0xbf6d53c7	-0.9270596
16	0xbf9f5a95	-1.2449518
17	0xbd1b79dc	-0.03795801
18	0xbdfbf5f6	-0.12302773
19	0xbf4dbef8	-0.8036952
20	0xbf2996c5	-0.6624568
21	0xbf5758b6	-0.8411974
22	0x3e680ca6	0.22661075
23	0x3e26d00d	0.16290303
24	0x3ec5d03c	0.38635433
25	0xbf4fedac	-0.81222034
26	0xbf8d3340	-1.1031265
27	0xbf674994	-0.90346646
28	0xbeab76b4	-0.33489
29	0xbf73e13d	-0.9526556
30	0xbf85d030	-1.0454159
31	0x3d9c2f4c	0.07626209

network.9.running_var f4 [32]
0	0x3f326a48	0.6969342
1	0x3fcea6ca	1.614465
2	0x3f6a8d44	0.91621804
3	0x3fe442a7	1.7832841
4	0x3feed417	1.8658475
5	0x3f0d086e	0.5509099
6	0x3fa50c52	1.2894385
7	0x3f760add	0.96110326
8	0x3f87da1f	1.061344
9	0x3f84ddff	1.0380248
10	0x3f9546d5	1.1662241
11	0x3ff425cd	1.9074036
12	0x3f4ca8d5	0.7994512
13	0x4001e7a3	2.029763
14	0x3ff99628	1.9498949
15	0x3fc3ad7a	1.5287316
16	0x3fccc5a1	1.5997812
17	0x3ed2ab55	0.4114634
18	0x3f1e9f1b	0.61961526
19	0x3f7e5f49	0.99364144
20	0x3fcad265	1.5845457
21	0x3f9094b2	1.1295378
22	0x3f668ee4	0.90061784
23	0x3f8af4f6	1.0856006
24	0x3f3257cf	0.69665235
25	0x3fb31ba6	1.3992813
26	0x3ff6cf4a	1.928201
27	0x3faed071	1.3657361
28	0x3f9e5a53	1.2371315
29	0x3fbbf7af	1.4684962
30	0x4003aff9	2.0576155
31	0x3f0ce8f7	0.55042976

network.12.weight f4 [1, 32]
0	0xbb4735c3	-0.0030397035
1	0x3e854c55	0.260348
2	0x3dd5c579	0.104380555
3	0x3eb2a4c3	0.34891328
4	0x3e8f236e	0.27956718
5	0xbd8ef3ea	-0.06980117
6	0x3e60fdbb	0.2197179
7	0x3cc64b1e	0.02420574
8	0x3e088cd4	0.13334972
9	0xbdb6b663	-0.08921506
10	0x3e43e168	0.19128954
11	0x3eaa3c9d	0.3324937
12	0x3cc89d43	0.02448905
13	0x3eb3e2c6	0.35133952
14	0x3ea4637b	0.32107148
15	0x3e63b1fe	0.22235867
16	0x3eb3381b	0.35003743
17	0x3ca17bff	0.019712446
18	0xbc1f45f3	-0.009721267
19	0x3e8247d9	0.2544544
20	0x3eb1e937	0.3474824
21	0x3e2fbbbf	0.17161463
22	0x3e38ea44	0.18058115
23	0xbb2d327e	-0.00264278
24	0x3dddc77b	0.108290635
25	0x3ea5b5c5	0.32365242
26	0x3e9bd7ca	0.3043807
27	0x3e9ca212	0.305924
28	0x3e1422f3	0.14466457
29	0x3e9e3899	0.30902556
30	0x3ec204d0	0.37894297
31	0xbd46050a	-0.04834465
