NoteBooks/TCN/best_model.pth (torch, 735029 bytes, 33 tensors)

tcn.network.0.conv1.weight f4 [62, 31, 2]
0.09000086 0.098207735 -0.030195232 0.11751483 -0.021743964 -0.009579406 -0.14654887 -0.010234983
0.10958427 -0.093614556 0.18424827 0.018858332 0.042600926 0.028905164 -0.015096989 -0.061364874
0.12425832 0.0038210538 -0.1265834 0.004807813 -0.019089952 -0.05509256 0.07119281 0.054363515
0.06915039 -0.09146026 -8.4939375e-06 -7.121989e-05 -0.086895935 -0.17577504 0.23675184 0.039100364
0.095143184 0.047667533 -0.29531732 -0.052446138 0.02686947 0.07043021 0.01631075 -0.10336818
-0.002401034 -0.06268193 0.09298896 0.15644784 0.10483347 -0.09531042 0.12948777 -0.013113691
0.0483645 -0.085568786 -0.061685704 -0.011374042 -0.12995371 0.15823808 0.07087172 0.0795781
-0.10873544 -0.116107754 -0.078441106 -0.2681887 -0.1409057 -0.18609875 0.039003085 -0.043694466
0.03360885 -0.0275924 0.15476398 -0.08596902 -0.12093233 -0.12086642 0.06275663 -0.008588427
-0.064447194 -0.18128958 -0.087333396 0.0060581383 -0.034401864 0.10738496 -0.026748205 0.040547255
-0.21903314 -0.15155302 0.11699543 0.095062666 0.059573963 0.060059853 0.025291981 0.0013404107
2.0869073e-05 -3.6531743e-05 0.062181402 -0.056099314 0.1816268 0.20186272 -0.1263376 -0.077519506
0.1728522 -0.06682461 0.008367195 -0.1293089 0.0053116707 0.07053076 -0.029362408 -0.10339796
0.051791817 -0.034251787 -0.05534271 0.07700978 -0.08412021 0.067159794 0.08688154 -0.029179526
0.12125832 -0.068800665 -0.085358776 0.03875475 0.06357419 -0.016536599 -0.005165353 -0.05616526
0.10654461 -0.020199846 0.081910275 -0.05690188 -0.052698288 -0.04302623 -0.049528927 -0.10793781
0.08465919 -0.035660453 0.11645111 0.046482436 -0.2038592 -0.0075111864 -0.030220198 -0.052656393
-0.08490609 -0.09130954 0.03651119 -0.0052796095 0.039091576 -0.16922994 0.047868434 -0.11773245
0.010640248 0.08637618 0.032571845 0.21359213 0.057798903 0.02041809 2.5570314e-05 2.5322224e-05
0.0030530712 -0.13737635 0.11425043 -0.08601367 0.018062087 0.02022643 0.0906127 -0.12166001
0.09458505 0.018378263 -0.0022817666 -0.1153317 0.10412121 0.021606775 -0.11320234 0.051240254
0.06288851 -0.011333752 -0.07985176 0.009097546 -0.012810618 -0.12820852 0.016833572 -0.013300593
-0.057978254 0.13960056 0.16487315 -0.038446784 -0.003189028 0.07103586 0.037822414 -0.090559624
0.0659786 0.039056897 0.0028453842 -0.06718002 0.021991095 0.066804826 0.015852878 0.017017279
-0.04808547 -0.020113185 -0.0060061747 -0.02199236 -0.046838947 0.0036275734 -0.07187739 -0.021259042
-0.071911156 0.019491438 0.14477454 -0.010518317 -0.051765285 -0.061969265 -0.12422962 -0.11540151
-0.10144706 -0.0002320011 -0.03382996 0.0017833342 -0.000121260404 -7.111716e-05 -0.02306811 0.12087442
0.11402586 0.102515616 0.061527807 -0.030797813 -0.13557814 0.07832329 -0.023739692 0.033022173
-0.04812908 0.15758795 -0.013268099 -0.055213373 -0.002101679 -0.039491802 -0.15295304 0.09098383
-0.00818646 0.110809796 0.07305799 0.038587254 0.028726334 -0.14463225 -0.09568101 -0.08913384
0.045555837 -0.07968192 0.005457351 -0.087871015 -0.07511798 -0.07702529 -0.08003081 0.05679677
-0.09417509 0.022644378 -0.14065401 -0.1926016 -0.04262551 -0.10001528 -0.035752628 -0.11713701
00000000: 5f52 b83d 2321 c93d fe5b f7bc 9dab f03d
00000010: 6620 b2bc f1f2 1cbc e810 16be a1b0 27bc
00000020: b86d e03d fdb8 bfbd 94ab 3c3e ca7c 9a3c
00000030: 4f7e 2e3d 86ca ec3c 5d59 77bc bc59 7bbd
00000040: 257b fe3d a56a 7a3b 149f 01be dc8a 9d3b
00000050: 8862 9cbc bca8 61bd 89cd 913d 47ac 5e3d
00000060: b89e 8d3d 844f bbbd 2f81 0eb7 e35b 95b8
00000070: 7ff6 b1bd 5ffe 33be 136f 723e b427 203d
00000080: 6eda c23d 083f 433d d533 97be c3d1 56bd
00000090: 5d1d dc3c b73d 903d 1f9e 853c b2b2 d3bd
000000a0: ab5a 1dbb 625f 80bd ff70 be3d dd33 203e
000000b0: eeb2 d63d 1c32 c3bd 7198 043e ceda 56bc
000000c0: db19 463d b03e afbd 26aa 7cbd 315a 3abc
000000d0: 9612 05be 2a09 223e 3125 913d d8f9 a23d
000000e0: b0b0 debd e7c9 edbd bba5 a0bd 0750 89be
000000f0: 9549 10be ac90 3ebe b3c1 1f3d f8f8 32bd
00000100: 6fa9 093d 7509 e2bc 737a 1e3e 8710 b0bd
00000110: 5fab f7bd d088 f7bd 8c86 803d 79b6 0cbc
00000120: e4fc 83bd faa3 39be dadb b2bd 5983 c63b
00000130: f8e8 0cbd a5ec db3d 0d1f dbbc e114 263d
00000140: 394a 60be b730 1bbe 4d9b ef3d 37b0 c23d
00000150: d403 743d 5201 763d 2131 cf3c b8b0 af3a
00000160: fe0f af37 a939 19b8 edb1 7e3d 65c8 65bd
00000170: 60fc 393e 1ab5 4e3e a55e 01be 8cc2 9ebd
00000180: 2b00 313e 57db 88bd 8f16 093c 8d69 04be
00000190: 860d ae3b 6e72 903d 6f89 f0bc 4fc2 d3bd
000001a0: a823 543d 9a4b 0cbd 0aaf 62bd 4eb7 9d3d
000001b0: 3747 acbd 138b 893d f3ee b13d e709 efbc
000001c0: 4856 f83d 5de7 8cbd 95d0 aebd 4dbd 1e3d
000001d0: 2f33 823d c377 87bc 1f42 a9bb 8b0d 66bd
000001e0: 0f34 da3d 267a a5bc 93c0 a73d f211 69bd
000001f0: 29da 57bd 463c 30bd d8de 4abd 800e ddbd
00000200: cc61 ad3d b210 12bd eb7d ee3d 5e64 3e3d
00000210: 77c0 50be 6620 f6bb 5990 f7bc 3bae 57bd
00000220: 3ee3 adbd 7f00 bbbd c28c 153d 9300 adbb
00000230: 7d1e 203d 9d4a 2dbe b111 443d b61d f1bd
00000240: 6f54 2e3c ffe5 b03d 0e6a 053d e5b7 5a3e
00000250: 8bbe 6c3d d743 a73c d57f d637 106b d437
00000260: 0916 483b 63ac 0cbe 21fc e93d ef27 b0bd
00000270: f1f6 933c e6b1 a53c 2793 b93d e228 f9bd
00000280: cfb5 c13d 038e 963c b189 15bb 0733 ecbd
00000290: 803d d53d b100 b13c a1d6 e7bd 4de1 513d
000002a0: b1cb 803d 34b1 39bc 5289 a3bd e00d 153c
000002b0: a0e3 51bc 1849 03be 8fe6 893c bbea 59bc
000002c0: 9b7a 6dbd 73f3 0e3e 82d4 283e 607a 1dbd
000002d0: 03ff 50bb 407b 913d adeb 1a3d 5377 b9bd
000002e0: ca1f 873d 20fa 1f3d a079 3a3b ae95 89bd
000002f0: ab26 b43c f8d0 883d e5dd 813c d267 8b3c
00000300: 45f5 44bd 68c4 a4bc 72cf c4bb 5229 b4bc
00000310: 32da 3fbd 95bc 6d3b 7434 93bd 7127 aebc
00000320: 2846 93bd 82ac 9f3c c73f 143e 0555 2cbc
00000330: d607 54bd 7cd3 7dbd 196c febd a057 ecbd
00000340: 7ac3 cfbd 5245 73b9 4991 0abd c4be e93a
00000350: 2f4d feb8 bc24 95b8 55f9 bcbc 028d f73d
00000360: 6486 e93d b5f3 d13d 9504 7c3d b24b fcbc
00000370: ffd4 0abe f667 a03d be79 c2bc 4242 073d
00000380: 0023 45bd bc5e 213e 7162 59bc 6b27 62bd
00000390: 53bc 09bb 28c2 21bd b99f 1cbe bb55 ba3d
000003a0: 8020 06bc 3ff0 e23d 6d9f 953d ab0d 1e3d
000003b0: 7d53 eb3c 7a1a 14be 68f4 c3bd cd8b b6bd
000003c0: c298 3a3d 4630 a3bd 94d3 b23b b8f5 b3bd
000003d0: 75d7 99bd 6fbf 9dbd 31e7 a3bd bba3 683d
000003e0: dfde c0bd b480 b93c 9b07 10be 5b39 45be
000003f0: 1698 2ebd d0d4 ccbd 5971 12bd 87e5 efbd

tcn.network.0.conv1.bias f4 [62]
0.017032081 -0.024273708 -0.21302238 -0.14585698 -0.06737675 -0.1185725 -0.027231403 0.0009499845
-0.020117331 0.07481466 -0.18652143 -0.09209527 -0.09890709 -0.12513414 0.031802837 -0.0048973626
-0.03457292 2.0412876e-05 0.009442419 0.074859604 0.0015930054 -0.004544379 -0.080313005 0.0060822135
-0.14609131 -0.061712198 -0.20444272 -0.11121421 -0.12737638 0.019026114 -0.06277202 0.00450157
-0.070465736 0.17815639 0.017317044 -0.15299979 0.086529925 -0.17848513 -0.07443202 -0.029647905
0.04777467 -0.10142452 -0.08578633 0.052775018 0.04998691 -0.13925368 -0.06923352 -0.16039555
0.06780372 -0.011183051 0.10357867 -0.101300836 -0.27540696 -0.056099467 -0.10063811 -0.02921477
-0.025267718 -0.12574962 -0.03404756 -0.08427179 -0.026359223 -0.1857717
00000000: dd86 8b3c a8d9 c6bc 8a22 5abe 885b 15be
00000010: d2fc 89bd 24d6 f2bd 6414 dfbc 6108 793a
00000020: 1acd a4bc 6e38 993d 79ff 3ebe 729c bcbd
00000030: cd8f cabd 2a23 00be b143 023d 0e7a a0bb
00000040: 569c 0dbd 513c ab37 60b4 1a3c fe4f 993d
00000050: 64cc d03a 04e9 94bb 257b a4bd 4e4d c73b
00000060: f698 15be eec5 7cbd 6f59 51be 47c4 e3bd
00000070: f46e 02be a7dc 9b3c 9e8e 80bd e881 933b
00000080: 5750 90bd a16e 363e 79dc 8d3c faab 1cbe
00000090: 9a36 b13d cec4 36be d16f 98bd 2ae0 f2bc
000000a0: 5faf 433d a9b7 cfbd beb0 afbd 9e2a 583d
000000b0: 13bf 4c3d 8498 0ebe 4eca 8dbd bb3e 24be
000000c0: addc 8a3d 1e39 37bc 0e21 d43d d076 cfbd
000000d0: 2402 8dbe 8ec8 65bd 5a1b cebd d053 efbc
000000e0: 3ffe cebc 82c4 00be 7475 0bbd b096 acbd
000000f0: 4cef d7bc f03a 3ebe

tcn.network.0.conv2.weight f4 [62, 62, 2]
-0.11852036 -0.22938259 0.087630905 0.11594988 0.09896041 0.044657778 0.042605557 -0.022000479
0.095826305 0.033023056 0.042070728 -0.14164008 0.000328497 0.083516754 -0.031567026 0.04464248
0.007814599 -0.02796016 0.054476134 -0.07499239 -0.018933456 -0.047267694 -0.020693846 -0.02141975
-0.057841152 0.004915537 -0.11805358 -0.092841364 -0.084018745 0.0012092975 0.017217387 -0.03944561
-0.012454995 -0.040107954 -0.034016773 0.09685217 0.10927318 -0.093707025 0.12825838 0.008984026
-0.114061944 -0.010708859 -0.18584518 -0.18479931 0.061447375 0.03168244 -0.083258785 -0.1817745
0.11150731 0.13041453 -0.048064526 -0.010476846 -0.010741711 -0.068286695 -0.040624343 -0.118029915
-0.045244396 -0.08025389 -0.16135806 0.10693799 -0.033479583 0.066036455 -0.17253713 -0.06107387
0.069823794 0.033824943 -0.089294404 -0.12525013 -0.091909185 0.072815575 0.08816392 0.059260406
0.07007168 0.1417557 0.07957353 -0.0003788514 0.06417881 0.033371203 -0.052687567 0.01578963
0.061537255 0.015739996 -0.1390499 -0.05641153 -0.124190174 -0.09093688 0.0059152804 0.08749897
-0.0047606775 -0.0066175926 0.04641823 -0.088666 -0.09249777 0.058663316 0.09494466 0.00016871018
-0.10110402 -0.06029762 -0.04556489 -0.023606982 -0.06080958 -0.083040506 -0.05550184 -0.03637242
-0.07807977 0.07019232 -0.21046957 -0.1334608 0.06287075 0.023533795 0.019323954 -0.0747234
0.13033931 0.009091401 0.0936617 0.0835817 0.0065927203 0.08592433 -0.17522505 -0.015176602
-0.013754287 -0.03305 0.039804544 0.052680127 -0.032843035 0.024206668 0.03122626 -0.10077258
0.013764482 0.0007439773 0.031579852 -0.037702024 0.050387163 -0.061573368 0.012055602 0.078208126
-0.06490176 0.010374238 0.039675187 -0.0034260517 -0.040853728 0.034189608 -0.105758145 0.07004221
-0.0023335586 0.025879368 -0.048324477 0.013733285 -0.029940818 0.0002457043 -0.012985605 -0.09210892
-0.04939224 -0.019411962 -0.011679207 0.026858494 -0.00022535464 -0.016242344 0.039260343 -0.09393392
-0.013352315 0.020195197 0.01996816 -0.0036296332 -0.022304008 0.021457028 -0.04548264 -0.011346375
0.04490751 -0.02921472 0.013871657 -0.07331152 -0.05609173 -0.015192681 0.021200087 -0.05889271
-0.0020260625 -0.02474673 0.06608291 -0.084700555 -0.040755566 -0.06227169 -0.049350858 -0.043825068
-0.09110185 0.008915607 -0.046800543 0.007512075 -0.09850125 -0.022160826 -0.112366326 0.101437666
0.0385237 0.029747827 -0.06446981 0.03855776 -0.10846881 0.009777834 -0.06609342 -0.074171565
-0.1304134 -0.13829783 -0.01700908 -0.049510945 -0.07593605 0.058507282 -0.0599667 -0.032616656
-0.033926364 0.030503884 0.017744672 -0.008937181 -0.024619237 -0.08757576 0.036897242 -0.00913864
-0.09138001 -0.022908641 -0.04649022 -0.0644903 -0.016579637 -0.07339386 -0.042200495 -0.083393216
-0.052186027 -0.057458512 -0.03422963 0.042234894 -0.085750476 -0.07876974 -0.109352656 -0.019138915
-0.05065475 -0.11447304 -0.019641066 -0.087921254 0.053629942 0.02758721 -0.04964335 -0.08598999
-0.0030688096 -0.0021184848 -0.057571676 -0.0016617657 0.028037392 -0.0047650426 -0.124552175 -0.06432808
-0.16658638 -0.13706881 0.06310166 -0.0019942566 0.046432193 0.028687414 0.13090701 -0.009432458
00000000: cdba f2bd 45e3 6abe d577 b33d 2177 ed3d
00000010: c1ab ca3d 13eb 363d 2a83 2e3d 593a b4bc
00000020: 9540 c43d 2f43 073d 5b52 2c3d 190a 11be
00000030: 1f3a ac39 d50a ab3d 6d4c 01bd 08db 363d
00000040: ce08 003c b50c e5bc 5e22 5f3d 9c95 99bd
00000050: 561a 9bbc c59b 41bd 2486 a9bc 7978 afbc
00000060: d8ea 6cbd 8312 a13b 13c6 f1bd 9d23 bebd
00000070: 0512 acbd 4a81 9e3a 7a0b 8d3c b891 21bd
00000080: 0910 4cbc 3d48 24bd 2c55 0bbd 6e5a c63d
00000090: 9eca df3d 78e9 bfbd 2a56 033e bc31 133c
000000a0: 4f99 e9bd 3674 2fbc 334e 3ebe 083c 3dbe
000000b0: 3eb0 7b3d 72c5 013d 9583 aabd 1823 3abe
000000c0: f25d e43d 638b 053e 4fdf 44bd 14a7 2bbc
000000d0: 00fe 2fbc e5d9 8bbd b665 26bd abb9 f1bd
000000e0: 3052 39bd 275c a4bd 0c3b 25be 4e02 db3d
000000f0: e321 09bd 1f3e 873d 93ad 30be 9828 7abd
00000100: c7ff 8e3d 068c 0a3d fcdf b6bd 9241 00be
00000110: e23a bcbd 5520 953d 498f b43d 0abb 723d
00000120: be81 8f3d 6828 113e 72f7 a23d 93a0 c6b9
00000130: 2e70 833d 3eb0 083d ebce 57bd 4159 813c
00000140: 7d0e 7c3d 2af1 803c 1963 0ebe c70f 67bd
00000150: 6b57 febd 1d3d babd f8d4 c13b a932 b33d
00000160: 75ff 9bbb 64d8 d8bb 0b21 3e3d 8596 b5bd
00000170: 796f bdbd f248 703d 5972 c23d cbe7 3039
00000180: a00f cfbd a3fa 76bd 40a2 3abd 6e63 c1bc
00000190: 7713 79bd 2411 aabd e655 63bd 3ffb 14bd
000001a0: 49e8 9fbd fec0 8f3d 5685 57be f3a9 08be
000001b0: 61c2 803d f2c9 c03c 454d 9e3c 9508 99bd
000001c0: ab77 053e 19f4 143c b5d1 bf3d e22c ab3d
000001d0: bf07 d83b 18f9 af3d 326e 33be 48a7 78bc
000001e0: a959 61bc 705f 07bd 170a 233d 1ec7 573d
000001f0: 6b86 06bd 104d c63c 37ce ff3c db61 cebd
00000200: 6c84 613c 7907 433a e059 013d 706d 1abd
00000210: c562 4e3d 5b34 7cbd dc84 453c 952b a03d
00000220: 37eb 84bd b5f8 293c 7382 223d 9c87 60bb
00000230: 3d56 27bd 670a 0c3d ba97 d8bd 4a72 8f3d
00000240: 9eee 18bb f800 d43c e3ef 45bd 9201 613c
00000250: 7246 f5bc dfd1 8039 93c1 54bc 9aa3 bcbd
00000260: 844f 4abd d605 9fbc 255a 3fbc 5806 dc3c
00000270: 2d4d 6cb9 aa0e 85bc 74cf 203d 6d60 c0bd
00000280: abc3 5abc 6670 a53c 4494 a33c 24df 6dbb
00000290: e5b6 b6bc a6c6 af3c 014c 3abd 25e6 39bc
000002a0: f0f0 373d b553 efbc f245 633c 5a24 96bd
000002b0: 71c0 65bd b9ea 78bc ceab ad3c 7b39 71bd
000002c0: b0c7 04bb a8b9 cabc 7a56 873d 7c77 adbd
000002d0: 4fef 26bd 9a10 7fbd 2024 4abd ea81 33bd
000002e0: 9b93 babd c412 123c edb1 3fbd da27 f63b
000002f0: 06bb c9bd 9f8a b5bc 5120 e6bd 8dbe cf3d
00000300: 07cb 1d3d b7b1 f33c bf08 84bd beee 1d3d
00000310: e524 debd 3533 203c fd5b 87bd 43e7 97bd
00000320: 178b 05be f29d 0dbe a056 8bbc fdcb 4abd
00000330: 5c84 9bbd 55a5 6f3d a49f 75bd 0b99 05bd
00000340: 5ff6 0abd 48e3 f93c 465d 913c 416d 12bc
00000350: 48ae c9bc ec5a b3bd 9021 173d 3cba 15bc
00000360: 7125 bbbd e7aa bbbc 876c 3ebd 7e13 84bd
00000370: 05d2 87bc 854f 96bd 6dda 2cbd 10ca aabd
00000380: 04c1 55bd 9e59 6bbd 5e34 0cbd 7ffe 2c3d
00000390: f29d afbd 0852 a1bd 49f4 dfbd 37c9 9cbc
000003a0: 5b7b 4fbd d770 eabd 4de6 a0bc 0f10 b4bd
000003b0: 12ab 5b3d 93fe e13c d356 4bbd 851b b0bd
000003c0: 151e 49bb 47d6 0abb 47d0 6bbd 9bcf d9ba
000003d0: acae e53c 1324 9cbb 3615 ffbd 71be 83bd
000003e0: 9f95 2abe c45b 0cbe 713b 813d 13b2 02bb
000003f0: af2f 3e3d de01 eb3c 7d0c 063e 998a 1abc

tcn.network.0.conv2.bias f4 [62]
-0.04953784 -0.1135792 0.08461518 0.030428492 0.016654361 0.052860077 -0.030074228 -0.03082817
-0.033789836 0.030358575 0.0020405464 -0.08490905 0.075541414 -0.08153172 0.025505237 -0.0018566517
-0.024879286 -0.008559755 -0.047143236 -0.069524966 -0.03340468 -0.05638505 -0.03530977 -0.013353564
-0.036923613 -0.07042796 -0.009040338 0.055501815 -0.045599356 -0.075718306 -0.09401292 0.03056084
-0.14866596 -0.008629527 0.08157221 -0.015854882 -0.030983383 0.010674598 0.03818348 -0.092188545
0.008014158 -0.035281815 0.047914267 -0.07417751 -0.09641749 -0.038470514 0.017827041 -0.0065130955
-0.041656062 -0.075027704 -0.08528542 -0.04655385 -0.10453533 0.03140019 -0.037311133 -0.07718579
-0.015749162 0.012297351 -0.09881729 -0.12052096 -0.11571278 0.029773727
00000000: 31e8 4abd 369c e8bd b94a ad3d 2c45 f93c
00000010: ba6e 883c cf83 583d 3a5e f6bc 5c8b fcbc
00000020: 3667 0abd 8cb2 f83c b0ba 053b cce4 adbd
00000030: 75b5 9a3d 1afa a6bd 5cf0 d03c e55a f3ba
00000040: a5cf cbbc 373e 0cbc 4419 41bd 1b63 8ebd
00000050: 59d3 08bd 03f4 66bd faa0 10bd e8c8 5abc
00000060: 373d 17bd 893c 90bd ed1d 14bc df55 633d
00000070: 64c6 3abd 3312 9bbd d989 c0bd ba5a fa3c
00000080: e43b 18be dc62 0dbc 550f a73d 19e2 81bc
00000090: ddd0 fdbc 82e4 2e3c 4866 1c3d 59cd bcbd
000000a0: d14d 033c aa83 10bd c041 443d 61ea 97bd
000000b0: 8876 c5bd 4293 1dbd 040a 923c ce6b d5bb
000000c0: 8c9f 2abd 20a8 99bd 1faa aebd 40af 3ebd
000000d0: 9e16 d6bd 7c9d 003d 8fd3 18bd 9513 9ebd
000000e0: 6304 81bc d47a 493c b860 cabd b1d3 f6bd
000000f0: d2fa ecbd 08e8 f33c

tcn.network.0.net.0.weight f4 [62, 31, 2]
0.09000086 0.098207735 -0.030195232 0.11751483 -0.021743964 -0.009579406 -0.14654887 -0.010234983
0.10958427 -0.093614556 0.18424827 0.018858332 0.042600926 0.028905164 -0.015096989 -0.061364874
0.12425832 0.0038210538 -0.1265834 0.004807813 -0.019089952 -0.05509256 0.07119281 0.054363515
0.06915039 -0.09146026 -8.4939375e-06 -7.121989e-05 -0.086895935 -0.17577504 0.23675184 0.039100364
0.095143184 0.047667533 -0.29531732 -0.052446138 0.02686947 0.07043021 0.01631075 -0.10336818
-0.002401034 -0.06268193 0.09298896 0.15644784 0.10483347 -0.09531042 0.12948777 -0.013113691
0.0483645 -0.085568786 -0.061685704 -0.011374042 -0.12995371 0.15823808 0.07087172 0.0795781
-0.10873544 -0.116107754 -0.078441106 -0.2681887 -0.1409057 -0.18609875 0.039003085 -0.043694466
0.03360885 -0.0275924 0.15476398 -0.08596902 -0.12093233 -0.12086642 0.06275663 -0.008588427
-0.064447194 -0.18128958 -0.087333396 0.0060581383 -0.034401864 0.10738496 -0.026748205 0.040547255
-0.21903314 -0.15155302 0.11699543 0.095062666 0.059573963 0.060059853 0.025291981 0.0013404107
2.0869073e-05 -3.6531743e-05 0.062181402 -0.056099314 0.1816268 0.20186272 -0.1263376 -0.077519506
0.1728522 -0.06682461 0.008367195 -0.1293089 0.0053116707 0.07053076 -0.029362408 -0.10339796
0.051791817 -0.034251787 -0.05534271 0.07700978 -0.08412021 0.067159794 0.08688154 -0.029179526
0.12125832 -0.068800665 -0.085358776 0.03875475 0.06357419 -0.016536599 -0.005165353 -0.05616526
0.10654461 -0.020199846 0.081910275 -0.05690188 -0.052698288 -0.04302623 -0.049528927 -0.10793781
0.08465919 -0.035660453 0.11645111 0.046482436 -0.2038592 -0.0075111864 -0.030220198 -0.052656393
-0.08490609 -0.09130954 0.03651119 -0.0052796095 0.039091576 -0.16922994 0.047868434 -0.11773245
0.010640248 0.08637618 0.032571845 0.21359213 0.057798903 0.02041809 2.5570314e-05 2.5322224e-05
0.0030530712 -0.13737635 0.11425043 -0.08601367 0.018062087 0.02022643 0.0906127 -0.12166001
0.09458505 0.018378263 -0.0022817666 -0.1153317 0.10412121 0.021606775 -0.11320234 0.051240254
0.06288851 -0.011333752 -0.07985176 0.009097546 -0.012810618 -0.12820852 0.016833572 -0.013300593
-0.057978254 0.13960056 0.16487315 -0.038446784 -0.003189028 0.07103586 0.037822414 -0.090559624
0.0659786 0.039056897 0.0028453842 -0.06718002 0.021991095 0.066804826 0.015852878 0.017017279
-0.04808547 -0.020113185 -0.0060061747 -0.02199236 -0.046838947 0.0036275734 -0.07187739 -0.021259042
-0.071911156 0.019491438 0.14477454 -0.010518317 -0.051765285 -0.061969265 -0.12422962 -0.11540151
-0.10144706 -0.0002320011 -0.03382996 0.0017833342 -0.000121260404 -7.111716e-05 -0.02306811 0.12087442
0.11402586 0.102515616 0.061527807 -0.030797813 -0.13557814 0.07832329 -0.023739692 0.033022173
-0.04812908 0.15758795 -0.013268099 -0.055213373 -0.002101679 -0.039491802 -0.15295304 0.09098383
-0.00818646 0.110809796 0.07305799 0.038587254 0.028726334 -0.14463225 -0.09568101 -0.08913384
0.045555837 -0.07968192 0.005457351 -0.087871015 -0.07511798 -0.07702529 -0.08003081 0.05679677
-0.09417509 0.022644378 -0.14065401 -0.1926016 -0.04262551 -0.10001528 -0.035752628 -0.11713701
00000000: 5f52 b83d 2321 c93d fe5b f7bc 9dab f03d
00000010: 6620 b2bc f1f2 1cbc e810 16be a1b0 27bc
00000020: b86d e03d fdb8 bfbd 94ab 3c3e ca7c 9a3c
00000030: 4f7e 2e3d 86ca ec3c 5d59 77bc bc59 7bbd
00000040: 257b fe3d a56a 7a3b 149f 01be dc8a 9d3b
00000050: 8862 9cbc bca8 61bd 89cd 913d 47ac 5e3d
00000060: b89e 8d3d 844f bbbd 2f81 0eb7 e35b 95b8
00000070: 7ff6 b1bd 5ffe 33be 136f 723e b427 203d
00000080: 6eda c23d 083f 433d d533 97be c3d1 56bd
00000090: 5d1d dc3c b73d 903d 1f9e 853c b2b2 d3bd
000000a0: ab5a 1dbb 625f 80bd ff70 be3d dd33 203e
000000b0: eeb2 d63d 1c32 c3bd 7198 043e ceda 56bc
000000c0: db19 463d b03e afbd 26aa 7cbd 315a 3abc
000000d0: 9612 05be 2a09 223e 3125 913d d8f9 a23d
000000e0: b0b0 debd e7c9 edbd bba5 a0bd 0750 89be
000000f0: 9549 10be ac90 3ebe b3c1 1f3d f8f8 32bd
00000100: 6fa9 093d 7509 e2bc 737a 1e3e 8710 b0bd
00000110: 5fab f7bd d088 f7bd 8c86 803d 79b6 0cbc
00000120: e4fc 83bd faa3 39be dadb b2bd 5983 c63b
00000130: f8e8 0cbd a5ec db3d 0d1f dbbc e114 263d
00000140: 394a 60be b730 1bbe 4d9b ef3d 37b0 c23d
00000150: d403 743d 5201 763d 2131 cf3c b8b0 af3a
00000160: fe0f af37 a939 19b8 edb1 7e3d 65c8 65bd
00000170: 60fc 393e 1ab5 4e3e a55e 01be 8cc2 9ebd
00000180: 2b00 313e 57db 88bd 8f16 093c 8d69 04be
00000190: 860d ae3b 6e72 903d 6f89 f0bc 4fc2 d3bd
000001a0: a823 543d 9a4b 0cbd 0aaf 62bd 4eb7 9d3d
000001b0: 3747 acbd 138b 893d f3ee b13d e709 efbc
000001c0: 4856 f83d 5de7 8cbd 95d0 aebd 4dbd 1e3d
000001d0: 2f33 823d c377 87bc 1f42 a9bb 8b0d 66bd
000001e0: 0f34 da3d 267a a5bc 93c0 a73d f211 69bd
000001f0: 29da 57bd 463c 30bd d8de 4abd 800e ddbd
00000200: cc61 ad3d b210 12bd eb7d ee3d 5e64 3e3d
00000210: 77c0 50be 6620 f6bb 5990 f7bc 3bae 57bd
00000220: 3ee3 adbd 7f00 bbbd c28c 153d 9300 adbb
00000230: 7d1e 203d 9d4a 2dbe b111 443d b61d f1bd
00000240: 6f54 2e3c ffe5 b03d 0e6a 053d e5b7 5a3e
00000250: 8bbe 6c3d d743 a73c d57f d637 106b d437
00000260: 0916 483b 63ac 0cbe 21fc e93d ef27 b0bd
00000270: f1f6 933c e6b1 a53c 2793 b93d e228 f9bd
00000280: cfb5 c13d 038e 963c b189 15bb 0733 ecbd
00000290: 803d d53d b100 b13c a1d6 e7bd 4de1 513d
000002a0: b1cb 803d 34b1 39bc 5289 a3bd e00d 153c
000002b0: a0e3 51bc 1849 03be 8fe6 893c bbea 59bc
000002c0: 9b7a 6dbd 73f3 0e3e 82d4 283e 607a 1dbd
000002d0: 03ff 50bb 407b 913d adeb 1a3d 5377 b9bd
000002e0: ca1f 873d 20fa 1f3d a079 3a3b ae95 89bd
000002f0: ab26 b43c f8d0 883d e5dd 813c d267 8b3c
00000300: 45f5 44bd 68c4 a4bc 72cf c4bb 5229 b4bc
00000310: 32da 3fbd 95bc 6d3b 7434 93bd 7127 aebc
00000320: 2846 93bd 82ac 9f3c c73f 143e 0555 2cbc
00000330: d607 54bd 7cd3 7dbd 196c febd a057 ecbd
00000340: 7ac3 cfbd 5245 73b9 4991 0abd c4be e93a
00000350: 2f4d feb8 bc24 95b8 55f9 bcbc 028d f73d
00000360: 6486 e93d b5f3 d13d 9504 7c3d b24b fcbc
00000370: ffd4 0abe f667 a03d be79 c2bc 4242 073d
00000380: 0023 45bd bc5e 213e 7162 59bc 6b27 62bd
00000390: 53bc 09bb 28c2 21bd b99f 1cbe bb55 ba3d
000003a0: 8020 06bc 3ff0 e23d 6d9f 953d ab0d 1e3d
000003b0: 7d53 eb3c 7a1a 14be 68f4 c3bd cd8b b6bd
000003c0: c298 3a3d 4630 a3bd 94d3 b23b b8f5 b3bd
000003d0: 75d7 99bd 6fbf 9dbd 31e7 a3bd bba3 683d
000003e0: dfde c0bd b480 b93c 9b07 10be 5b39 45be
000003f0: 1698 2ebd d0d4 ccbd 5971 12bd 87e5 efbd

tcn.network.0.net.0.bias f4 [62]
0.017032081 -0.024273708 -0.21302238 -0.14585698 -0.06737675 -0.1185725 -0.027231403 0.0009499845
-0.020117331 0.07481466 -0.18652143 -0.09209527 -0.09890709 -0.12513414 0.031802837 -0.0048973626
-0.03457292 2.0412876e-05 0.009442419 0.074859604 0.0015930054 -0.004544379 -0.080313005 0.0060822135
-0.14609131 -0.061712198 -0.20444272 -0.11121421 -0.12737638 0.019026114 -0.06277202 0.00450157
-0.070465736 0.17815639 0.017317044 -0.15299979 0.086529925 -0.17848513 -0.07443202 -0.029647905
0.04777467 -0.10142452 -0.08578633 0.052775018 0.04998691 -0.13925368 -0.06923352 -0.16039555
0.06780372 -0.011183051 0.10357867 -0.101300836 -0.27540696 -0.056099467 -0.10063811 -0.02921477
-0.025267718 -0.12574962 -0.03404756 -0.08427179 -0.026359223 -0.1857717
00000000: dd86 8b3c a8d9 c6bc 8a22 5abe 885b 15be
00000010: d2fc 89bd 24d6 f2bd 6414 dfbc 6108 793a
00000020: 1acd a4bc 6e38 993d 79ff 3ebe 729c bcbd
00000030: cd8f cabd 2a23 00be b143 023d 0e7a a0bb
00000040: 569c 0dbd 513c ab37 60b4 1a3c fe4f 993d
00000050: 64cc d03a 04e9 94bb 257b a4bd 4e4d c73b
00000060: f698 15be eec5 7cbd 6f59 51be 47c4 e3bd
00000070: f46e 02be a7dc 9b3c 9e8e 80bd e881 933b
00000080: 5750 90bd a16e 363e 79dc 8d3c faab 1cbe
00000090: 9a36 b13d cec4 36be d16f 98bd 2ae0 f2bc
000000a0: 5faf 433d a9b7 cfbd beb0 afbd 9e2a 583d
000000b0: 13bf 4c3d 8498 0ebe 4eca 8dbd bb3e 24be
000000c0: addc 8a3d 1e39 37bc 0e21 d43d d076 cfbd
000000d0: 2402 8dbe 8ec8 65bd 5a1b cebd d053 efbc
000000e0: 3ffe cebc 82c4 00be 7475 0bbd b096 acbd
000000f0: 4cef d7bc f03a 3ebe

tcn.network.0.net.4.weight f4 [62, 62, 2]
-0.11852036 -0.22938259 0.087630905 0.11594988 0.09896041 0.044657778 0.042605557 -0.022000479
0.095826305 0.033023056 0.042070728 -0.14164008 0.000328497 0.083516754 -0.031567026 0.04464248
0.007814599 -0.02796016 0.054476134 -0.07499239 -0.018933456 -0.047267694 -0.020693846 -0.02141975
-0.057841152 0.004915537 -0.11805358 -0.092841364 -0.084018745 0.0012092975 0.017217387 -0.03944561
-0.012454995 -0.040107954 -0.034016773 0.09685217 0.10927318 -0.093707025 0.12825838 0.008984026
-0.114061944 -0.010708859 -0.18584518 -0.18479931 0.061447375 0.03168244 -0.083258785 -0.1817745
0.11150731 0.13041453 -0.048064526 -0.010476846 -0.010741711 -0.068286695 -0.040624343 -0.118029915
-0.045244396 -0.08025389 -0.16135806 0.10693799 -0.033479583 0.066036455 -0.17253713 -0.06107387
0.069823794 0.033824943 -0.089294404 -0.12525013 -0.091909185 0.072815575 0.08816392 0.059260406
0.07007168 0.1417557 0.07957353 -0.0003788514 0.06417881 0.033371203 -0.052687567 0.01578963
0.061537255 0.015739996 -0.1390499 -0.05641153 -0.124190174 -0.09093688 0.0059152804 0.08749897
-0.0047606775 -0.0066175926 0.04641823 -0.088666 -0.09249777 0.058663316 0.09494466 0.00016871018
-0.10110402 -0.06029762 -0.04556489 -0.023606982 -0.06080958 -0.083040506 -0.05550184 -0.03637242
-0.07807977 0.07019232 -0.21046957 -0.1334608 0.06287075 0.023533795 0.019323954 -0.0747234
0.13033931 0.009091401 0.0936617 0.0835817 0.0065927203 0.08592433 -0.17522505 -0.015176602
-0.013754287 -0.03305 0.039804544 0.052680127 -0.032843035 0.024206668 0.03122626 -0.10077258
0.013764482 0.0007439773 0.031579852 -0.037702024 0.050387163 -0.061573368 0.012055602 0.078208126
-0.06490176 0.010374238 0.039675187 -0.0034260517 -0.040853728 0.034189608 -0.105758145 0.07004221
-0.0023335586 0.025879368 -0.048324477 0.013733285 -0.029940818 0.0002457043 -0.012985605 -0.09210892
-0.04939224 -0.019411962 -0.011679207 0.026858494 -0.00022535464 -0.016242344 0.039260343 -0.09393392
-0.013352315 0.020195197 0.01996816 -0.0036296332 -0.022304008 0.021457028 -0.04548264 -0.011346375
0.04490751 -0.02921472 0.013871657 -0.07331152 -0.05609173 -0.015192681 0.021200087 -0.05889271
-0.0020260625 -0.02474673 0.06608291 -0.084700555 -0.040755566 -0.06227169 -0.049350858 -0.043825068
-0.09110185 0.008915607 -0.046800543 0.007512075 -0.09850125 -0.022160826 -0.112366326 0.101437666
0.0385237 0.029747827 -0.06446981 0.03855776 -0.10846881 0.009777834 -0.06609342 -0.074171565
-0.1304134 -0.13829783 -0.01700908 -0.049510945 -0.07593605 0.058507282 -0.0599667 -0.032616656
-0.033926364 0.030503884 0.017744672 -0.008937181 -0.024619237 -0.08757576 0.036897242 -0.00913864
-0.09138001 -0.022908641 -0.04649022 -0.0644903 -0.016579637 -0.07339386 -0.042200495 -0.083393216
-0.052186027 -0.057458512 -0.03422963 0.042234894 -0.085750476 -0.07876974 -0.109352656 -0.019138915
-0.05065475 -0.11447304 -0.019641066 -0.087921254 0.053629942 0.02758721 -0.04964335 -0.08598999
-0.0030688096 -0.0021184848 -0.057571676 -0.0016617657 0.028037392 -0.0047650426 -0.124552175 -0.06432808
-0.16658638 -0.13706881 0.06310166 -0.0019942566 0.046432193 0.028687414 0.13090701 -0.009432458
00000000: cdba f2bd 45e3 6abe d577 b33d 2177 ed3d
00000010: c1ab ca3d 13eb 363d 2a83 2e3d 593a b4bc
00000020: 9540 c43d 2f43 073d 5b52 2c3d 190a 11be
00000030: 1f3a ac39 d50a ab3d 6d4c 01bd 08db 363d
00000040: ce08 003c b50c e5bc 5e22 5f3d 9c95 99bd
00000050: 561a 9bbc c59b 41bd 2486 a9bc 7978 afbc
00000060: d8ea 6cbd 8312 a13b 13c6 f1bd 9d23 bebd
00000070: 0512 acbd 4a81 9e3a 7a0b 8d3c b891 21bd
00000080: 0910 4cbc 3d48 24bd 2c55 0bbd 6e5a c63d
00000090: 9eca df3d 78e9 bfbd 2a56 033e bc31 133c
000000a0: 4f99 e9bd 3674 2fbc 334e 3ebe 083c 3dbe
000000b0: 3eb0 7b3d 72c5 013d 9583 aabd 1823 3abe
000000c0: f25d e43d 638b 053e 4fdf 44bd 14a7 2bbc
000000d0: 00fe 2fbc e5d9 8bbd b665 26bd abb9 f1bd
000000e0: 3052 39bd 275c a4bd 0c3b 25be 4e02 db3d
000000f0: e321 09bd 1f3e 873d 93ad 30be 9828 7abd
00000100: c7ff 8e3d 068c 0a3d fcdf b6bd 9241 00be
00000110: e23a bcbd 5520 953d 498f b43d 0abb 723d
00000120: be81 8f3d 6828 113e 72f7 a23d 93a0 c6b9
00000130: 2e70 833d 3eb0 083d ebce 57bd 4159 813c
00000140: 7d0e 7c3d 2af1 803c 1963 0ebe c70f 67bd
00000150: 6b57 febd 1d3d babd f8d4 c13b a932 b33d
00000160: 75ff 9bbb 64d8 d8bb 0b21 3e3d 8596 b5bd
00000170: 796f bdbd f248 703d 5972 c23d cbe7 3039
00000180: a00f cfbd a3fa 76bd 40a2 3abd 6e63 c1bc
00000190: 7713 79bd 2411 aabd e655 63bd 3ffb 14bd
000001a0: 49e8 9fbd fec0 8f3d 5685 57be f3a9 08be
000001b0: 61c2 803d f2c9 c03c 454d 9e3c 9508 99bd
000001c0: ab77 053e 19f4 143c b5d1 bf3d e22c ab3d
000001d0: bf07 d83b 18f9 af3d 326e 33be 48a7 78bc
000001e0: a959 61bc 705f 07bd 170a 233d 1ec7 573d
000001f0: 6b86 06bd 104d c63c 37ce ff3c db61 cebd
00000200: 6c84 613c 7907 433a e059 013d 706d 1abd
00000210: c562 4e3d 5b34 7cbd dc84 453c 952b a03d
00000220: 37eb 84bd b5f8 293c 7382 223d 9c87 60bb
00000230: 3d56 27bd 670a 0c3d ba97 d8bd 4a72 8f3d
00000240: 9eee 18bb f800 d43c e3ef 45bd 9201 613c
00000250: 7246 f5bc dfd1 8039 93c1 54bc 9aa3 bcbd
00000260: 844f 4abd d605 9fbc 255a 3fbc 5806 dc3c
00000270: 2d4d 6cb9 aa0e 85bc 74cf 203d 6d60 c0bd
00000280: abc3 5abc 6670 a53c 4494 a33c 24df 6dbb
00000290: e5b6 b6bc a6c6 af3c 014c 3abd 25e6 39bc
000002a0: f0f0 373d b553 efbc f245 633c 5a24 96bd
000002b0: 71c0 65bd b9ea 78bc ceab ad3c 7b39 71bd
000002c0: b0c7 04bb a8b9 cabc 7a56 873d 7c77 adbd
000002d0: 4fef 26bd 9a10 7fbd 2024 4abd ea81 33bd
000002e0: 9b93 babd c412 123c edb1 3fbd da27 f63b
000002f0: 06bb c9bd 9f8a b5bc 5120 e6bd 8dbe cf3d
00000300: 07cb 1d3d b7b1 f33c bf08 84bd beee 1d3d
00000310: e524 debd 3533 203c fd5b 87bd 43e7 97bd
00000320: 178b 05be f29d 0dbe a056 8bbc fdcb 4abd
00000330: 5c84 9bbd 55a5 6f3d a49f 75bd 0b99 05bd
00000340: 5ff6 0abd 48e3 f93c 465d 913c 416d 12bc
00000350: 48ae c9bc ec5a b3bd 9021 173d 3cba 15bc
00000360: 7125 bbbd e7aa bbbc 876c 3ebd 7e13 84bd
00000370: 05d2 87bc 854f 96bd 6dda 2cbd 10ca aabd
00000380: 04c1 55bd 9e59 6bbd 5e34 0cbd 7ffe 2c3d
00000390: f29d afbd 0852 a1bd 49f4 dfbd 37c9 9cbc
000003a0: 5b7b 4fbd d770 eabd 4de6 a0bc 0f10 b4bd
000003b0: 12ab 5b3d 93fe e13c d356 4bbd 851b b0bd
000003c0: 151e 49bb 47d6 0abb 47d0 6bbd 9bcf d9ba
000003d0: acae e53c 1324 9cbb 3615 ffbd 71be 83bd
000003e0: 9f95 2abe c45b 0cbe 713b 813d 13b2 02bb
000003f0: af2f 3e3d de01 eb3c 7d0c 063e 998a 1abc

tcn.network.0.net.4.bias f4 [62]
-0.04953784 -0.1135792 0.08461518 0.030428492 0.016654361 0.052860077 -0.030074228 -0.03082817
-0.033789836 0.030358575 0.0020405464 -0.08490905 0.075541414 -0.08153172 0.025505237 -0.0018566517
-0.024879286 -0.008559755 -0.047143236 -0.069524966 -0.03340468 -0.05638505 -0.03530977 -0.013353564
-0.036923613 -0.07042796 -0.009040338 0.055501815 -0.045599356 -0.075718306 -0.09401292 0.03056084
-0.14866596 -0.008629527 0.08157221 -0.015854882 -0.030983383 0.010674598 0.03818348 -0.092188545
0.008014158 -0.035281815 0.047914267 -0.07417751 -0.09641749 -0.038470514 0.017827041 -0.0065130955
-0.041656062 -0.075027704 -0.08528542 -0.04655385 -0.10453533 0.03140019 -0.037311133 -0.07718579
-0.015749162 0.012297351 -0.09881729 -0.12052096 -0.11571278 0.029773727
00000000: 31e8 4abd 369c e8bd b94a ad3d 2c45 f93c
00000010: ba6e 883c cf83 583d 3a5e f6bc 5c8b fcbc
00000020: 3667 0abd 8cb2 f83c b0ba 053b cce4 adbd
00000030: 75b5 9a3d 1afa a6bd 5cf0 d03c e55a f3ba
00000040: a5cf cbbc 373e 0cbc 4419 41bd 1b63 8ebd
00000050: 59d3 08bd 03f4 66bd faa0 10bd e8c8 5abc
00000060: 373d 17bd 893c 90bd ed1d 14bc df55 633d
00000070: 64c6 3abd 3312 9bbd d989 c0bd ba5a fa3c
00000080: e43b 18be dc62 0dbc 550f a73d 19e2 81bc
00000090: ddd0 fdbc 82e4 2e3c 4866 1c3d 59cd bcbd
000000a0: d14d 033c aa83 10bd c041 443d 61ea 97bd
000000b0: 8876 c5bd 4293 1dbd 040a 923c ce6b d5bb
000000c0: 8c9f 2abd 20a8 99bd 1faa aebd 40af 3ebd
000000d0: 9e16 d6bd 7c9d 003d 8fd3 18bd 9513 9ebd
000000e0: 6304 81bc d47a 493c b860 cabd b1d3 f6bd
000000f0: d2fa ecbd 08e8 f33c

tcn.network.0.downsample.weight f4 [62, 31, 1]
-0.05237769 -0.21397917 0.0765491 0.09197475 -0.14379476 0.16856933 -0.015761605 0.04432527
0.2190359 0.027099544 0.010310533 -0.034685 0.21296595 -0.00019948265 -0.0693142 -0.09904883
0.08371229 -0.08136425 -0.17203799 -0.2140276 0.1595724 0.11533189 -0.1109472 -0.17876187
0.1483208 -0.1466334 0.13353775 -0.11608132 0.21242997 -0.08174172 -0.0875677 0.10027342
0.058069382 0.21870333 -0.025139889 -0.1801487 -0.08965558 -0.1453179 0.010404552 -0.12594008
0.14650537 -0.16418375 -0.060658704 0.033276066 -1.0992704e-05 0.013456106 0.1661834 -0.095516995
-0.18935019 0.11169687 -0.10018925 -0.19619368 -0.18045048 0.077663355 -0.2016269 0.10121935
0.10543914 -0.014694782 -0.16526811 -0.27875718 -0.1457944 0.039941847 -0.21495315 -0.094751865
-0.02764962 -0.059334304 0.09282004 -0.10129999 0.18014872 -0.065384135 0.016275724 -0.29370052
0.13605483 -0.021882838 0.03033505 -0.00010916654 -0.066455685 0.19688372 -0.066964716 0.0045863576
-0.17907116 -0.19557415 0.09687968 0.0073799966 0.18013413 -0.103538565 0.08584348 0.012592402
0.036294542 0.04321972 0.05882168 -0.117987856 0.003998917 0.13711625 -0.07816283 -0.09422834
0.072557785 -0.0058431127 0.0047030407 -0.0075907153 -0.012940211 -0.050355 0.07026946 -0.040569216
-0.10841969 -0.14879349 6.255016e-06 -0.026412569 0.1918431 0.1578229 0.028105533 0.16776168
0.19306274 -0.29269472 0.0036437616 -0.056084916 0.07114264 0.008476584 0.010336527 -0.08464679
-0.23913352 -0.026216263 0.006094702 -0.12736244 0.13698673 -0.24225657 -0.06191859 -0.091080904
-0.04754192 -0.029072594 -0.0049425373 0.12785241 0.06599965 0.15240066 0.24610244 -0.09783646
-0.10268241 -0.00021510388 0.13502806 0.07162311 0.107809134 0.038233828 0.08434802 0.04577698
-0.053349826 -0.1417084 0.27201223 -0.013778765 -0.026542118 0.19219525 -0.10342883 -0.0018180864
-0.078603536 -0.14535938 -0.027273817 0.09693709 0.009408012 0.10350747 -0.064856686 -0.00241187
0.072946995 -0.16161181 -0.034408685 0.20742522 0.015928326 -0.18844399 -0.20832233 0.0721886
3.9693976e-05 0.06827873 -0.14603622 -0.028319154 -0.14360508 0.21562302 0.112212405 -0.28673428
-0.197967 -0.003476147 -0.12327187 0.14490771 -0.16283064 -0.075064234 0.06069615 -0.1580167
-0.091612905 -0.12289376 -0.0361254 0.08580087 0.13692498 -0.08902362 0.16772161 0.03174848
0.04172737 -0.042910684 0.058037058 0.15607639 0.17941348 -0.1658566 -0.06941115 0.000111269175
-0.07117508 0.18617855 -0.07912336 0.120314725 -0.08169427 -0.0013430918 0.0163679 -0.13971685
0.07113341 -0.01627799 0.1863751 0.12587889 0.07507937 0.110661596 0.0020970288 0.20055652
-0.07356122 0.11325088 -0.15811835 -0.010619149 -0.11199161 0.055872925 -0.22775063 0.014838047
0.054963864 0.23871088 0.1582083 0.04033713 -0.2608772 0.07444293 1.6685792e-06 -0.028624883
-0.20178813 0.04444124 -0.02448215 0.058082864 0.06321809 0.19337192 0.07849275 -0.08063436
-0.18502845 0.070486486 -0.046851687 -0.040530443 -0.024616322 0.14136125 0.075037934 -0.07336895
-0.040177308 0.14468491 0.11934972 -0.14943197 -0.036694683 -0.06266839 -0.07349464 -0.1402535
00000000: fd89 56bd 5b1d 5bbe c6c5 9c3d 425d bc3d
00000010: ef3e 13be 709d 2c3e 7b1e 81bc 6a8e 353d
00000020: f24a 603e ddff dd3c 83ed 283c dc11 0ebd
00000030: bf13 5a3e 372c 51b9 9af4 8dbd 1dda cabd
00000040: 5971 ab3d 4da2 a6bd ba2a 30be 0d2a 5bbe
00000050: f266 233e 2033 ec3d 4938 e3bd 5a0d 37be
00000060: 68e1 173e 1127 16be 1fbe 083e 0bbc edbd
00000070: 3e87 593e 3468 a7bd b256 b3bd 275c cd3d
00000080: 29da 6d3d c4f3 5f3e 2bf2 cdbc e778 38be
00000090: 589d b7bd 37ce 14be db77 2a3c 70f6 00be
000000a0: 8105 163e c91f 28be 4375 78bd 7c4c 083d
000000b0: 4e6d 38b7 0077 5c3c fb2b 2a3e 6a9e c3bd
000000c0: 04e5 41be 54c1 e43d 0630 cdbd ffe6 48be
000000d0: 03c8 38be f70d 9f3d 4877 4ebe 174c cf3d
000000e0: 7af0 d73d 62c2 70bc 0b3c 29be 43b9 8ebe
000000f0: 214b 15be 109a 233d ae1c 5cbe 440d c2bd
00000100: 7581 e2bc 8708 73bd 6f18 be3d 5f76 cfbd
00000110: e878 383e 1ee8 85bd ab54 853c ea5f 96be
00000120: f551 0b3e a343 b3bc 3681 f83c 57f0 e4b8
00000130: eb19 88bd e39b 493e cc24 89bd 2849 963b
00000140: 6e5e 37be 9744 48be db68 c63d e6d3 f13b
00000150: 1575 383e 070c d4bd b5ce af3d 5d50 4e3c
00000160: 96a9 143d 2907 313d 00ef 703d 9ea3 f1bd
00000170: 5909 833b 3468 0c3e d513 a0bd cafa c0bd
00000180: 2d99 943d 9577 bfbb f71b 9a3b 89bb f8bb
00000190: 2e03 54bc 0b41 4ebd 6fe9 8f3d e82b 26bd
000001a0: 240b debd 525d 18be 2ee2 d136 2c5f d8bc
000001b0: 8572 443e 549c 213e 933d e63c b8c9 2b3e
000001c0: 3db2 453e 15dc 95be 2dcc 6e3b 4cb9 65bd
000001d0: 3cb3 913d 5fe1 0a3c 895a 293c 4c5b adbd
000001e0: 6bdf 74be 7dc3 d6bc 11b6 c73b 4d6b 02be
000001f0: 4046 0c3e 1b12 78be 599e 7dbd a088 babd
00000200: 51bb 42bd a629 eebc 02f5 a1bb beeb 023e
00000210: d32a 873d eb0e 1c3e 4702 7c3e 7b5e c8bd
00000220: 284b d2bd 828d 61b9 cc44 0a3e 23af 923d
00000230: 09cb dc3d 139b 1c3d a8be ac3d a580 3b3d
00000240: 5985 5abd 021c 11be 3045 8b3e 54c0 61bc
00000250: db6e d9bc d5ce 443e 7fd2 d3bd db4c eeba
00000260: e4fa a0bd 17d9 14be 576d dfbc f486 c63d
00000270: 1024 1a3c b9fb d33d 95d3 84bd 7710 1ebb
00000280: 3c65 953d 917d 25be 1ff0 0cbd 4767 543e
00000290: 1f7c 823c 76f7 40be 7352 55be 9ed7 933d
000002a0: 157d 2638 b8d5 8b3d 858a 15be 92fd e7bc
000002b0: 360d 13be 48cc 5c3e 9ecf e53d d6ce 92be
000002c0: dcb7 4abe 12d0 63bb f675 fcbd b062 143e
000002d0: 13bd 26be 47bb 99bd 879c 783d 21cf 21be
000002e0: 8c9f bbbd b9af fbbd 3af8 13bd 5eb8 af3d
000002f0: 1036 0c3e 0452 b6bd 37bf 2b3e b20a 023d
00000300: 52ea 2a3d 1dc3 2fbd 44b8 6d3d 7dd2 1f3e
00000310: 2bb8 373e 50d6 29be 6f27 8ebd 2f59 e938
00000320: 3ec4 91bd 97a5 3e3e 6e0b a2bd 9167 f63d
00000330: 534f a7bd af0a b0ba f915 863c ef11 0fbe
00000340: 65ae 913d 6b59 85bc 1dd9 3e3e 65e6 003e
00000350: 36c3 993d 8ca2 e23d 4e6e 093b b05e 4d3e
00000360: 44a7 96bd 14f0 e73d c7e9 21be f0fb 2dbc
00000370: db5b e5bd 02db 643d 7637 69be 481b 733c
00000380: ca21 613d a070 743e 5b01 223e 8c38 253d
00000390: b291 85be 8975 983d f2f3 df35 bb7e eabc
000003a0: 8ca1 4ebe 0508 363d ca8e c8bc 4ce8 6d3d
000003b0: 7c78 813d 4a03 463e cfc0 a03d a123 a5bd
000003c0: 1978 3dbe 385b 903d 8ee7 3fbd 4003 26bd
000003d0: 2ba8 c9bc 01c1 103e 7dad 993d 7642 96bd
000003e0: f690 24bd 4828 143e a06d f43d b204 19be
000003f0: 2a4d 16bd 4958 80bd 5c84 96bd 9d9e 0fbe

tcn.network.0.downsample.bias f4 [62]
0.14436303 -0.1726541 -0.026441807 -0.09756915 -0.04533577 0.15590638 -0.27085033 -0.073277645
-0.14108893 -0.14242595 0.02376105 -0.050266854 -0.18076025 -0.12746656 -0.1863465 -0.065203756
-0.2146472 -0.20122775 -0.19153214 0.11384484 0.09702529 -0.08301787 0.06124004 -0.099440046
-0.119023666 0.025029084 -0.11575956 -0.072300866 -0.021191286 -0.10975875 0.10466568 0.12253407
0.014425319 -0.10599528 -0.062132023 -0.12147167 -0.25087768 -0.20147385 -0.025650172 -0.026033841
-0.21263005 0.17084812 -0.1889782 -0.044270057 -0.043608256 0.11439335 -0.06678507 0.01807317
0.03055094 0.11521634 -0.23657581 -0.093879774 -0.10209078 -0.2010514 -0.17288746 -0.20237514
0.044298433 -0.083297394 -0.1918471 0.06017691 0.029493442 -0.12635165
00000000: e7d3 133e 3dcc 30be 7d9c d8bc 56d2 c7bd
00000010: 00b2 39bd eca5 1f3e e5ac 8abe 9712 96bd
00000020: 9e79 10be 1cd8 11be 89a6 c23c 9ee4 4dbd
00000030: 3719 39be 9886 02be 9ed1 3ebe 8c89 85bd
00000040: 7acc 5bbe a60e 4ebe 0021 44be 7c27 e93d
00000050: 32b5 c63d 4605 aabd d6d6 7a3d 39a7 cbbd
00000060: aec2 f3bd cb09 cd3c 5913 edbd 7a12 94bd
00000070: 5999 adbc 32c9 e0bd f65a d63d 24f3 fa3d
00000080: 2c58 6c3c 0e14 d9bd 267e 7ebd 24c6 f8bd
00000090: 0a73 80be 294f 4ebe 4f20 d2bc ec44 d5bc
000000a0: b1bb 59be cff2 2e3e 8083 41be 8554 35bd
000000b0: 929e 32bd 1047 ea3d 9cc6 88bd 2f0e 943c
000000c0: f745 fa3c 8bf6 eb3d ee40 72be 0a44 c0bd
000000d0: f914 d1bd 6be0 4dbe 6909 31be 6e3b 4fbe
000000e0: 4672 353d d397 aabd 9173 44be 107c 763d
000000f0: 3b9c f13c 5462 01be

tcn.network.1.conv1.weight f4 [103, 62, 2]
-0.07459215 0.01874932 -0.056159895 0.04480922 -0.012494611 -0.10580183 -0.12495267 -0.04731061
-0.11347413 0.016096106 0.017812142 -0.017661048 -0.05250268 -0.050097242 -0.033854928 -0.002992021
-0.08506746 -0.053205453 -0.025842404 -0.10340522 -0.04926187 -0.109436676 -0.0072679715 -0.093458995
0.023730583 0.018844714 -0.10151137 -0.02022487 -0.03319304 -0.108552486 -0.10123526 0.031177014
0.08001566 -0.07175078 -0.06297325 -0.046576872 0.032753214 0.05680985 0.0021781605 0.024088757
-0.086290404 -0.025631454 0.019412724 -0.08396802 -0.12918507 0.0093071675 -0.0043111015 -0.027677165
0.0056328815 -0.012070524 -0.0043742675 -0.057552684 -0.04367654 -0.10684526 0.038316675 0.057188135
-0.06838539 0.001477735 -0.064731024 0.01427877 -0.12433746 -0.052869122 -0.070557274 -0.018682456
-0.057333276 -0.009645649 -0.08897865 -0.06237264 0.058279123 -0.04175233 -0.02641152 -0.10127816
-0.008440682 -0.10387972 -0.053098332 0.04694885 0.023752399 -0.12932041 -0.11747546 -0.009085599
-0.07197456 0.02079492 -0.019535003 -0.06887203 -0.048061248 -0.0005593966 0.021516608 0.038994588
-0.08154456 -0.06848911 -0.029967304 -0.10361709 -0.0030558947 0.0019623225 0.026160272 -0.07760442
0.030531667 0.03984901 -0.07356688 -0.030737756 0.043486364 -0.032387134 -0.055254333 -0.009485546
-0.021007877 -0.15585175 -0.0848842 -0.099765 -0.09349897 0.0052623414 -0.049798824 -0.029004361
-0.048559997 -0.11265447 0.016537953 -0.084596984 0.0065074484 -0.0722956 0.03852641 0.020432757
-0.06580345 -0.029115051 0.02928246 -0.06506036 -0.089706846 -0.07936331 -0.04183359 0.05666266
-0.050281033 -0.023001194 0.038246855 0.05522667 0.05482622 -0.10058734 0.013224042 -0.015088947
-0.07414223 -0.048727304 -0.012267066 0.022478096 0.068076104 0.033629097 -0.0031601035 -0.083744995
-0.11503487 0.02691714 -0.052306797 -0.009965759 0.033970166 0.025863994 -0.031757116 -0.013080074
0.0052569895 0.016486837 0.09721757 -0.05622818 0.047566693 0.004534686 0.11569606 -0.031569608
0.037363734 0.049069237 -0.098386854 0.07574328 0.011913015 0.083273314 -0.02893873 -0.11988962
-0.031858314 0.093599774 -0.024462786 -0.008325927 -0.019534161 -0.07661683 -0.027122458 -0.07156975
0.070489906 -0.014056833 -0.051141612 -0.06002043 -0.02502483 0.03900483 -0.068277776 0.08483227
-0.011577401 0.0122210635 -0.100542784 -0.14293636 0.0739389 -0.085303806 -0.059802156 -0.042459287
-0.075732596 -0.14767072 -0.086101346 0.12801422 0.006833641 -0.09564456 -0.026464365 0.12212942
-0.07338808 -0.02064507 0.01864439 -0.11975799 0.06549079 0.054335922 0.12505186 0.073252484
-0.029280234 0.052150954 -0.12585539 0.06536786 -0.06652675 0.040598977 -0.06649872 -0.045328565
-0.043912034 0.033003762 -0.064460285 -0.024053892 -0.044874363 0.102176785 0.05255741 0.1051573
-0.09865751 0.03471456 0.13474277 0.063519195 0.0014297473 -0.09073475 -0.0086437445 0.04058766
-0.023308238 0.07909204 -0.104280815 0.012627891 -0.006779025 -0.001202341 -0.046809234 -0.092708915
-0.009240087 -0.0042162384 0.1070756 0.027354948 -0.07380852 0.08744499 -0.12310212 -0.054062687
0.07654349 -0.014969808 0.07044167 0.07798157 0.055253055 0.0072234147 0.014951456 0.13958259
00000000: c5c3 98bd 2d98 993c eb07 66bd df89 373d
00000010: 32b6 4cbc a1ae d8bd 2fe7 ffbd c5c8 41bd
00000020: 2065 e8bd fbdb 833c c5ea 913c e7ad 90bc
00000030: 0d0d 57bd c432 4dbd 77ab 0abd c815 44bb
00000040: d937 aebd f6ed 59bd 73b3 d3bc 1ec6 d3bd
00000050: d1c6 49bd 5620 e0bd 2a28 eebb 6e67 bfbd
00000060: a466 c23c 3b60 9a3c 31e5 cfbd a0ae a5bc
00000070: 6df5 07bd c450 debd 6f54 cfbd f066 ff3c
00000080: 40df a33d 13f2 92bd 1ff8 80bd 64c7 3ebd
00000090: 3c28 063d 72b1 683d 78bf 0e3b c955 c53c
000000a0: 06b9 b0bd 0ef9 d1bc 6f07 9f3c 6df7 abbd
000000b0: 1749 04be 177d 183c 2444 8dbb 39bb e2bc
000000c0: 0994 b83b 72c3 45bc 0456 8fbb 5dbc 6bbd
000000d0: 2ce6 32bd b0d1 dabd f2f1 1c3d 1b3e 6a3d
000000e0: a40d 8cbd 8fb0 c13a b391 84bd 81f1 693c
000000f0: a3a4 febd 4b8d 58bd 5580 90bd f30b 99bc
00000100: 4cd6 6abd c908 1ebc 703a b6bd 747a 7fbd
00000110: 17b6 6e3d 7e04 2bbd f95c d8bc ed6a cfbd
00000120: c94a 0abc e4be d4bd a37d 59bd 704d 403d
00000130: 6494 c23c 926c 04be f996 f0bd c4db 14bc
00000140: 6667 93bd 1c5a aa3c df07 a0bc c70c 8dbd
00000150: dfdb 44bd 78a4 12ba 9943 b03c cab8 1f3d
00000160: d600 a7bd 0544 8cbd fe7d f5bc 3235 d4bd
00000170: 6845 48bb 4f9a 003b 114e d63c 11ef 9ebd
00000180: 8c1d fa3c b738 233d 3baa 96bd bfcd fbbc
00000190: c21e 323d 5fa8 04bd 5e52 62bd 4369 1bbc
000001a0: b618 acbc 9a97 1fbe c4d7 adbd 9851 ccbd
000001b0: 637c bfbd b86f ac3b daf9 4bbd 8e9a edbc
000001c0: d9e6 46bd 63b7 e6bd 9a7a 873c 2f41 adbd
000001d0: 6f3c d53b b70f 94bd decd 1d3d 9962 a73c
000001e0: f6c3 86bd b082 eebc c5e1 ef3c 5e3e 85bd
000001f0: 39b8 b7bd 3b89 a2bd b359 2bbd 1b17 683d
00000200: 7cf3 4dbd 006d bcbc bca8 1c3d 5c35 623d
00000210: 7591 603d bc00 cebd a7a9 583c a137 77bc
00000220: e2d7 97bd 4896 47bd cefb 48bc fc23 b83c
00000230: 7c6b 8b3d aabe 093d bd19 4fbb 7f82 abbd
00000240: 6797 ebbd 5681 dc3c a73f 56bd 6c47 23bc
00000250: 4d24 0b3d bae0 d33c c013 02bd cf4d 56bc
00000260: d342 ac3b 670f 873c 011a c73d 854f 66bd
00000270: 4bd5 423d b497 943b 0ef2 ec3d 224f 01bd
00000280: b70a 193d d3fc 483d 0c7f c9bd 4b1f 9b3d
00000290: ce2e 433c 338b aa3d ea10 edbc b088 f5bd
000002a0: dd7d 02bd 3db1 bf3d 2e66 c8bc 7869 08bc
000002b0: 1b06 a0bc 49e9 9cbd eb2f debc 2993 92bd
000002c0: 035d 903d a24e 66bc de79 51bd fbd7 75bd
000002d0: df00 cdbc 87c3 1f3d 38d5 8bbd 8bbc ad3d
000002e0: 24af 3dbc db3a 483c 60e9 cdbd e95d 12be
000002f0: 476d 973d c3b3 aebd 1bf3 74bd cae9 2dbd
00000300: b119 9bbd fe36 17be e755 b0bd 2916 033e
00000310: bcec df3b 4ce1 c3bd cccb d8bc fd1e fa3d
00000320: 7d4c 96bd da1f a9bc 1fbc 983c ad43 f5bd
00000330: 0920 863d 588f 5e3d 980d 003e 6605 963d
00000340: 1add efbc 3d9c 553d 3ce0 00be 96df 853d
00000350: 2d3f 88bd 1d4b 263d 7b30 88bd 72aa 39bd
00000360: 1bdd 33bd f42e 073d c103 84bd ab0c c5bc
00000370: 2ece 37bd 1042 d13d 7046 573d b65c d73d
00000380: f30c cabd db30 0e3d 02fa 093e 5a16 823d
00000390: 5c66 bb3a 24d3 b9bd 7e9e 0dbc 3f3f 263d
000003a0: ebf0 bebc 02fb a13d 2e91 d5bd 37e5 4e3c
000003b0: 9522 debb df97 9dba 0abb 3fbd 2cde bdbd
000003c0: bc63 17bc 5f28 8abb 744a db3d 7c17 e03c
000003d0: ec28 97bd 5c16 b33d f71c fcbd d670 5dbd
000003e0: d5c2 9c3d ed43 75bc b943 903d cdb4 9f3d
000003f0: 0751 623d 65b2 ec3b f4f6 743c bdee 0e3e

tcn.network.1.conv1.bias f4 [103]
-0.0037475356 -0.021963235 -0.07794275 -0.06650337 0.003527533 -0.059864096 0.051327497 0.044709656
0.02798947 -0.027198363 -0.037879642 -0.08247666 0.04276773 0.007382439 -0.10156684 -0.09586995
-0.056842726 -0.004103169 -0.04423054 -0.029030772 -0.068725534 0.08086535 -0.07399794 0.03363261
0.028715737 0.093026474 -0.07835232 -0.09838049 -0.0931795 -0.06328479 -0.05209499 -0.05136096
0.019162018 0.11401549 0.0078044035 -0.059124064 -0.08034849 -0.070679516 0.064751334 -0.11209495
-0.04946639 -0.10323778 -0.08211851 -0.10245721 -0.16195522 -0.0009742816 -0.043966558 0.018211983
0.033080056 -0.009088007 0.021907574 -0.026996778 0.10516714 0.08007972 -0.043854434 -0.07818237
0.042436723 0.001890418 0.005432427 -0.029950872 0.037501596 0.00442804 -0.022994127 -0.085737735
0.017750384 0.047591314 -0.10432009 -0.08122175 -0.10427103 0.0071223886 -0.0041294997 -0.030781213
0.11422615 0.022678949 -0.012683231 -0.1290594 0.0459054 0.05995246 -0.020530557 0.008876362
-0.110251844 0.048279393 -0.022572009 -0.114406854 0.009361068 0.06776087 -0.006855711 0.034865372
0.032494653 0.026005795 0.027109042 -0.0045020543 0.008051215 -0.0367682 -0.10561832 -0.028074944
-0.113251545 -0.06780765 -0.1012929 -0.11944711 -0.048750013 -0.10944732 0.024244707
00000000: 3799 75bb 3eec b3bc 73a0 9fbd eb32 88bd
00000010: 2f2e 673b 0e34 75bd c83c 523d 7921 373d
00000020: 2c4a e53c 1acf debc af27 1bbd 86e9 a8bd
00000030: 372d 2f3d 63e8 f13b 4702 d0bd 7757 c4bd
00000040: ebd3 68bd e073 86bb 152b 35bd f1d1 edbc
00000050: f9bf 8cbd bc9c a53d 3b8c 97bd 59c2 093d
00000060: 443d eb3c aa84 be3d 2e77 a0bd b67b c9bd
00000070: e5d4 bebd 759b 81bd 8e61 55bd df5f 52bd
00000080: aaf9 9c3c f480 e93d 15bc ff3b 132c 72bd
00000090: c08d a4bd 6cc0 90bd 599c 843d 0a92 e5bd
000000a0: 459d 4abd 546e d3bd c02d a8bd 16d5 d1bd
000000b0: 97d7 25be ee66 7fba 4716 34bd 4c31 953c
000000c0: f47e 073d dde5 14bc 8377 b33c 5928 ddbc
000000d0: df61 d73d d600 a43d b5a0 33bd 141e a0bd
000000e0: 21d2 2d3d e7c7 f73a 8002 b23b 885b f5bc
000000f0: 469b 193d 1719 913b 2e5e bcbc 4497 afbd
00000100: 4169 913c 1cef 423d c5a5 d5bd 9757 a6bd
00000110: 0d8c d5bd ed62 e93b c150 87bb e228 fcbc
00000120: 66ef e93d 34c9 b93c 54cd 4fbc 2628 04be
00000130: 4d07 3c3d b690 753d b32f a8bc 296e 113c
00000140: b8cb e1bd 9dc0 453d efe8 b8bc 244e eabd
00000150: 2a5f 193c 36c6 8a3d dfa5 e0bb fece 0e3d
00000160: 1d19 053d 1b0a d53c c813 de3c f885 93bb
00000170: 3ee9 033c 419a 16bd 6b4e d8bd 6dfd e5bc
00000180: 6df0 e7bd bdde 8abd a772 cfbd b0a0 f4bd
00000190: 18ae 47bd eb25 e0bd d69c c63c
