NoteBooks/Ejemplos/best_optuna_model.pth (torch, 17473 bytes, 3 tensors)

fc.0.weight f4 [48, 75]
-0.19528815 0.08631825 0.0051989257 -0.02355763 -0.108534865 -0.12670287 -0.08887172 -0.009128145
-0.0012512358 -0.02687412 -0.032163758 -0.030827459 0.14641568 -0.01187928 0.038713627 0.0142568145
0.032136828 -0.15747938 0.07316037 -0.10585797 -0.053894684 0.06644347 -0.026799867 -0.19048975
-0.05366741 -0.16058445 0.12665653 -0.022001466 0.026076859 -0.17164895 -0.122220315 0.12601009
0.02185079 -0.03701279 -0.04513284 -0.054597273 -0.00039832294 -0.058154777 -0.02606016 -0.08432873
0.052076183 0.020488845 0.025226092 -0.043065708 -0.104251154 -0.07976117 0.17950413 -0.112057954
0.1145222 0.06704492 -0.043416347 -0.06551799 0.03467008 -0.07067322 -0.08546817 -0.019934583
0.0026107866 0.063985944 0.0029501782 0.07330097 -0.20832321 0.17759094 0.005995552 -0.050926335
0.026264567 0.019095981 0.024775594 -0.03383682 0.10675213 -0.06544239 -0.07328924 0.14107963
-0.06295799 0.013136167 -0.0142947035 0.021005403 0.06665432 0.0062790127 -0.00376029 0.1156505
-0.03619735 0.017255142 0.0024257132 0.05525316 -0.04301257 -0.0105056325 0.056267165 -0.10540897
0.04107842 0.05733894 -0.041096784 0.053666264 -0.033892594 0.025188139 0.04602062 -0.08025667
0.057716638 0.09339503 0.094223924 0.097607754 0.03871979 0.07183585 0.050587427 -0.05344854
0.049813576 0.029784124 -0.069158 0.007482555 0.09340235 0.0149151 -0.04297159 -0.035309784
0.0016205845 0.004294233 -0.09646549 -0.12310551 -0.102773726 -0.09621949 0.046659634 -0.034034364
0.032298587 -0.03701014 0.04244219 0.090291694 0.08754164 -0.054422263 0.06165512 0.102277584
-0.011976246 -0.039216854 0.0011149377 0.08377707 -0.07975897 -0.1280771 -0.05163553 -0.035267532
-0.11512289 -0.061001033 0.10779933 0.12659672 -0.069507696 0.022511482 0.010841495 0.006637897
0.11524871 -0.04596653 0.10096787 -0.021289522 0.011432757 -0.036438216 0.027347842 0.050803903
0.07986614 -0.104841985 -0.056901257 -0.07889845 0.017764822 -0.09349231 -0.12866093 0.042007137
-0.15334868 -0.046074472 0.073043734 -0.033501066 0.026705654 -0.05157411 -0.023019927 -0.17261417
-0.16205797 0.12302119 0.030165225 -0.083236694 -0.021178074 0.0127801765 -0.019353606 -0.147053
0.064115055 -0.010370373 0.024636129 -0.14394748 0.1329174 -0.03461322 -0.19393557 -0.014110554
-0.0019365073 0.01373294 0.005741276 0.016442327 0.04940575 0.112730525 -0.1638671 -0.11505491
-0.011075792 -0.18019949 -0.046548843 -0.06636456 0.109692946 0.056314975 0.02123545 0.015545626
-0.11606997 -0.09882774 -0.09080125 -0.11974491 0.14177209 -0.09946033 0.0389943 0.07681838
-0.047539953 -0.14533865 0.07107373 0.055449817 0.0639573 0.14320883 0.026618402 -0.15449417
-0.09288612 -0.049688004 0.044118494 0.09520142 -0.17326611 0.0038144442 0.0831799 -0.092203476
-0.04669627 -0.132482 -0.08086754 -0.05731499 -0.09969674 0.022692587 -0.018741438 0.0037598163
-0.004428367 0.018868921 -0.017558983 0.030047767 0.07941782 -0.036563803 -0.12931769 0.013475143
-0.056599777 -0.0033616626 -0.13000455 -0.09695441 -0.10435603 -0.05601785 -0.026104942 0.010249424
-0.041328143 -0.028580071 0.017144239 -0.04385727 0.022242464 0.09217817 -0.074896514 -0.09681931
00000000: 9ef9 47be 9fc7 b03d c05b aa3b eefb c0bc
00000010: 8747 debd 66be 01be 6002 b6bd 378e 15bc
00000020: 8200 a4ba 1d27 dcbc 25be 03bd de89 fcbc
00000030: feed 153e 50a1 42bc 2e92 1e3d 6a95 693c
00000040: e8a1 033d 4642 21be 1bd5 953d 10cc d8bd
00000050: acc0 5cbd 8413 883d 658b dbbc bf0f 43be
00000060: 5cd2 5bbd 4070 24be 40b2 013e 6b3c b4bc
00000070: 239f d53c bec4 2fbe a54e fabd ca08 013e
00000080: 6e00 b33c b99a 17bd 36dd 38bd 64a1 5fbd
00000090: 00d6 d0b9 b433 6ebd 1e7c d5bc 8bb4 acbd
000000a0: d64d 553d 39d8 a73c f3a6 ce3c ab65 30bd
000000b0: a181 d5bd d359 a3bd eecf 373e a47e e5bd
000000c0: 9d8a ea3d d94e 893d 57d5 31bd 4c2e 86bd
000000d0: 3702 0e3d 1fbd 90bd f009 afbd da4d a3bc
000000e0: bb19 2b3b 100b 833d c757 413b d21e 963d
000000f0: ae52 55be 66da 353e 5676 c43b 2298 50bd
00000100: ca28 d73c 2d6f 9c3c 30f6 ca3c 7a98 0abd
00000110: dca0 da3d a906 86bd ab18 96bd 2e77 103e
00000120: 1ef0 80bd 1439 573c 5534 6abc 8613 ac3c
00000130: 0f82 883d 2dc0 cd3b 336f 76bb 2bda ec3d
00000140: ac43 14bd a85a 8d3c b7f8 1e3b 2351 623d
00000150: f32d 30bd d11f 2cbc 6678 663d a8e0 d7bd
00000160: d841 283d 3ddc 6a3d 1a55 28bd 28d1 5b3d
00000170: f6d2 0abd 5b57 ce3c 1e80 3c3d 9c5d a4bd
00000180: 4868 6c3d e545 bf3d 79f8 c03d 93e6 c73d
00000190: a498 1e3d ad1e 933d c334 4f3d dbec 5abd
000001a0: 5209 4c3d d6fd f33c b6a2 8dbd 3930 f53b
000001b0: bb49 bf3d 775e 743c fa02 30bd fea0 10bd
000001c0: cb69 d43a a3b6 8c3b b38f c5bd be1e fcbd
000001d0: 087b d2bd b90e c5bd 2c1e 3f3d 9e67 0bbd
000001e0: 864b 043d f297 17bd ddd7 2d3d daea b83d
000001f0: 0849 b33d e1e9 5ebd 148a 7c3d e976 d13d
00000200: 0438 44bc daa1 20bd 1a23 923a 5093 ab3d
00000210: ac58 a3bd a526 03be c77f 53bd b074 10bd
00000220: 8dc5 ebbd 38dc 79bd e5c5 dc3d 92a2 013e
00000230: 0d5a 8ebd 006a b83c 87a0 313c b782 d93b
00000240: 8407 ec3d 6647 3cbd 3ec8 ce3d 5d67 aebc
00000250: 7550 3b3c 3d40 15bd 9508 e03c c117 503d
00000260: dc90 a33d 65b7 d6bd 4b11 69bd 8395 a1bd
00000270: 8887 913c e578 bfbd b1bf 03be ad0f 2c3d
00000280: 7007 1dbe 96b8 3cbd f497 953d 6a38 09bd
00000290: d1c5 da3c 603f 53bd 4994 bcbc c5c1 30be
000002a0: 86f2 25be 89f2 fb3d 101d f73c 0078 aabd
000002b0: a47d adbc f263 513c 748b 9ebc 1095 16be
000002c0: c14e 833d 7fe8 29bc b5d1 c93c f866 13be
000002d0: 801b 083e 97c6 0dbd 0c97 46be f42f 67bc
000002e0: 67d2 fdba 2000 613c 5021 bc3b 0fb2 863c
000002f0: af5d 4a3d 43df e63d c7cc 27be e9a1 ebbd
00000300: 3d77 35bc 3786 38be 00aa 3ebd 24ea 87bd
00000310: b2a6 e03d 88aa 663d f7f5 ad3c 15b3 7e3c
00000320: 18b6 edbd 3366 cabd 01f6 b9bd d23c f5bd
00000330: b42c 113e dcb1 cbbd 7db8 1f3d f452 9d3d
00000340: 41b9 42bd a8d3 14be 1b8f 913d 591f 633d
00000350: 0bfc 823d 56a5 123e d60e da3c b833 1ebe
00000360: 143b bebd a685 4bbd 98b5 343d f6f8 c23d
00000370: ac6c 31be c1fb 793b 395a aa3d 2dd5 bcbd
00000380: 9744 3fbd 5da9 07be e19d a5bd 1fc3 6abd
00000390: ce2d ccbd cee5 b93c a587 99bc 4067 763b
000003a0: d61b 91bb ff92 9a3c dbd7 8fbc bc26 f63c
000003b0: cfa5 a23d edc3 15bd db6b 04be d9c6 5c3c
000003c0: 2bd5 67bd 574f 5cbb ea1f 05be 0990 c6bd
000003d0: 9db8 d5bd f972 65bd 08da d5bc 33ed 273c
000003e0: b347 29bd c120 eabc 1372 8c3c aea3 33bd
000003f0: d435 b63c e9c7 bc3d 5863 99bd 3449 c6bd

fc.0.bias f4 [48]
0.092739835 0.09681648 0.16314396 0.13553399 0.16346881 0.1415193 0.052369658 0.09222394
-0.10305004 0.21731463 -0.04859237 -0.06561183 0.11901212 0.19030654 0.1781139 0.0018077607
0.18261643 0.087545745 0.18670397 0.006851702 -0.06075749 0.02319903 0.098426566 -0.016515637
0.04154916 0.048275735 -0.073055856 0.07733983 0.12746198 0.011640886 0.1376137 0.23136607
0.18433855 0.19522035 0.21072528 0.019470679 0.027814923 0.049237557 0.000636215 0.15137926
0.007490017 0.04279465 0.023888515 0.19428876 0.04736121 0.06370218 -0.09840823 -0.10912965
00000000: 62ee bd3d b847 c63d 360f 273e 6cc9 0a3e
00000010: 5e64 273e 6fea 103e 9181 563d e8df bc3d
00000020: e60b d3bd ba87 5e3e cb08 47bd 7f5f 86bd
00000030: a0bc f33d b8df 423e 7d63 363e 62f2 ec3a
00000040: cdff 3a3e 2f4b b33d 532f 3f3e 3e84 e03b
00000050: d9dc 78bd e40b be3c de93 c93d cd4b 87bc
00000060: 742f 2a3d c7bc 453d 4f9e 95bd 5864 9e3d
00000070: 6585 023e 6ab9 3e3c 9bea 0c3e 3aeb 6c3e
00000080: 3fc3 3c3e d8e7 473e 5ec8 573e f980 9f3c
00000090: 1fdc e33c 52ad 493d aac7 263a 2a03 1b3e
000000a0: d16e f53b 7149 2f3d d9b1 c33c a2f3 463e
000000b0: d4fd 413d 4a76 823d 418a c9bd 5e7f dfbd

fc.2.weight f4 [1, 48]
0.19083358 0.04987923 0.15757579 0.08386965 0.1911415 0.08805986 0.16076577 0.18011297
-0.073512666 0.15474018 -0.08067782 -0.021801358 0.23636736 0.1505631 0.1941766 0.05651143
0.09307761 0.16326867 0.18133155 0.17160423 -0.09792555 0.23021856 0.050716504 -0.028471736
-0.07073834 0.21974888 -0.09573864 0.081919745 0.14539519 -0.057845227 0.20357123 0.14270273
0.24327436 0.0778772 0.087335385 -0.029802242 0.20807458 0.108664855 -0.061441313 0.16989358
-0.016118975 0.1815582 0.21930958 0.11439732 0.2327201 -0.099308304 -0.045772843 -0.012451521
00000000: e169 433e 2a4e 4c3d 8c5b 213e dac3 ab3d
00000010: 99ba 433e ba58 b43d c89f 243e 896f 383e
00000020: cf8d 96bd 3674 1e3e 6a3a a5bd c398 b2bc
00000030: 490a 723e 372d 1a3e 3bd6 463e 8778 673d
00000040: 799f be3d e72f 273e faae 393e 05b9 2f3e
00000050: 318d c8bd 6abe 6b3e 1cbc 4f3d 8f3d e9bc
00000060: 43df 90bd da05 613e 9f12 c4bd 8ac5 a73d
00000070: 7ae2 143e 1eef 6cbd fa74 503e aa20 123e
00000080: ea1c 793e 157e 9f3d e5dc b23d d523 f4bc
00000090: 8111 553e ae8b de3d e3a9 7bbd 95f8 2d3e
000000a0: f10b 84bc 65ea 393e b192 603e 2449 ea3d
000000b0: 2e4e 6e3e 2762 cbbd 4e7c 3bbd 7701 4cbc
